datasets/mfccfeatures/normal/train/125_1306332456645_B1.npy (npy, 30704 bytes, 1 tensors)

array f4 [39, 196]
00000000: 0036 d1c3 228e e1c3 0571 e1c3 87e4 d9c3
00000010: 2955 d1c3 ab90 c2c3 5743 c1c3 3fe7 dfc3
00000020: bc12 afc3 b1d9 eac3 127a ddc3 9e6c 9dc3
00000030: f54e acc3 bee3 c2c3 4caa f7c3 7148 afc3
00000040: fe56 f3c3 eb08 cbc3 522c ffc3 5e94 fbc3
00000050: f7b3 d1c3 e563 dec3 38d4 c4c3 d839 9ec3
00000060: 05b4 f2c3 820f c2c3 9151 f8c3 9812 c4c3
00000070: 6fe7 cec3 39cc cdc3 188f d8c3 9887 f1c3
00000080: dad7 06c4 1210 f7c3 3bc3 c2c3 74e3 e6c3
00000090: 4a00 eac3 be06 d0c3 7eab f9c3 d979 f2c3
000000a0: 4e25 dec3 6223 dcc3 9f44 b7c3 170e bbc3
000000b0: 0b07 cdc3 0306 bec3 3e06 cec3 f735 d2c3
000000c0: ee58 cec3 11a9 d3c3 3d00 d3c3 f8c9 c3c3
000000d0: b59d d2c3 b777 dac3 4095 c7c3 76c3 e5c3
000000e0: 61eb c8c3 eebe b9c3 d546 e6c3 9131 f0c3
000000f0: 6af2 f1c3 7e1a ebc3 8a23 bec3 bb36 e0c3
00000100: c098 dec3 8292 dcc3 d243 dbc3 6682 c1c3
00000110: b5e9 d4c3 7d41 d2c3 a410 c1c3 c986 c2c3
00000120: d914 c7c3 06f1 c6c3 100b dac3 c002 e1c3
00000130: 0fcb c3c3 83a7 dbc3 3185 a2c3 1d41 d4c3
00000140: 5698 cdc3 0a01 ccc3 6c0e c4c3 59f3 edc3
00000150: 3f97 edc3 b00b 9bc3 0dd7 cec3 5d1c d1c3
00000160: 46cb d4c3 d8ca d3c3 f0b5 d2c3 fb7c ddc3
00000170: a3d6 c0c3 473e c6c3 1e42 e6c3 65bd cec3
00000180: 294d ebc3 c89c dac3 f9f3 c7c3 6e0f b6c3
00000190: 84e0 c6c3 18aa ccc3 769c dbc3 0a7e e9c3
000001a0: da50 f4c3 d425 fac3 24f2 fac3 3e4d bfc3
000001b0: 2213 2dc4 2213 2dc4 2213 2dc4 2213 2dc4
000001c0: 2213 2dc4 2213 2dc4 2213 2dc4 2213 2dc4
000001d0: 2213 2dc4 2213 2dc4 2213 2dc4 2213 2dc4
000001e0: 2213 2dc4 2213 2dc4 2213 2dc4 2213 2dc4
000001f0: 2213 2dc4 2213 2dc4 2213 2dc4 2213 2dc4
00000200: 2213 2dc4 2213 2dc4 2213 2dc4 2213 2dc4
00000210: 2213 2dc4 2213 2dc4 2213 2dc4 2213 2dc4
00000220: 2213 2dc4 2213 2dc4 2213 2dc4 2213 2dc4
00000230: 2213 2dc4 2213 2dc4 2213 2dc4 2213 2dc4
00000240: 2213 2dc4 2213 2dc4 2213 2dc4 2213 2dc4
00000250: 2213 2dc4 2213 2dc4 2213 2dc4 2213 2dc4
00000260: 2213 2dc4 2213 2dc4 2213 2dc4 2213 2dc4
00000270: 2213 2dc4 2213 2dc4 2213 2dc4 2213 2dc4
00000280: 2213 2dc4 2213 2dc4 2213 2dc4 2213 2dc4
00000290: 2213 2dc4 2213 2dc4 2213 2dc4 2213 2dc4
000002a0: 2213 2dc4 2213 2dc4 2213 2dc4 2213 2dc4
000002b0: 2213 2dc4 2213 2dc4 2213 2dc4 2213 2dc4
000002c0: 2213 2dc4 2213 2dc4 2213 2dc4 2213 2dc4
000002d0: 2213 2dc4 2213 2dc4 2213 2dc4 2213 2dc4
000002e0: 2213 2dc4 2213 2dc4 2213 2dc4 2213 2dc4
000002f0: 2213 2dc4 2213 2dc4 2213 2dc4 2213 2dc4
00000300: 2213 2dc4 2213 2dc4 2213 2dc4 2213 2dc4
00000310: e59c d442 e845 5843 6a6c 4843 81be 5243
00000320: 495b 5e43 0841 7343 59ba 7143 5851 4a43
00000330: 1aaf 7e43 c83b 1d43 88fc 4e43 a5c8 4a43
00000340: 06b7 7543 41a0 6e43 a48e 1c43 081c 7443
00000350: 29be 1b43 1d3b 4243 5456 0843 c864 0b43
00000360: 6ec1 6643 ed48 3943 2004 4743 1c6b 8343
00000370: 8c20 2943 c110 6e43 fc18 0c43 f065 7643
00000380: 902f 6b43 86a5 5b43 0e9e 4843 f3f7 2943
00000390: 604c f242 5a97 1943 7435 7743 0654 2e43
000003a0: d051 2143 4ad0 5f43 7161 0f43 f3b9 1743
000003b0: 8a40 4743 e251 5b43 f0a2 6f43 be99 6b43
000003c0: 3302 7043 dcee 4c43 8207 6343 d9bf 5c43
000003d0: e439 6843 0e6c 5943 3c9d 6143 56f9 7543
000003e0: 022f 5c43 4e34 3a43 8a1a 8043 be91 3643
000003f0: 5246 5e43 5ff9 7543 a03f 3643 f71d 1f43
-418.42188 -451.1104 -450.88297 -435.78537 -418.6653 -389.13022 -386.5261 -447.8066
-350.14636 -469.7007 -442.95367 -314.84857 -344.61685 -389.77924 -495.33044 -350.56595
-486.67963 -406.06967 -510.34625 -503.15912 -419.40598 -444.78043 -393.65796 -316.4519
-485.4064 -388.12115 -496.63724 -392.14526 -413.80807 -411.5955 -433.11792 -483.05933
-539.3727 -494.12555 -389.52524 -461.77698 -468.00226 -416.05267 -499.33978 -484.95193
-444.29144 -440.27643 -366.5361 -374.11008 -410.05502 -380.04697 -412.04877 -420.4216
-412.69476 -423.32083 -422.00186 -391.57788 -421.2321 -436.93527 -399.16602 -459.52704
-401.8389 -371.49164 -460.55338 -480.38724 -483.89386 -470.20697 -380.27765 -448.42758
-445.19336 -441.1446 -438.52985 -387.01874 -425.82584 -420.51163 -386.13 -389.053
-398.16287 -397.883 -436.08643 -450.02148 -391.5864 -439.3087 -325.04056 -424.5087
-411.19012 -408.00812 -392.11267 -475.90115 -475.1816 -310.0913 -413.68008 -418.2216
-425.58807 -423.58472 -421.4214 -442.9764 -385.67685 -396.48654 -460.51654 -413.47964
-470.6028 -437.22485 -399.90604 -364.12054 -397.75403 -409.32886 -439.22235 -466.98468
-488.63165 -500.29553 -501.89172 -382.60345 -692.29895 -692.29895 -692.29895 -692.29895
-692.29895 -692.29895 -692.29895 -692.29895 -692.29895 -692.29895 -692.29895 -692.29895
-692.29895 -692.29895 -692.29895 -692.29895 -692.29895 -692.29895 -692.29895 -692.29895
-692.29895 -692.29895 -692.29895 -692.29895 -692.29895 -692.29895 -692.29895 -692.29895
-692.29895 -692.29895 -692.29895 -692.29895 -692.29895 -692.29895 -692.29895 -692.29895
-692.29895 -692.29895 -692.29895 -692.29895 -692.29895 -692.29895 -692.29895 -692.29895
-692.29895 -692.29895 -692.29895 -692.29895 -692.29895 -692.29895 -692.29895 -692.29895
-692.29895 -692.29895 -692.29895 -692.29895 -692.29895 -692.29895 -692.29895 -692.29895
-692.29895 -692.29895 -692.29895 -692.29895 -692.29895 -692.29895 -692.29895 -692.29895
-692.29895 -692.29895 -692.29895 -692.29895 -692.29895 -692.29895 -692.29895 -692.29895
-692.29895 -692.29895 -692.29895 -692.29895 -692.29895 -692.29895 -692.29895 -692.29895
-692.29895 -692.29895 -692.29895 -692.29895 106.306435 216.27307 200.4235 210.74416
222.35658 243.25403 241.72792 202.31775 254.68399 157.23352 206.98645 202.78377
245.71494 238.62599 156.55719 244.1095 155.74281 194.23091 136.33722 139.39368
230.75558 185.28487 199.01611 262.8368 169.12714 238.06544 140.0976 246.3982
235.18579 219.64658 200.6174 169.96855 121.14917 153.59122 247.2088 174.32822
161.31958 223.81363 143.38063 151.72636 199.2521 219.31985 239.63647 235.60056
240.00859 204.93304 227.02933 220.7494 232.22614 217.42209 225.6142 245.97397
220.18362 186.20432 256.20734 182.5693 222.27469 245.9741 182.24854 159.11705
