datasets/mfccfeatures/normal/train/132_1306758754432_B1.npy (npy, 30704 bytes, 1 tensors)

array f4 [39, 196]
-445.6123 -530.39716 -487.42462 -537.10114 -512.8343 -522.93207 -394.61176 -485.1297
-503.11734 -492.78168 -460.60193 -456.74677 -515.18365 -516.7222 -511.22607 -539.2074
-549.7209 -485.13184 -495.74774 -489.24817 -512.1627 -381.54233 -469.3425 -541.45355
-514.2409 -548.84467 -511.7993 -502.91006 -433.68243 -548.8209 -532.78253 -556.0309
-406.64716 -535.6717 -551.2603 -534.41504 -342.4931 -529.2694 -513.5519 -546.9354
-500.54733 -539.1913 -500.51935 -552.59174 -377.24094 -524.4386 -439.22244 -548.1139
-513.7728 -524.96924 -524.8632 -514.82227 -446.29788 -487.98416 -462.03665 -502.68848
-463.4441 -459.9132 -520.5074 -528.7644 -505.61923 -534.24036 -538.1165 -456.53052
-531.00543 -509.7627 -549.7741 -364.5244 -431.85645 -543.72345 -522.36005 -554.8827
-542.82355 -540.2697 -482.57822 -530.2777 -500.29254 -525.192 -374.68774 -540.39795
-713.08905 -729.2674 -729.2674 -729.2674 -729.2674 -729.2674 -729.2674 -729.2674
-729.2674 -729.2674 -729.2674 -729.2674 -729.2674 -729.2674 -729.2674 -729.2674
-729.2674 -729.2674 -729.2674 -729.2674 -729.2674 -729.2674 -729.2674 -729.2674
-729.2674 -729.2674 -729.2674 -729.2674 -729.2674 -729.2674 -729.2674 -729.2674
-729.2674 -729.2674 -729.2674 -729.2674 -729.2674 -729.2674 -729.2674 -729.2674
-729.2674 -729.2674 -729.2674 -729.2674 -729.2674 -729.2674 -729.2674 -729.2674
-729.2674 -729.2674 -729.2674 -729.2674 -729.2674 -729.2674 -729.2674 -729.2674
-729.2674 -729.2674 -729.2674 -729.2674 -729.2674 -729.2674 -729.2674 -729.2674
-729.2674 -729.2674 -729.2674 -729.2674 -729.2674 -729.2674 -729.2674 -729.2674
-729.2674 -729.2674 -729.2674 -729.2674 -729.2674 -729.2674 -729.2674 -729.2674
-729.2674 -729.2674 -729.2674 -729.2674 -729.2674 -729.2674 -729.2674 -729.2674
-729.2674 -729.2674 -729.2674 -729.2674 -729.2674 -729.2674 -729.2674 -729.2674
-729.2674 -729.2674 -729.2674 -729.2674 -729.2674 -729.2674 -729.2674 -729.2674
-729.2674 -729.2674 -729.2674 -729.2674 -729.2674 -729.2674 -729.2674 -729.2674
-729.2674 -729.2674 -729.2674 -729.2674 91.41695 152.05148 207.33656 146.9206
167.45508 159.65668 266.4216 193.4122 191.59558 190.81339 229.54881 235.45906
164.17966 159.22916 177.06548 148.61652 137.2503 198.68332 197.23077 176.65265
158.2136 261.58093 226.00931 143.96494 167.67221 139.16191 162.67334 162.27386
194.12978 140.56412 157.88214 128.53156 267.33868 153.64279 137.51204 146.61316
273.97495 150.0607 171.55688 144.37914 185.12491 149.79395 167.47238 128.14073
242.57535 157.83838 258.672 140.05045 172.68765 165.82785 164.11993 174.44351
228.98468 200.43877 217.22144 184.46252 219.04507 225.3988 159.67847 152.28636
00000000: 60ce dec3 6b99 04c4 5ab6 f3c3 7946 06c4
00000010: 6535 00c4 a7bb 02c4 4e4e c5c3 9a90 f2c3
00000020: 058f fbc3 0e64 f6c3 0c4d e6c3 965f e4c3
00000030: c1cb 00c4 392e 01c4 f09c ffc3 46cd 06c4
00000040: 236e 09c4 e090 f2c3 b6df f7c3 c49f f4c3
00000050: 6a0a 00c4 6bc5 bec3 d7ab eac3 075d 07c4
00000060: 6b8f 00c4 0f36 09c4 4fe6 ffc3 7d74 fbc3
00000070: 5ad7 d8c3 8a34 09c4 1532 05c4 fa01 0bc4
00000080: d652 cbc3 fdea 05c4 a9d0 09c4 909a 05c4
00000090: 1e3f abc3 3e51 04c4 5263 00c4 debb 08c4
000000a0: 0f46 fac3 3ecc 06c4 7a42 fac3 df25 0ac4
000000b0: d79e bcc3 121c 03c4 799c dbc3 4a07 09c4
000000c0: 7671 00c4 083e 03c4 3f37 03c4 a0b4 00c4
000000d0: 2126 dfc3 f9fd f3c3 b104 e7c3 2058 fbc3
000000e0: d8b8 e7c3 e4f4 e5c3 7920 02c4 ec30 04c4
000000f0: 43cf fcc3 628f 05c4 7587 06c4 e843 e4c3
00000100: 59c0 04c4 a0e1 fec3 8b71 09c4 2043 b6c3
00000110: a0ed d7c3 4dee 07c4 0b97 02c4 7eb8 0ac4
00000120: b5b4 07c4 4311 07c4 034a f1c3 c691 04c4
00000130: 7225 fac3 4a4c 03c4 0858 bbc3 7819 07c4
00000140: b345 32c4 1d51 36c4 1d51 36c4 1d51 36c4
00000150: 1d51 36c4 1d51 36c4 1d51 36c4 1d51 36c4
00000160: 1d51 36c4 1d51 36c4 1d51 36c4 1d51 36c4
00000170: 1d51 36c4 1d51 36c4 1d51 36c4 1d51 36c4
00000180: 1d51 36c4 1d51 36c4 1d51 36c4 1d51 36c4
00000190: 1d51 36c4 1d51 36c4 1d51 36c4 1d51 36c4
000001a0: 1d51 36c4 1d51 36c4 1d51 36c4 1d51 36c4
000001b0: 1d51 36c4 1d51 36c4 1d51 36c4 1d51 36c4
000001c0: 1d51 36c4 1d51 36c4 1d51 36c4 1d51 36c4
000001d0: 1d51 36c4 1d51 36c4 1d51 36c4 1d51 36c4
000001e0: 1d51 36c4 1d51 36c4 1d51 36c4 1d51 36c4
000001f0: 1d51 36c4 1d51 36c4 1d51 36c4 1d51 36c4
00000200: 1d51 36c4 1d51 36c4 1d51 36c4 1d51 36c4
00000210: 1d51 36c4 1d51 36c4 1d51 36c4 1d51 36c4
00000220: 1d51 36c4 1d51 36c4 1d51 36c4 1d51 36c4
00000230: 1d51 36c4 1d51 36c4 1d51 36c4 1d51 36c4
00000240: 1d51 36c4 1d51 36c4 1d51 36c4 1d51 36c4
00000250: 1d51 36c4 1d51 36c4 1d51 36c4 1d51 36c4
00000260: 1d51 36c4 1d51 36c4 1d51 36c4 1d51 36c4
00000270: 1d51 36c4 1d51 36c4 1d51 36c4 1d51 36c4
00000280: 1d51 36c4 1d51 36c4 1d51 36c4 1d51 36c4
00000290: 1d51 36c4 1d51 36c4 1d51 36c4 1d51 36c4
000002a0: 1d51 36c4 1d51 36c4 1d51 36c4 1d51 36c4
000002b0: 1d51 36c4 1d51 36c4 1d51 36c4 1d51 36c4
000002c0: 1d51 36c4 1d51 36c4 1d51 36c4 1d51 36c4
000002d0: 1d51 36c4 1d51 36c4 1d51 36c4 1d51 36c4
000002e0: 1d51 36c4 1d51 36c4 1d51 36c4 1d51 36c4
000002f0: 1d51 36c4 1d51 36c4 1d51 36c4 1d51 36c4
00000300: 1d51 36c4 1d51 36c4 1d51 36c4 1d51 36c4
00000310: 7ad5 b642 2e0d 1843 2956 4f43 aceb 1243
00000320: 8074 2743 1ca8 1f43 f735 8543 8669 4143
00000330: 7898 3f43 3ad0 3e43 7f8c 6543 8575 6b43
00000340: fe2d 2443 aa3a 1f43 c310 3143 d49d 1443
00000350: 1440 0943 eeae 4643 143b 4543 14a7 3043
00000360: ae36 1e43 5cca 8243 6202 6243 06f7 0f43
00000370: 16ac 2743 7329 0b43 60ac 2243 1c46 2243
00000380: 3921 4243 6a90 0c43 d4e1 1d43 1488 0043
00000390: 5aab 8543 8ea4 1943 1583 0943 f89c 1243
000003a0: cbfc 8843 8a0f 1643 908e 2b43 0f61 1043
000003b0: fa1f 3943 40cb 1543 ee78 2743 0724 0043
000003c0: 4a93 7243 a0d6 1d43 0456 8143 ea0c 0c43
000003d0: 0ab0 2c43 eed3 2543 b41e 2443 8a71 2e43
000003e0: 14fc 6443 5370 4843 b038 5943 6876 3843
000003f0: 8a0b 5b43 1866 6143 b0ad 1f43 4f49 1843
