datasets/mfccfeatures/normal/train/133_1306759619127_B1.npy (npy, 30704 bytes, 1 tensors)

array f4 [39, 196]
000000 32 5d e5 c3 d2 00 01 c4 15 f9 02 c4 5e 38 ff c3
       -458.7281 -516.0128 -523.8919 -510.44037
000010 9e b3 cb c3 da ca 00 c4 64 e9 02 c4 7e 56 05 c4
       -407.40326 -515.16956 -523.6467 -533.35144
000020 ed 77 07 c4 80 31 fb c3 a7 9d de c3 86 a3 06 c4
       -541.87384 -502.38672 -445.23166 -538.55505
000030 63 31 0a c4 2f 99 e6 c3 e1 a8 07 c4 b1 24 dd c3
       -552.77167 -461.19675 -542.63873 -442.28665
000040 06 a2 d6 c3 be 3b 00 c4 47 60 02 c4 4b 21 de c3
       -429.2658 -512.9335 -521.50433 -444.2601
000050 c5 66 ff c3 d8 c1 f9 c3 39 65 f7 c3 98 01 00 c4
       -510.8029 -499.5144 -494.7908 -512.0249
000060 be d4 f6 c3 89 9e ec c3 c8 b4 c3 c3 5b 08 f8 c3
       -493.66205 -473.23856 -391.41235 -496.06528
000070 41 e5 fb c3 67 76 f3 c3 6e 41 d2 c3 1c c2 d3 c3
       -503.79105 -486.92502 -420.51117 -423.51648
000080 b5 57 01 c4 1b 8c d9 c3 83 d7 05 c4 ff 33 02 c4
       -517.3704 -435.09457 -535.3674 -520.81244
000090 0d 80 f2 c3 76 a2 06 c4 b5 ec 06 c4 3d dc d9 c3
       -485.0004 -538.53845 -539.69855 -435.7206
0000a0 a8 e3 a3 c3 b0 d0 f7 c3 6f ea 00 c4 70 ff e0 c3
       -327.77856 -495.63037 -515.663 -449.9956
0000b0 5d b2 02 c4 0c 34 eb c3 86 11 c6 c3 cf d4 fe c3
       -522.7869 -470.40662 -396.1369 -509.66257
0000c0 bf 15 bf c3 b2 ac f3 c3 92 05 ce c3 7c 09 ed c3
       -382.1699 -487.34918 -412.04352 -474.0741
0000d0 b6 c9 01 c4 7e e8 02 c4 19 54 02 c4 a9 ff e9 c3
       -519.15173 -523.6327 -521.314 -467.99734
0000e0 90 bb fc c3 b2 5c f1 c3 cf 73 fd c3 40 11 02 c4
       -505.46533 -482.72418 -506.90475 -520.26953
0000f0 0d b3 b0 c3 d0 65 ce c3 bc 98 f2 c3 27 d7 f1 c3
       -353.39883 -412.7954 -485.19324 -483.68088
000100 c6 82 00 c4 8d 19 01 c4 a9 e7 00 c4 cd 76 e9 c3
       -514.04333 -516.39923 -515.6197 -466.92813
000110 a9 26 fd c3 af bf 03 c4 d2 8e 04 c4 ed e4 01 c4
       -506.30203 -526.99506 -530.23157 -519.57697
000120 a6 93 c1 c3 ba 99 ee c3 97 77 bb c3 45 27 d2 c3
       -387.1535 -477.201 -374.9343 -420.3068
000130 47 11 fd c3 da 1d f0 c3 fb 6f d4 c3 ec b1 f5 c3
       -506.13498 -480.23322 -424.87485 -491.39
000140 06 72 f6 c3 38 6e f0 c3 97 6d dd c3 44 71 d6 c3
       -492.8908 -480.86108 -442.85617 -428.8849
000150 87 13 ed c3 2d 8e fc c3 f0 be 05 c4 82 d7 2a c4
       -474.15256 -505.11075 -534.9834 -683.3673
000160 80 e6 2d c4 80 e6 2d c4 80 e6 2d c4 80 e6 2d c4
       -695.60156 -695.60156 -695.60156 -695.60156
000170 80 e6 2d c4 80 e6 2d c4 80 e6 2d c4 80 e6 2d c4
       -695.60156 -695.60156 -695.60156 -695.60156
000180 80 e6 2d c4 80 e6 2d c4 80 e6 2d c4 80 e6 2d c4
       -695.60156 -695.60156 -695.60156 -695.60156
000190 80 e6 2d c4 80 e6 2d c4 80 e6 2d c4 80 e6 2d c4
       -695.60156 -695.60156 -695.60156 -695.60156
0001a0 80 e6 2d c4 80 e6 2d c4 80 e6 2d c4 80 e6 2d c4
       -695.60156 -695.60156 -695.60156 -695.60156
0001b0 80 e6 2d c4 80 e6 2d c4 80 e6 2d c4 80 e6 2d c4
       -695.60156 -695.60156 -695.60156 -695.60156
0001c0 80 e6 2d c4 80 e6 2d c4 80 e6 2d c4 80 e6 2d c4
       -695.60156 -695.60156 -695.60156 -695.60156
0001d0 80 e6 2d c4 80 e6 2d c4 80 e6 2d c4 80 e6 2d c4
       -695.60156 -695.60156 -695.60156 -695.60156
0001e0 80 e6 2d c4 80 e6 2d c4 80 e6 2d c4 80 e6 2d c4
       -695.60156 -695.60156 -695.60156 -695.60156
0001f0 80 e6 2d c4 80 e6 2d c4 80 e6 2d c4 80 e6 2d c4
       -695.60156 -695.60156 -695.60156 -695.60156
000200 80 e6 2d c4 80 e6 2d c4 80 e6 2d c4 80 e6 2d c4
       -695.60156 -695.60156 -695.60156 -695.60156
000210 80 e6 2d c4 80 e6 2d c4 80 e6 2d c4 80 e6 2d c4
       -695.60156 -695.60156 -695.60156 -695.60156
000220 80 e6 2d c4 80 e6 2d c4 80 e6 2d c4 80 e6 2d c4
       -695.60156 -695.60156 -695.60156 -695.60156
000230 80 e6 2d c4 80 e6 2d c4 80 e6 2d c4 80 e6 2d c4
       -695.60156 -695.60156 -695.60156 -695.60156
000240 80 e6 2d c4 80 e6 2d c4 80 e6 2d c4 80 e6 2d c4
       -695.60156 -695.60156 -695.60156 -695.60156
000250 80 e6 2d c4 80 e6 2d c4 80 e6 2d c4 80 e6 2d c4
       -695.60156 -695.60156 -695.60156 -695.60156
000260 80 e6 2d c4 80 e6 2d c4 80 e6 2d c4 80 e6 2d c4
       -695.60156 -695.60156 -695.60156 -695.60156
000270 80 e6 2d c4 80 e6 2d c4 80 e6 2d c4 80 e6 2d c4
       -695.60156 -695.60156 -695.60156 -695.60156
000280 80 e6 2d c4 80 e6 2d c4 80 e6 2d c4 80 e6 2d c4
       -695.60156 -695.60156 -695.60156 -695.60156
000290 80 e6 2d c4 80 e6 2d c4 80 e6 2d c4 80 e6 2d c4
       -695.60156 -695.60156 -695.60156 -695.60156
0002a0 80 e6 2d c4 80 e6 2d c4 80 e6 2d c4 80 e6 2d c4
       -695.60156 -695.60156 -695.60156 -695.60156
0002b0 80 e6 2d c4 80 e6 2d c4 80 e6 2d c4 80 e6 2d c4
       -695.60156 -695.60156 -695.60156 -695.60156
0002c0 80 e6 2d c4 80 e6 2d c4 80 e6 2d c4 80 e6 2d c4
       -695.60156 -695.60156 -695.60156 -695.60156
0002d0 80 e6 2d c4 80 e6 2d c4 80 e6 2d c4 80 e6 2d c4
       -695.60156 -695.60156 -695.60156 -695.60156
0002e0 80 e6 2d c4 80 e6 2d c4 80 e6 2d c4 80 e6 2d c4
       -695.60156 -695.60156 -695.60156 -695.60156
0002f0 80 e6 2d c4 80 e6 2d c4 80 e6 2d c4 80 e6 2d c4
       -695.60156 -695.60156 -695.60156 -695.60156
000300 80 e6 2d c4 80 e6 2d c4 80 e6 2d c4 80 e6 2d c4
       -695.60156 -695.60156 -695.60156 -695.60156
000310 26 14 c0 42 90 1b 0b 43 ee 7c fc 42 5d 98 06 43
       96.03935 139.10767 126.244 134.59517
000320 69 dc 67 43 68 02 0c 43 83 79 06 43 22 85 fc 42
       231.86098 140.0094 134.47466 126.260025
000330 6c 2b df 42 3b 40 1d 43 4e a0 3e 43 30 0d f5 42
       111.58481 157.2509 190.62619 122.52576
000340 60 d4 dc 42 34 70 44 43 e6 7b f1 42 76 1e 5b 43
       110.414795 196.4383 120.74199 219.11899
000350 e4 3e 70 43 14 55 0b 43 de 47 0c 43 5a 87 52 43
       240.24567 139.33234 140.28073 210.52872
000360 90 b2 1a 43 5c a9 1b 43 f3 d3 18 43 b0 ee 10 43
       154.69751 155.66156 152.82793 144.93237
000370 03 ba 20 43 7a 94 39 43 fe a6 7b 43 86 8b 20 43
       160.72661 185.57999 251.65231 160.54501
000380 1c 64 1b 43 20 0f 33 43 0c 6e 61 43 b9 f5 6d 43
       155.39105 179.05908 225.42987 237.95985
000390 38 b2 0f 43 db 8c 5e 43 52 10 fe 42 0a 0a 07 43
       143.69617 222.55022 127.031876 135.03922
0003a0 da 48 2b 43 66 85 fb 42 c3 b4 e7 42 60 04 3f 43
       171.28458 125.760544 115.85305 191.01709
0003b0 7c ce 6c 43 65 58 20 43 ca ce 0a 43 a3 b4 49 43
       236.80658 160.34529 138.80777 201.70561
0003c0 73 d7 f9 42 e6 9b 1f 43 a4 6f 7d 43 fa aa 0e 43
       124.9208 159.60898 253.4361 142.66788
0003d0 cf 38 82 43 53 f1 21 43 df a5 6c 43 94 22 40 43
       260.44382 161.94267 236.64793 192.13507
0003e0 67 ba 06 43 94 48 fe 42 21 b0 05 43 20 9f 3b 43
       134.72813 127.141754 133.688 187.62158
0003f0 68 c1 17 43 4c 40 2c 43 b2 bd 0f 43 58 e5 fe 42
       151.7555 172.25116 143.741 127.44794
