datasets/mfccfeatures/normal/train/153_1306848820671_B1.npy (npy, 30704 bytes, 1 tensors)

array f4 [39, 196]
000000 55 82 fc c3 3a e0 07 c4 65 bf 02 c4 5e cf c5 c3
       -505.01822 -543.50354 -522.99054 -395.62006
000010 6d 23 fe c3 5c 7a f7 c3 ce bf fc c3 6a 62 cd c3
       -508.27676 -494.95593 -505.49847 -410.76886
000020 99 95 f8 c3 e4 41 fe c3 5d a6 fa c3 7a a0 fb c3
       -497.16873 -508.51477 -501.2997 -503.25372
000030 3b cc eb c3 bc e4 f7 c3 22 50 fd c3 7b d0 f0 c3
       -471.59555 -495.787 -506.62604 -481.62875
000040 93 92 d4 c3 65 a4 02 c4 ff db 04 c4 84 4b 04 c4
       -425.1451 -522.56866 -531.43744 -529.17993
000050 57 06 d5 c3 0a 1c 02 c4 c0 f8 03 c4 40 c1 03 c4
       -426.04953 -520.4381 -527.8867 -527.01953
000060 9d 2d c5 c3 9c 58 e3 c3 25 13 02 c4 bd 00 00 c4
       -394.35635 -454.69226 -520.29913 -512.01154
000070 13 51 b0 c3 33 52 02 c4 50 82 02 c4 79 d0 02 c4
       -352.6334 -521.28436 -522.03613 -523.2574
000080 c8 de cc c3 c8 10 05 c4 63 ae 00 c4 cb b8 03 c4
       -409.74048 -532.2622 -514.7248 -526.8874
000090 a3 cb 05 c4 28 75 e9 c3 c5 37 00 c4 01 b5 04 c4
       -535.1818 -466.91528 -512.8714 -530.8282
0000a0 ba 63 04 c4 73 99 d2 c3 97 d9 01 c4 69 fe 03 c4
       -529.5582 -421.19882 -519.39984 -527.97516
0000b0 8b f2 03 c4 d3 58 f8 c3 ba 2a f4 c3 ae c9 02 c4
       -527.78973 -496.69394 -488.3338 -523.15125
0000c0 44 a2 03 c4 ee 63 fe c3 e4 e6 e8 c3 ba 35 ff c3
       -526.5354 -508.7807 -465.80383 -510.41974
0000d0 e0 9e 00 c4 15 c5 fc c3 0b f1 bc c3 0e fa f3 c3
       -514.4824 -505.5397 -377.88315 -487.95355
0000e0 9e 92 f8 c3 61 05 f4 c3 6a 13 cd c3 90 76 f7 c3
       -497.14545 -488.04202 -410.15167 -494.92627
0000f0 e8 11 f6 c3 3d a0 ff c3 dc 3e ea c3 66 9b f9 c3
       -492.1399 -511.25186 -468.4911 -499.21405
000100 ad 67 04 c4 14 b9 04 c4 7e e0 02 c4 84 e9 de c3
       -529.61993 -530.89185 -523.5077 -445.82434
000110 04 1b 04 c4 89 20 06 c4 38 c1 02 c4 af 49 e0 c3
       -528.4221 -536.50836 -523.01904 -448.57565
000120 ed 04 01 c4 2a b1 fd c3 a6 f0 01 c4 1d ce d4 c3
       -516.07697 -507.3841 -519.76013 -425.61026
000130 21 a4 fe c3 48 93 fd c3 c7 7f 03 c4 e5 e2 32 c4
       -509.28226 -507.15063 -525.9965 -715.5452
000140 e5 e2 32 c4 e5 e2 32 c4 e5 e2 32 c4 e5 e2 32 c4
       -715.5452 -715.5452 -715.5452 -715.5452
000150 e5 e2 32 c4 e5 e2 32 c4 e5 e2 32 c4 e5 e2 32 c4
       -715.5452 -715.5452 -715.5452 -715.5452
000160 e5 e2 32 c4 e5 e2 32 c4 e5 e2 32 c4 e5 e2 32 c4
       -715.5452 -715.5452 -715.5452 -715.5452
000170 e5 e2 32 c4 e5 e2 32 c4 e5 e2 32 c4 e5 e2 32 c4
       -715.5452 -715.5452 -715.5452 -715.5452
000180 e5 e2 32 c4 e5 e2 32 c4 e5 e2 32 c4 e5 e2 32 c4
       -715.5452 -715.5452 -715.5452 -715.5452
000190 e5 e2 32 c4 e5 e2 32 c4 e5 e2 32 c4 e5 e2 32 c4
       -715.5452 -715.5452 -715.5452 -715.5452
0001a0 e5 e2 32 c4 e5 e2 32 c4 e5 e2 32 c4 e5 e2 32 c4
       -715.5452 -715.5452 -715.5452 -715.5452
0001b0 e5 e2 32 c4 e5 e2 32 c4 e5 e2 32 c4 e5 e2 32 c4
       -715.5452 -715.5452 -715.5452 -715.5452
0001c0 e5 e2 32 c4 e5 e2 32 c4 e5 e2 32 c4 e5 e2 32 c4
       -715.5452 -715.5452 -715.5452 -715.5452
0001d0 e5 e2 32 c4 e5 e2 32 c4 e5 e2 32 c4 e5 e2 32 c4
       -715.5452 -715.5452 -715.5452 -715.5452
0001e0 e5 e2 32 c4 e5 e2 32 c4 e5 e2 32 c4 e5 e2 32 c4
       -715.5452 -715.5452 -715.5452 -715.5452
0001f0 e5 e2 32 c4 e5 e2 32 c4 e5 e2 32 c4 e5 e2 32 c4
       -715.5452 -715.5452 -715.5452 -715.5452
000200 e5 e2 32 c4 e5 e2 32 c4 e5 e2 32 c4 e5 e2 32 c4
       -715.5452 -715.5452 -715.5452 -715.5452
000210 e5 e2 32 c4 e5 e2 32 c4 e5 e2 32 c4 e5 e2 32 c4
       -715.5452 -715.5452 -715.5452 -715.5452
000220 e5 e2 32 c4 e5 e2 32 c4 e5 e2 32 c4 e5 e2 32 c4
       -715.5452 -715.5452 -715.5452 -715.5452
000230 e5 e2 32 c4 e5 e2 32 c4 e5 e2 32 c4 e5 e2 32 c4
       -715.5452 -715.5452 -715.5452 -715.5452
000240 e5 e2 32 c4 e5 e2 32 c4 e5 e2 32 c4 e5 e2 32 c4
       -715.5452 -715.5452 -715.5452 -715.5452
000250 e5 e2 32 c4 e5 e2 32 c4 e5 e2 32 c4 e5 e2 32 c4
       -715.5452 -715.5452 -715.5452 -715.5452
000260 e5 e2 32 c4 e5 e2 32 c4 e5 e2 32 c4 e5 e2 32 c4
       -715.5452 -715.5452 -715.5452 -715.5452
000270 e5 e2 32 c4 e5 e2 32 c4 e5 e2 32 c4 e5 e2 32 c4
       -715.5452 -715.5452 -715.5452 -715.5452
000280 e5 e2 32 c4 e5 e2 32 c4 e5 e2 32 c4 e5 e2 32 c4
       -715.5452 -715.5452 -715.5452 -715.5452
000290 e5 e2 32 c4 e5 e2 32 c4 e5 e2 32 c4 e5 e2 32 c4
       -715.5452 -715.5452 -715.5452 -715.5452
0002a0 e5 e2 32 c4 e5 e2 32 c4 e5 e2 32 c4 e5 e2 32 c4
       -715.5452 -715.5452 -715.5452 -715.5452
0002b0 e5 e2 32 c4 e5 e2 32 c4 e5 e2 32 c4 e5 e2 32 c4
       -715.5452 -715.5452 -715.5452 -715.5452
0002c0 e5 e2 32 c4 e5 e2 32 c4 e5 e2 32 c4 e5 e2 32 c4
       -715.5452 -715.5452 -715.5452 -715.5452
0002d0 e5 e2 32 c4 e5 e2 32 c4 e5 e2 32 c4 e5 e2 32 c4
       -715.5452 -715.5452 -715.5452 -715.5452
0002e0 e5 e2 32 c4 e5 e2 32 c4 e5 e2 32 c4 e5 e2 32 c4
       -715.5452 -715.5452 -715.5452 -715.5452
0002f0 e5 e2 32 c4 e5 e2 32 c4 e5 e2 32 c4 e5 e2 32 c4
       -715.5452 -715.5452 -715.5452 -715.5452
000300 e5 e2 32 c4 e5 e2 32 c4 e5 e2 32 c4 e5 e2 32 c4
       -715.5452 -715.5452 -715.5452 -715.5452
000310 a0 c4 c8 42 54 a5 f8 42 aa 67 0f 43 b0 5c 85 43
       100.38403 124.32291 143.40494 266.72412
000320 40 26 18 43 ae 77 27 43 68 68 1c 43 78 ec 75 43
       152.14941 167.4675 156.40784 245.9237
000330 76 11 2e 43 01 30 13 43 fa 98 19 43 a0 f8 24 43
       174.0682 147.18752 153.59756 164.97119
000340 e4 8f 43 43 88 aa 20 43 46 fb 1a 43 1d 1c 2f 43
       195.56207 160.66614 154.98154 175.10982
000350 33 34 7d 43 e6 20 0d 43 5a e6 06 43 ae 41 f9 42
       253.2039 141.12851 134.89981 124.62828
000360 ca 22 67 43 62 cf 0f 43 70 8d 09 43 06 fa 06 43
       231.1359 143.81009 137.55249 134.97665
000370 14 bc 87 43 38 7c 52 43 12 8e 0b 43 10 8d 0e 43
       271.46936 210.48523 139.55496 142.55103
000380 1f 8a 91 43 e2 46 0d 43 12 7b 0d 43 24 a4 08 43
       291.07907 141.27689 141.48074 136.64117
000390 b4 b8 7f 43 24 d5 f1 42 92 50 13 43 96 63 06 43
       255.7215 120.91629 147.31473 134.389
0003a0 fb 09 f6 42 e9 32 53 43 22 40 11 43 78 28 00 43
       123.01949 211.19887 145.25052 128.15808
0003b0 90 10 fb 42 de 66 7a 43 c5 a9 02 43 cb 47 f9 42
       125.53235 250.40182 130.66316 124.64022
0003c0 a1 e0 06 43 aa 21 28 43 0e 33 2a 43 c2 93 0f 43
       134.87746 168.1315 170.19943 143.57718
0003d0 5d cf 08 43 ee 62 19 43 26 20 55 43 08 ad 1c 43
       136.81001 153.38644 213.12558 156.6759
0003e0 80 41 15 43 57 81 1a 43 98 58 8b 43 46 dc 2d 43
       149.25586 154.50523 278.69214 173.86044
0003f0 e4 e8 25 43 b6 cc 27 43 66 5a 7b 43 18 c5 22 43
       165.90973 167.79965 251.35312 162.7699
