datasets/mfccfeatures/murmur/train/162_1307101835989_B_1.npy (npy, 30704 bytes, 1 tensors)

array f4 [39, 196]
0	0xc3c251c9	-388.63895
1	0xc3a84488	-336.5354
2	0xc3cf5da9	-414.73172
3	0xc3b41f3a	-360.24396
4	0xc396414a	-300.51007
5	0xc3a5e594	-331.79358
6	0xc3a8b23d	-337.3925
7	0xc3b9ddd0	-371.7329
8	0xc3bba193	-375.2623
9	0xc3952ab3	-298.3336
10	0xc3b87fd2	-368.9986
11	0xc3ccaa65	-409.3312
12	0xc393e50c	-295.78943
13	0xc3c8fe2c	-401.98572
14	0xc3e088c9	-449.06863
15	0xc3d8049f	-432.0361
16	0xc3e374e6	-454.91327
17	0xc3dd43e2	-442.53033
18	0xc3cbe223	-407.7667
19	0xc3c414f2	-392.16364
20	0xc3ae0f32	-348.1187
21	0xc3bbf7e9	-375.9368
22	0xc3bc9c39	-377.2205
23	0xc3b7be5e	-367.48724
24	0xc3c9c4fd	-403.53897
25	0xc3c44b8f	-392.5903
26	0xc3ae034d	-348.0258
27	0xc3b16c8e	-354.84808
28	0xc3ad83c2	-347.02936
29	0xc3edbfaa	-475.49738
30	0xc3d0598a	-416.69952
31	0xc3d66129	-428.75906
32	0xc3d61fbc	-428.24792
33	0xc3d4bb5a	-425.46368
34	0xc3aaf558	-341.91675
35	0xc3b6f30a	-365.89874
36	0xc3b00e1e	-352.1103
37	0xc3f67e9e	-492.9892
38	0xc3ea9132	-469.13434
39	0xc3b348fc	-358.5702
40	0xc3ad0352	-346.02594
41	0xc396eba0	-301.84082
42	0xc3c29b67	-389.21408
43	0xc3b7f4f2	-367.91364
44	0xc3b54eb4	-362.61487
45	0xc3db2f30	-438.36865
46	0xc3e9bc5d	-467.4716
47	0xc3e55c31	-458.72025
48	0xc3edba14	-475.45374
49	0xc3c0eea2	-385.86432
50	0xc3b41005	-360.12515
51	0xc3adac36	-347.3454
52	0xc38cd0bd	-281.63077
53	0xc39f9f1c	-319.24304
54	0xc388bde4	-273.48352
55	0xc3c9bced	-403.47598
56	0xc3a64d26	-332.60272
57	0xc3b60bd9	-364.09256
58	0xc3be46ce	-380.55316
59	0xc3b118b7	-354.19308
60	0xc3a79219	-335.1414
61	0xc3eb58b2	-470.69293
62	0xc3cc7f21	-408.9932
63	0xc3c925db	-402.29575
64	0xc3e9f227	-467.8918
65	0xc3afbf1b	-351.493
66	0xc38c3d02	-280.47662
67	0xc3a561b9	-330.76346
68	0xc3a0861d	-321.04776
69	0xc3a374b2	-326.91168
70	0xc3a23769	-324.4329
71	0xc3068e29	-134.55531
72	0xc3d49b77	-425.21457
73	0xc3d17cb9	-418.9744
74	0xc3cf615a	-414.76056
75	0xc3be0a40	-380.08008
76	0xc3ab7ef2	-342.99176
77	0xc3b23b32	-356.46246
78	0xc3be9776	-381.1833
79	0xc3730d08	-243.0509
80	0xc3aa475f	-340.5576
81	0xc3bb92f0	-375.14795
82	0xc3b91f1d	-370.24307
83	0xc378c6c7	-248.77647
84	0xc3b614c1	-364.16214
85	0xc355d3b3	-213.82695
86	0xc3dd22d0	-442.27197
87	0xc3d4e6bc	-425.8026
88	0xc3c476c1	-392.92776
89	0xc3b097e5	-353.18668
90	0xc3b3196b	-358.19858
91	0xc3a4abd0	-329.3423
92	0xc3ab5c82	-342.72272
93	0xc3a41d8d	-328.23087
94	0xc38738f5	-270.44498
95	0xc30a9b67	-138.60704
96	0xc385dbd4	-267.7174
97	0xc3c6e5fe	-397.7968
98	0xc3b80596	-368.04364
99	0xc3b397f2	-359.18707
100	0xc3ba381a	-372.4383
101	0xc3d133a3	-418.4034
102	0xc3c2b956	-389.44794
103	0xc3c01b0b	-384.21127
104	0xc3aaf184	-341.88684
105	0xc3c7c745	-399.5568
106	0xc3b41ed7	-360.24094
107	0xc3a35eb5	-326.7399
108	0xc3d7df14	-431.7428
109	0xc3b65abb	-364.70883
110	0xc3aac693	-341.55136
111	0xc3b32978	-358.32397
112	0xc3924b2d	-292.5873
113	0xc3ba1344	-372.1505
114	0xc381cc49	-259.59598
115	0xc38f6643	-286.79892
116	0xc3a12d1f	-322.3525
117	0xc3b440f0	-360.50732
118	0xc3a105b8	-322.04468
119	0xc3ac465c	-344.54968
120	0xc39be7b5	-311.8102
121	0xc38a45eb	-276.54623
122	0xc394929a	-297.14532
123	0xc3a7ab0c	-335.3363
124	0xc3d57b34	-426.96252
125	0xc3b86cde	-368.85052
126	0xc3b7b595	-367.4186
127	0xc3c26e79	-388.86307
128	0xc3d954f0	-434.66357
129	0xc3a0f4e0	-321.9131
130	0xc3869d12	-269.2271
131	0xc38ac8d1	-277.56888
132	0xc3c081a1	-385.01273
133	0xc3cb3186	-406.3869
134	0xc42fb686	-702.8519
135	0xc42fb686	-702.8519
136	0xc42fb686	-702.8519
137	0xc42fb686	-702.8519
138	0xc42fb686	-702.8519
139	0xc42fb686	-702.8519
140	0xc42fb686	-702.8519
141	0xc42fb686	-702.8519
142	0xc42fb686	-702.8519
143	0xc42fb686	-702.8519
144	0xc42fb686	-702.8519
145	0xc42fb686	-702.8519
146	0xc42fb686	-702.8519
147	0xc42fb686	-702.8519
148	0xc42fb686	-702.8519
149	0xc42fb686	-702.8519
150	0xc42fb686	-702.8519
151	0xc42fb686	-702.8519
152	0xc42fb686	-702.8519
153	0xc42fb686	-702.8519
154	0xc42fb686	-702.8519
155	0xc42fb686	-702.8519
156	0xc42fb686	-702.8519
157	0xc42fb686	-702.8519
158	0xc42fb686	-702.8519
159	0xc42fb686	-702.8519
160	0xc42fb686	-702.8519
161	0xc42fb686	-702.8519
162	0xc42fb686	-702.8519
163	0xc42fb686	-702.8519
164	0xc42fb686	-702.8519
165	0xc42fb686	-702.8519
166	0xc42fb686	-702.8519
167	0xc42fb686	-702.8519
168	0xc42fb686	-702.8519
169	0xc42fb686	-702.8519
170	0xc42fb686	-702.8519
171	0xc42fb686	-702.8519
172	0xc42fb686	-702.8519
173	0xc42fb686	-702.8519
174	0xc42fb686	-702.8519
175	0xc42fb686	-702.8519
176	0xc42fb686	-702.8519
177	0xc42fb686	-702.8519
178	0xc42fb686	-702.8519
179	0xc42fb686	-702.8519
180	0xc42fb686	-702.8519
181	0xc42fb686	-702.8519
182	0xc42fb686	-702.8519
183	0xc42fb686	-702.8519
184	0xc42fb686	-702.8519
185	0xc42fb686	-702.8519
186	0xc42fb686	-702.8519
187	0xc42fb686	-702.8519
188	0xc42fb686	-702.8519
189	0xc42fb686	-702.8519
190	0xc42fb686	-702.8519
191	0xc42fb686	-702.8519
192	0xc42fb686	-702.8519
193	0xc42fb686	-702.8519
194	0xc42fb686	-702.8519
195	0xc42fb686	-702.8519
196	0x43161ade	150.10495
197	0x435b52be	219.32321
198	0x4369e9c8	233.91321
199	0x437b82c4	251.5108
200	0x4386a48a	269.28546
201	0x436bc4e0	235.76904
202	0x43636138	227.37976
203	0x43649cb7	228.61217
204	0x43675e68	231.36877
205	0x432bb30b	171.69939
206	0x436bf358	235.95056
207	0x436e8b01	238.54298
208	0x43872b6c	270.33923
209	0x436a8043	234.50102
210	0x4337f00a	183.93765
211	0x433e70b9	190.44032
212	0x43453a46	197.22763
213	0x4342c970	194.78687
214	0x4367560c	231.33612
215	0x437d7ced	253.48799
216	0x4380ddf4	257.734
217	0x4351ca75	209.79085
218	0x436ebd94	238.74054
219	0x4363f362	227.95071
220	0x43456f74	197.43536
221	0x436c23be	236.13962
222	0x43830952	262.0728
223	0x4380e448	257.78345
224	0x43894c42	274.59576
225	0x43264baa	166.29556
226	0x4334a7e4	180.65582
227	0x433c7220	188.4458
228	0x43382678	184.15027
229	0x4349ad89	201.67787
230	0x4367d7e8	231.84338
231	0x437cf62a	252.96158
232	0x438ac15b	277.5106
233	0x4321643e	161.39157
234	0x431ea256	158.63412
235	0x43614796	225.27963
236	0x4382909e	261.12982
237	0x438e30af	284.38034
238	0x437b7296	251.4476
239	0x43856ce0	266.8506
240	0x4387a038	271.2517
241	0x4364929d	228.57271
242	0x43286b06	168.41806
243	0x432ba648	171.64954
244	0x432d4822	173.28177
245	0x435e32d7	222.1986
246	0x43738115	243.50423
247	0x437caba9	252.67055
248	0x438131a2	258.38776
249	0x43815f24	258.7433
250	0x432eebd2	174.92117
251	0x43365034	182.3133
252	0x436a2db8	234.17859
253	0x436431de	228.1948
254	0x43731cb2	243.11209
255	0x43837134	262.8844
