datasets/mfccfeatures/murmur/train/288_1311164615284_B1.npy (npy, 30704 bytes, 1 tensors)

array f4 [39, 196]
0	0xc3d5086b	-426.06577
1	0xc3b4c756	-361.5573
2	0xc3ba48c0	-372.56836
3	0xc3c0e9c3	-385.82626
4	0xc368c9c5	-232.78816
5	0xc3ca8295	-405.02017
6	0xc3d91b96	-434.2155
7	0xc3900a0a	-288.07843
8	0xc3a4b875	-329.44107
9	0xc3db373a	-438.43146
10	0xc3b2cef7	-357.6169
11	0xc3c00a46	-384.08026
12	0xc390816d	-289.01114
13	0xc3b59418	-363.15698
14	0xc3c1a873	-387.316
15	0xc3b551dd	-362.63956
16	0xc3baddaf	-373.7319
17	0xc3b2b06c	-357.3783
18	0xc3cc1194	-408.13733
19	0xc3cfbf1d	-415.49307
20	0xc3c06f9b	-384.87192
21	0xc3c9252f	-402.2905
22	0xc3c1d957	-387.69797
23	0xc3b8bfa5	-369.49722
24	0xc3c0c4c0	-385.5371
25	0xc3843f8c	-264.49646
26	0xc3c45329	-392.6497
27	0xc3d11777	-418.18332
28	0xc3d33888	-422.44165
29	0xc3ecb8f2	-473.4449
30	0xc3d7efd7	-431.87375
31	0xc3c607dc	-396.0614
32	0xc3c298dd	-389.19424
33	0xc3c30c24	-390.09485
34	0xc3c7ad28	-399.35278
35	0xc38e4636	-284.54852
36	0xc3dc17e7	-440.18674
37	0xc3aa26c5	-340.3029
38	0xc3e39821	-455.1885
39	0xc3e1d583	-451.66806
40	0xc3d2abc6	-421.34198
41	0xc3ca7923	-404.94638
42	0xc3b205c4	-356.04504
43	0xc3bcc0c5	-377.506
44	0xc3c81fb0	-400.24756
45	0xc3c643f5	-396.5309
46	0xc3dc8c37	-441.09543
47	0xc3d7ef70	-431.8706
48	0xc3ec38f4	-472.44495
49	0xc3e516db	-458.17856
50	0xc3cd1e69	-410.23758
51	0xc3c8c2c9	-401.52176
52	0xc3bf8729	-383.05594
53	0xc3bc5c57	-376.7214
54	0xc3c5b0ed	-395.38223
55	0xc3b4da21	-361.70413
56	0xc3de6ea4	-444.86438
57	0xc3b89228	-369.14185
58	0xc3dc2c37	-440.34543
59	0xc3ecca2e	-473.57953
60	0xc3c75ed4	-398.74084
61	0xc3ccc0c1	-409.5059
62	0xc3b66259	-364.76834
63	0xc3ba6acc	-372.83435
64	0xc3c62d38	-396.35327
65	0xc39152f8	-290.6482
66	0xc3cc989a	-409.1922
67	0xc3d70dad	-430.10684
68	0xc3c77be3	-398.96786
69	0xc3d4d2f2	-425.648
70	0xc3d91d25	-434.2277
71	0xc3c9944a	-403.1585
72	0xc3c3c911	-391.57083
73	0xc3b31aad	-358.2084
74	0xc3bcd52d	-377.66544
75	0xc3c3ca95	-391.58267
76	0xc3c0359e	-384.41888
77	0xc3b15a97	-354.70773
78	0xc3bae09d	-373.7548
79	0xc3ca9004	-405.12512
80	0xc3d86245	-432.76773
81	0xc3d3c532	-423.5406
82	0xc3d38f9b	-423.12192
83	0xc3bcc9d5	-377.5768
84	0xc3be3099	-380.37967
85	0xc3c447f8	-392.56226
86	0xc380b52c	-257.4154
87	0xc3da52c5	-436.64664
88	0xc3c9ca2c	-403.57947
89	0xc3e11498	-450.1609
90	0xc3ddd952	-443.6978
91	0xc3d44d8c	-424.60583
92	0xc3d088cc	-417.06873
93	0xc3a1a519	-323.28983
94	0xc3bfcbc2	-383.59186
95	0xc3c74846	-398.56464
96	0xc38825d4	-272.29553
97	0xc3d7ab46	-431.33807
98	0xc3c2f91c	-389.94617
99	0xc3af3252	-350.39313
100	0xc3e10037	-450.00168
101	0xc3c7222d	-398.267
102	0xc3c734cb	-398.41245
103	0xc3bb104c	-374.12732
104	0xc3be709d	-380.8798
105	0xc3c6de6b	-397.73764
106	0xc389d271	-275.64407
107	0xc3d7a551	-431.29153
108	0xc3cbe6cf	-407.8032
109	0xc3d5d3a2	-427.65338
110	0xc3e0fcf3	-449.97617
111	0xc3e60a92	-460.08258
112	0xc3d39c14	-423.21936
113	0xc3c5ab79	-395.33963
114	0xc3a3b1e5	-327.3898
115	0xc3b598d5	-363.194
116	0xc3bb0322	-374.02448
117	0xc384a53f	-265.291
118	0xc3bb40db	-374.50668
119	0xc3ced384	-413.65247
120	0xc3cfc742	-415.5567
121	0xc41a95f1	-618.34283
122	0xc41a95f1	-618.34283
123	0xc41a95f1	-618.34283
124	0xc41a95f1	-618.34283
125	0xc41a95f1	-618.34283
126	0xc41a95f1	-618.34283
127	0xc41a95f1	-618.34283
128	0xc41a95f1	-618.34283
129	0xc41a95f1	-618.34283
130	0xc41a95f1	-618.34283
131	0xc41a95f1	-618.34283
132	0xc41a95f1	-618.34283
133	0xc41a95f1	-618.34283
134	0xc41a95f1	-618.34283
135	0xc41a95f1	-618.34283
136	0xc41a95f1	-618.34283
137	0xc41a95f1	-618.34283
138	0xc41a95f1	-618.34283
139	0xc41a95f1	-618.34283
140	0xc41a95f1	-618.34283
141	0xc41a95f1	-618.34283
142	0xc41a95f1	-618.34283
143	0xc41a95f1	-618.34283
144	0xc41a95f1	-618.34283
145	0xc41a95f1	-618.34283
146	0xc41a95f1	-618.34283
147	0xc41a95f1	-618.34283
148	0xc41a95f1	-618.34283
149	0xc41a95f1	-618.34283
150	0xc41a95f1	-618.34283
151	0xc41a95f1	-618.34283
152	0xc41a95f1	-618.34283
153	0xc41a95f1	-618.34283
154	0xc41a95f1	-618.34283
155	0xc41a95f1	-618.34283
156	0xc41a95f1	-618.34283
157	0xc41a95f1	-618.34283
158	0xc41a95f1	-618.34283
159	0xc41a95f1	-618.34283
160	0xc41a95f1	-618.34283
161	0xc41a95f1	-618.34283
162	0xc41a95f1	-618.34283
163	0xc41a95f1	-618.34283
164	0xc41a95f1	-618.34283
165	0xc41a95f1	-618.34283
166	0xc41a95f1	-618.34283
167	0xc41a95f1	-618.34283
168	0xc41a95f1	-618.34283
169	0xc41a95f1	-618.34283
170	0xc41a95f1	-618.34283
171	0xc41a95f1	-618.34283
172	0xc41a95f1	-618.34283
173	0xc41a95f1	-618.34283
174	0xc41a95f1	-618.34283
175	0xc41a95f1	-618.34283
176	0xc41a95f1	-618.34283
177	0xc41a95f1	-618.34283
178	0xc41a95f1	-618.34283
179	0xc41a95f1	-618.34283
180	0xc41a95f1	-618.34283
181	0xc41a95f1	-618.34283
182	0xc41a95f1	-618.34283
183	0xc41a95f1	-618.34283
184	0xc41a95f1	-618.34283
185	0xc41a95f1	-618.34283
186	0xc41a95f1	-618.34283
187	0xc41a95f1	-618.34283
188	0xc41a95f1	-618.34283
189	0xc41a95f1	-618.34283
190	0xc41a95f1	-618.34283
191	0xc41a95f1	-618.34283
192	0xc41a95f1	-618.34283
193	0xc41a95f1	-618.34283
194	0xc41a95f1	-618.34283
195	0xc41a95f1	-618.34283
196	0x431d3c12	157.23465
197	0x435c26ea	220.15201
198	0x434f62cc	207.38593
199	0x43461c0c	198.10956
200	0x434cee3f	204.93065
201	0x43440996	196.03745
202	0x4325b21c	165.69574
203	0x437b1442	251.07913
204	0x4345046c	197.01727
205	0x431f27dc	159.1557
206	0x4346e84a	198.90738
207	0x43407f0b	192.49626
208	0x43812f16	258.36786
209	0x43535a98	211.35388
210	0x4339eb44	185.919
211	0x4360ac6c	224.67352
212	0x432a6909	170.4103
213	0x4342a3aa	194.63931
214	0x432fd139	175.81728
215	0x432e17b4	174.09259
216	0x43501aa7	208.10411
217	0x433ed03e	190.81345
218	0x4346d772	198.84158
219	0x4351ece6	209.92538
220	0x4345f47c	197.95502
221	0x4381f8f2	259.9449
222	0x4332ad28	178.67639
223	0x433477ba	180.46768
224	0x4333ef25	179.93416
225	0x430d9900	141.59766
226	0x432974fc	169.45697
227	0x433abd73	186.74004
228	0x434668dc	198.4096
229	0x4346ac65	198.67342
230	0x4336f6ce	182.96408
231	0x4378660c	248.39862
232	0x43151982	149.09964
233	0x435660e0	214.37842
234	0x43196146	153.37997
235	0x431d001b	157.00041
236	0x433421e2	180.13235
237	0x434115e0	193.08545
238	0x434ab328	202.69983
239	0x434e0cff	206.05077
240	0x433aae0a	186.67984
241	0x4346ca9c	198.79144
242	0x4323db16	163.8558
243	0x4328da1e	168.85202
244	0x4305ef66	133.93515
245	0x430cfabc	140.97943
246	0x433b4aac	187.29169
247	0x4344c692	196.77567
248	0x434c621a	204.38321
249	0x434f0008	207.00012
250	0x433bd170	187.81812
251	0x43591a5f	217.10301
252	0x4320aed2	160.68289
253	0x435795ae	215.58469
254	0x43225d6c	162.36493
255	0x4308f015	136.93782
