datasets/mfccfeatures/murmur/train/aug_288_1311164615284_B1_cardiac_pcgmix_plus_197_1308141235553_A_alpha0.56_optimal_61.npy (npy, 30704 bytes, 1 tensors)

array f4 [39, 196]
0	0xc3de3a5d	-444.45596
1	0xc390e019	-289.75076
2	0xc37e3994	-254.22491
3	0xc3a5042e	-330.03265
4	0xc3420b11	-194.04323
5	0xc3a2aae6	-325.33514
6	0xc381e4da	-259.7879
7	0xc3661311	-230.07448
8	0xc34686fb	-198.52727
9	0xc32d1585	-173.08406
10	0xc3568234	-214.5086
11	0xc3b59894	-363.19202
12	0xc3a03ce2	-320.47565
13	0xc3c2e160	-389.76074
14	0xc37adbb5	-250.85823
15	0xc34d4bb3	-205.2957
16	0xc3ab7085	-342.87906
17	0xc3c0e21c	-385.76648
18	0xc3d73639	-430.4236
19	0xc3d98de5	-435.10855
20	0xc3607780	-224.4668
21	0xc390952c	-289.1654
22	0xc3ca51c2	-404.63873
23	0xc3c11834	-386.1891
24	0xc3ad6bf1	-346.8433
25	0xc36014f7	-224.0819
26	0xc327bf2c	-167.74677
27	0xc3dc7262	-440.89362
28	0xc3dbded2	-439.74078
29	0xc39e0311	-316.02396
30	0xc36a4680	-234.27539
31	0xc3d3a6f3	-423.3043
32	0xc3cd48b5	-410.56802
33	0xc3cdb923	-411.44638
34	0xc35b735a	-219.45059
35	0xc33e6a39	-190.41493
36	0xc3a91a48	-338.20532
37	0xc3b996f4	-371.17932
38	0xc3e7f2e7	-463.89767
39	0xc3e0c33a	-449.5252
40	0xc3d85d0b	-432.7269
41	0xc37d7947	-253.47374
42	0xc36664cf	-230.39378
43	0xc3a5c36c	-331.52673
44	0xc3759188	-245.56848
45	0xc374e34d	-244.8879
46	0xc3edb9a6	-475.45038
47	0xc3e3f550	-455.9165
48	0xc3d8c308	-433.52368
49	0xc381ad61	-259.35452
50	0xc37a9769	-250.59145
51	0xc3cf2d76	-414.35516
52	0xc3c5904b	-395.1273
53	0xc3a7e55c	-335.79187
54	0xc31d53c3	-157.3272
55	0xc37db0fa	-253.69131
56	0xc3b8c122	-369.50885
57	0xc3795f8e	-249.37326
58	0xc35de001	-221.87502
59	0xc36ca581	-236.6465
60	0xc36d86cd	-237.52657
61	0xc386e5f1	-269.79642
62	0xc3c51e5d	-394.2372
63	0xc3ce3f25	-412.49332
64	0xc3bf1f0c	-382.24255
65	0xc370fa12	-240.97684
66	0xc3bdce05	-379.60953
67	0xc3e4cf47	-457.61935
68	0xc3dc8a0e	-441.07855
69	0xc3e8d7b5	-465.6852
70	0xc35c226c	-220.13446
71	0xc38fcb90	-287.59033
72	0xc3b26527	-356.79025
73	0xc3c9cd0b	-403.6019
74	0xc3cf5337	-414.65012
75	0xc37a53d1	-250.32741
76	0xc393f2f2	-295.898
77	0xc3c03165	-384.3859
78	0xc3d2f9ee	-421.95258
79	0xc3ded3ba	-445.6541
80	0xc3e18731	-451.05618
81	0xc3912ba4	-290.34094
82	0xc3530765	-211.02888
83	0xc3d2be42	-421.4864
84	0xc3d2d84f	-421.6899
85	0xc3c8a12b	-401.25912
86	0xc384aa62	-265.33112
87	0xc3ec462c	-472.54822
88	0xc3dfaba9	-447.3411
89	0xc3d721df	-430.26462
90	0xc3e70e30	-462.11084
91	0xc3da349e	-436.41107
92	0xc3d691e8	-429.1399
93	0xc3a76f16	-334.86786
94	0xc3c5fc27	-395.96994
95	0xc3cd5694	-410.6764
96	0xc38d6f03	-282.86728
97	0xc3dd2235	-442.26724
98	0xc3c7e179	-399.7615
99	0xc3b44037	-360.50168
100	0xc3e5f08a	-459.8792
101	0xc3cbfef6	-407.99188
102	0xc3cbad78	-407.35522
103	0xc3bfcaa2	-383.58307
104	0xc3c3215c	-390.26062
105	0xc3cb4d83	-406.60556
106	0xc36bf718	-235.96521
107	0xc3dbf93b	-439.9471
108	0xc3cf6a9d	-414.83292
109	0xc3d992c2	-435.14655
110	0xc3e497b4	-457.18518
111	0xc3e96eff	-466.86716
112	0xc3d6f850	-429.93994
113	0xc3c88da8	-401.1067
114	0xc3a6290d	-332.3207
115	0xc3b8498b	-368.57455
116	0xc3bd493e	-378.5722
117	0xc35fbe41	-223.74318
118	0xc3bd650c	-378.78943
119	0xc3d0f08a	-417.8792
120	0xc3d14eb6	-418.61493
121	0xc4225fb7	-649.49554
122	0xc4225fb7	-649.49554
123	0xc4225fb7	-649.49554
124	0xc4225fb7	-649.49554
125	0xc4225fb7	-649.49554
126	0xc4225fb7	-649.49554
127	0xc4225fb7	-649.49554
128	0xc4225fb7	-649.49554
129	0xc4225fb7	-649.49554
130	0xc4225fb7	-649.49554
131	0xc4225fb7	-649.49554
132	0xc4225fb7	-649.49554
133	0xc4225fb7	-649.49554
134	0xc4225fb7	-649.49554
135	0xc4225fb7	-649.49554
136	0xc4225fb7	-649.49554
137	0xc4225fb7	-649.49554
138	0xc4225fb7	-649.49554
139	0xc4225fb7	-649.49554
140	0xc4225fb7	-649.49554
141	0xc4225fb7	-649.49554
142	0xc4225fb7	-649.49554
143	0xc4225fb7	-649.49554
144	0xc4225fb7	-649.49554
145	0xc4225fb7	-649.49554
146	0xc4225fb7	-649.49554
147	0xc4225fb7	-649.49554
148	0xc4225fb7	-649.49554
149	0xc4225fb7	-649.49554
150	0xc4225fb7	-649.49554
151	0xc4225fb7	-649.49554
152	0xc4225fb7	-649.49554
153	0xc4225fb7	-649.49554
154	0xc4225fb7	-649.49554
155	0xc4225fb7	-649.49554
156	0xc4225fb7	-649.49554
157	0xc4225fb7	-649.49554
158	0xc4225fb7	-649.49554
159	0xc4225fb7	-649.49554
160	0xc4225fb7	-649.49554
161	0xc4225fb7	-649.49554
162	0xc4225fb7	-649.49554
163	0xc4225fb7	-649.49554
164	0xc4225fb7	-649.49554
165	0xc4225fb7	-649.49554
166	0xc4225fb7	-649.49554
167	0xc4225fb7	-649.49554
168	0xc4225fb7	-649.49554
169	0xc4225fb7	-649.49554
170	0xc4225fb7	-649.49554
171	0xc4225fb7	-649.49554
172	0xc4225fb7	-649.49554
173	0xc4225fb7	-649.49554
174	0xc4225fb7	-649.49554
175	0xc4225fb7	-649.49554
176	0xc4225fb7	-649.49554
177	0xc4225fb7	-649.49554
178	0xc4225fb7	-649.49554
179	0xc4225fb7	-649.49554
180	0xc4225fb7	-649.49554
181	0xc4225fb7	-649.49554
182	0xc4225fb7	-649.49554
183	0xc4225fb7	-649.49554
184	0xc4225fb7	-649.49554
185	0xc4225fb7	-649.49554
186	0xc4225fb7	-649.49554
187	0xc4225fb7	-649.49554
188	0xc4225fb7	-649.49554
189	0xc4225fb7	-649.49554
190	0xc4225fb7	-649.49554
191	0xc4225fb7	-649.49554
192	0xc4225fb7	-649.49554
193	0xc4225fb7	-649.49554
194	0xc4225fb7	-649.49554
195	0xc4225fb7	-649.49554
196	0x433087b6	176.53012
197	0x43709042	240.5635
198	0x4357dc90	215.86157
199	0x4375a56e	245.64621
200	0x4339adaf	185.67845
201	0x42fcbf32	126.37343
202	0x431e6022	158.37552
203	0x4368d938	232.84851
204	0x42d7b2ba	107.849075
205	0x42fbe423	125.94558
206	0x435b721d	219.44576
207	0x43717c2a	241.48502
208	0x43811c53	258.22128
209	0x4353e5c2	211.89749
210	0x4327e24d	167.88399
211	0x435809ed	216.03877
212	0x43110ca6	145.04941
213	0x4343ef07	195.9337
214	0x4334e6ee	180.90207
215	0x432fa076	175.6268
216	0x43656a26	229.41464
217	0x42d442e9	106.130684
218	0x434bfeee	203.99582
219	0x4359257a	217.1464
220	0x4344cb64	196.7945
221	0x436acdf6	234.80453
222	0x42e1977e	112.79588
223	0x433561d5	181.38216
224	0x433348d4	179.28448
225	0x4347fe8e	199.99435
226	0x437c6e00	252.42969
227	0x433b9da4	187.61578
228	0x434aa0bc	202.62787
229	0x4349cb2e	201.79367
230	0x42e66988	115.206116
231	0x4336e6fe	182.90231
232	0x42eb036f	117.50671
233	0x4356af04	214.68365
234	0x4327d998	167.84998
235	0x433940d2	185.2532
236	0x4341a69f	193.65086
237	0x432dacc6	173.6749
238	0x435b2158	219.13025
239	0x43785e7f	248.36913
240	0x4364fcaa	228.98697
241	0x43747ad9	244.47987
242	0x431cf1fa	156.94522
243	0x432601b4	166.00665
244	0x43436bbc	195.42084
245	0x435a960a	218.58609
246	0x436630f0	230.19116
247	0x4332ad20	178.67627
248	0x43438bfe	195.54684
249	0x436909b0	233.03784
250	0x43132bd2	147.17117
251	0x436ce968	236.91174
252	0x431903f4	153.01544
253	0x433c5353	188.32549
254	0x43082f20	136.18408
255	0x4339b900	185.72266
