datasets/mfccfeatures/murmur/train/aug_276_1311162716489_C_cardiac_pcgmix_plus_162_1307101835989_B_1_alpha0.67_optimal_78.npy (npy, 30704 bytes, 1 tensors)

array f4 [39, 196]
000000 3d aa d9 c3 22 b2 fb c3 d3 a0 e1 c3 6b f6 d6 c3
       -435.33 -503.39166 -451.25644 -429.92514
000010 75 dc c4 c3 fc 74 d8 c3 18 9a f6 c3 c9 c7 c5 c3
       -393.72232 -432.91394 -493.20386 -395.56082
000020 9b fb db c3 00 9e e2 c3 3d 3a cd c3 8d 85 0b c4
       -439.96567 -453.23438 -410.455 -558.08673
000030 47 63 0a c4 62 0a 0f c4 f5 02 0e c4 f6 46 0c c4
       -553.5512 -572.16223 -568.0462 -561.10876
000040 cb de 05 c4 8d f8 bb c3 5b a3 bb c3 96 9b fc c3
       -535.48114 -375.9418 -375.2762 -505.2155
000050 9c c0 01 c4 b6 04 03 c4 15 d7 08 c4 32 58 e1 c3
       -519.0095 -524.0736 -547.36066 -450.68903
000060 6f 65 08 c4 8a fc e4 c3 57 5e e8 c3 57 e3 ef c3
       -545.5849 -457.97296 -464.73703 -479.7761
000070 3f b0 02 c4 29 9b 02 c4 de c6 06 c4 7e 87 0a c4
       -522.75385 -522.4244 -539.1073 -554.11707
000080 8d 99 07 c4 e9 5c 0b c4 80 78 cb c3 99 94 b7 c3
       -542.39923 -557.4517 -406.9414 -367.16092
000090 7a e8 e8 c3 2a ee e9 c3 9e 20 ce c3 a0 f7 da c3
       -465.81622 -467.86066 -412.25482 -437.93457
0000a0 22 46 d3 c3 0d 8f 01 c4 3c 4d 06 c4 a9 1b f9 c3
       -422.5479 -518.23517 -537.2068 -498.2161
0000b0 59 bc 06 c4 df d2 03 c4 3e 40 fa c3 13 c3 d5 c3
       -538.94293 -527.29486 -500.5019 -427.52402
0000c0 47 cc fc c3 79 a2 08 c4 d3 67 c8 c3 ae b1 bc c3
       -505.59592 -546.53864 -400.81113 -377.38812
0000d0 26 bf fd c3 6b c4 fe c3 e1 93 ba c3 8e ae 0a c4
       -507.49335 -509.53452 -373.1553 -554.7274
0000e0 fa b3 c0 c3 31 13 03 c4 82 40 e2 c3 65 41 de c3
       -385.40607 -524.29987 -452.50397 -444.5109
0000f0 4d bd 08 c4 d3 ac 04 c4 f8 77 08 c4 40 96 04 c4
       -546.9578 -530.7004 -545.8745 -530.34766
000100 55 9c 04 c4 31 dd 09 c4 5f 74 d2 c3 3f e8 cf c3
       -530.4427 -551.4561 -420.90915 -415.81442
000110 55 d9 03 c4 f6 1c 01 c4 f7 2e 02 c4 b4 4c 04 c4
       -527.3958 -516.4525 -520.7338 -529.1985
000120 ac 59 d1 c3 58 1c 0b c4 f8 27 e3 c3 b2 8b dc c3
       -418.70056 -556.4429 -454.31226 -441.09137
000130 50 00 fa c3 f1 54 0c c4 31 c4 fe c3 75 96 08 c4
       -500.00244 -561.3272 -509.53275 -546.3509
000140 c1 f5 0e c4 0f 14 07 c4 f7 b7 ba c3 73 1b c6 c3
       -571.8399 -540.3134 -373.43723 -396.21445
000150 14 71 bb c3 93 17 e9 c3 6b 18 f4 c3 7f e5 0d c4
       -374.88342 -466.18417 -488.19077 -567.5859
000160 4d 6e de c3 a6 7b 08 c4 61 68 c3 c3 47 9f c1 c3
       -444.86172 -545.932 -390.81546 -387.24435
000170 cc cf 0d c4 08 52 05 c4 d5 7b 0c c4 81 63 0d c4
       -567.2468 -533.28174 -561.9349 -565.55475
000180 57 3a 0c c4 0b 9e 06 c4 cb 85 34 c4 cb 85 34 c4
       -560.91156 -538.4694 -722.0905 -722.0905
000190 cb 85 34 c4 cb 85 34 c4 cb 85 34 c4 cb 85 34 c4
       -722.0905 -722.0905 -722.0905 -722.0905
0001a0 cb 85 34 c4 cb 85 34 c4 cb 85 34 c4 cb 85 34 c4
       -722.0905 -722.0905 -722.0905 -722.0905
0001b0 cb 85 34 c4 cb 85 34 c4 cb 85 34 c4 cb 85 34 c4
       -722.0905 -722.0905 -722.0905 -722.0905
0001c0 cb 85 34 c4 cb 85 34 c4 cb 85 34 c4 cb 85 34 c4
       -722.0905 -722.0905 -722.0905 -722.0905
0001d0 cb 85 34 c4 cb 85 34 c4 cb 85 34 c4 cb 85 34 c4
       -722.0905 -722.0905 -722.0905 -722.0905
0001e0 cb 85 34 c4 cb 85 34 c4 cb 85 34 c4 cb 85 34 c4
       -722.0905 -722.0905 -722.0905 -722.0905
0001f0 cb 85 34 c4 cb 85 34 c4 cb 85 34 c4 cb 85 34 c4
       -722.0905 -722.0905 -722.0905 -722.0905
000200 cb 85 34 c4 cb 85 34 c4 cb 85 34 c4 cb 85 34 c4
       -722.0905 -722.0905 -722.0905 -722.0905
000210 cb 85 34 c4 cb 85 34 c4 cb 85 34 c4 cb 85 34 c4
       -722.0905 -722.0905 -722.0905 -722.0905
000220 cb 85 34 c4 cb 85 34 c4 cb 85 34 c4 cb 85 34 c4
       -722.0905 -722.0905 -722.0905 -722.0905
000230 cb 85 34 c4 cb 85 34 c4 cb 85 34 c4 cb 85 34 c4
       -722.0905 -722.0905 -722.0905 -722.0905
000240 cb 85 34 c4 cb 85 34 c4 cb 85 34 c4 cb 85 34 c4
       -722.0905 -722.0905 -722.0905 -722.0905
000250 cb 85 34 c4 cb 85 34 c4 cb 85 34 c4 cb 85 34 c4
       -722.0905 -722.0905 -722.0905 -722.0905
000260 cb 85 34 c4 cb 85 34 c4 cb 85 34 c4 cb 85 34 c4
       -722.0905 -722.0905 -722.0905 -722.0905
000270 cb 85 34 c4 cb 85 34 c4 cb 85 34 c4 cb 85 34 c4
       -722.0905 -722.0905 -722.0905 -722.0905
000280 cb 85 34 c4 cb 85 34 c4 cb 85 34 c4 cb 85 34 c4
       -722.0905 -722.0905 -722.0905 -722.0905
000290 cb 85 34 c4 cb 85 34 c4 cb 85 34 c4 cb 85 34 c4
       -722.0905 -722.0905 -722.0905 -722.0905
0002a0 cb 85 34 c4 cb 85 34 c4 cb 85 34 c4 cb 85 34 c4
       -722.0905 -722.0905 -722.0905 -722.0905
0002b0 cb 85 34 c4 cb 85 34 c4 cb 85 34 c4 cb 85 34 c4
       -722.0905 -722.0905 -722.0905 -722.0905
0002c0 cb 85 34 c4 cb 85 34 c4 cb 85 34 c4 cb 85 34 c4
       -722.0905 -722.0905 -722.0905 -722.0905
0002d0 cb 85 34 c4 cb 85 34 c4 cb 85 34 c4 cb 85 34 c4
       -722.0905 -722.0905 -722.0905 -722.0905
0002e0 cb 85 34 c4 cb 85 34 c4 cb 85 34 c4 cb 85 34 c4
       -722.0905 -722.0905 -722.0905 -722.0905
0002f0 cb 85 34 c4 cb 85 34 c4 cb 85 34 c4 cb 85 34 c4
       -722.0905 -722.0905 -722.0905 -722.0905
000300 cb 85 34 c4 cb 85 34 c4 cb 85 34 c4 cb 85 34 c4
       -722.0905 -722.0905 -722.0905 -722.0905
000310 7c ba 2b 43 5e 40 35 43 e6 f0 6b 43 e7 ee 1a 43
       171.72845 181.25143 235.94101 154.93321
000320 30 3c 56 43 0c 4b 47 43 f6 5e 29 43 6c b1 0b 43
       214.2351 199.29315 169.37094 139.69305
000330 80 67 c4 42 13 eb 49 43 7c 40 17 43 80 a9 ed 42
       98.20215 201.91826 151.25189 118.831055
000340 f8 66 e7 42 da 0b d3 42 b6 39 df 42 d2 aa eb 42
       115.70111 105.52315 111.61272 117.83363
000350 a8 be f6 42 9a 22 71 43 12 29 0c 43 ba c0 2d 43
       123.372375 241.13516 140.16043 173.75284
000360 5a 8c 1d 43 06 78 fe 42 97 91 03 43 d7 86 51 43
       157.54825 127.23442 131.56871 209.52672
000370 be 4f 03 43 8c 0f 17 43 fa e7 4d 43 c0 3d 19 43
       131.3115 151.06073 205.90616 153.24121
000380 13 45 05 43 9a d5 05 43 eb e4 06 43 70 56 f8 42
       133.26982 133.83438 134.89421 124.16882
000390 17 23 02 43 a9 15 fb 42 ee 1f 7b 43 b4 0a 3a 43
       130.13707 125.542305 251.12473 186.04181
0003a0 e5 c9 3f 43 f9 f8 49 43 ca 0c 6f 43 de aa 0d 43
       191.78865 201.97255 239.04996 141.66745
0003b0 28 34 68 43 65 51 0e 43 3b a1 0a 43 7f fc 1c 43
       232.20374 142.31795 138.6298 156.98631
0003c0 4f 7f 09 43 f2 a3 1f 43 56 10 35 43 92 e5 4c 43
       137.4973 159.64041 181.06381 204.89676
0003d0 ad 83 31 43 de 67 09 43 28 d6 77 43 38 96 23 43
       177.51436 137.40573 247.83655 163.58679
0003e0 68 65 20 43 ee b5 35 43 8b f6 67 43 37 f7 00 43
       160.39612 181.71066 231.96306 128.96568
0003f0 16 8d 84 43 96 40 0d 43 3e c3 58 43 0d 4a 63 43
       265.10223 141.25229 216.76266 227.28926
