datasets/mfccfeatures/murmur/train/aug_197_1308141235553_C_cardiac_pcgmix_plus_288_1311164615284_B1_alpha0.45_basic_15.npy (npy, 30704 bytes, 1 tensors)

array f4 [39, 196]
00000000: 4bd5 acc3 e475 cec3 42b9 a3c3 8ca0 bbc3
00000010: 1d72 aac3 58c7 aac3 edbb e3c3 59fd e0c3
00000020: 846b d3c3 5af6 b1c3 4db6 bbc3 5967 cac3
00000030: cd7f bbc3 42bb eac3 24d4 e4c3 91a7 c7c3
00000040: 1a5b 89c3 c479 70c3 4fa2 5ac3 1698 c3c3
00000050: 0a24 d8c3 d3ab d1c3 b6e7 dec3 ecd9 aac3
00000060: 6abb afc3 6dcc 89c3 588f c8c3 1f7b d8c3
00000070: e5e6 ebc3 79b4 c6c3 cc71 aec3 07e0 bac3
00000080: 409f 42c3 ed1f c1c3 1106 d5c3 afa0 aec3
00000090: 97de e4c3 5d69 b6c3 be65 8fc3 8ce2 39c3
000000a0: c7bb a5c3 e698 bcc3 9e92 d9c3 e633 dac3
000000b0: cff9 b9c3 9550 c5c3 60ec bbc3 e35a a2c3
000000c0: cded 93c3 40c4 bec3 7b87 d0c3 d1c0 e6c3
000000d0: 8493 e2c3 4053 e1c3 3e0c a3c3 33c4 a3c3
000000e0: 0300 68c3 dbde bac3 1f81 e3c3 51cc ebc3
000000f0: 9fae ccc3 e915 d2c3 bf5d b2c3 14de 6dc3
00000100: 2a9e 71c3 f747 afc3 4d32 c4c3 56fb d2c3
00000110: 8cf5 d8c3 6585 e4c3 b7bd ccc3 7071 90c3
00000120: 4ebf 9ec3 a7e6 52c3 67a0 88c3 9093 d3c3
00000130: 0c34 ecc3 8454 ecc3 6a5a d5c3 44d6 b7c3
00000140: e7c4 97c3 63fd 85c3 14c8 32c3 e6e4 26c3
00000150: 2a99 bec3 fe25 e8c3 33fd e4c3 51e9 b3c3
00000160: 70ff d3c3 d144 8cc3 c8a9 a0c3 5631 8ac3
00000170: 55a6 cbc3 a6a5 c8c3 af47 e5c3 13fa bcc3
00000180: a384 ccc3 9ce6 91c3 eccf b5c3 6ce3 90c3
00000190: 8e60 17c3 1060 bec3 2c6b bfc3 b60c ccc3
000001a0: b4f3 e6c3 7797 b2c3 d8c0 9ec3 e1ff 92c3
000001b0: c6bc 9fc3 d971 9ac3 1c5c adc3 116a c8c3
000001c0: 486b 29c4 486b 29c4 486b 29c4 486b 29c4
000001d0: 486b 29c4 486b 29c4 486b 29c4 486b 29c4
000001e0: 486b 29c4 486b 29c4 486b 29c4 486b 29c4
000001f0: 486b 29c4 486b 29c4 486b 29c4 486b 29c4
00000200: 486b 29c4 486b 29c4 486b 29c4 486b 29c4
00000210: 486b 29c4 486b 29c4 486b 29c4 486b 29c4
00000220: 486b 29c4 486b 29c4 486b 29c4 486b 29c4
00000230: 486b 29c4 486b 29c4 486b 29c4 486b 29c4
00000240: 486b 29c4 486b 29c4 486b 29c4 486b 29c4
00000250: 486b 29c4 486b 29c4 486b 29c4 486b 29c4
00000260: 486b 29c4 486b 29c4 486b 29c4 486b 29c4
00000270: 486b 29c4 486b 29c4 486b 29c4 486b 29c4
00000280: 486b 29c4 486b 29c4 486b 29c4 486b 29c4
00000290: 486b 29c4 486b 29c4 486b 29c4 486b 29c4
000002a0: 486b 29c4 486b 29c4 486b 29c4 486b 29c4
000002b0: 486b 29c4 486b 29c4 486b 29c4 486b 29c4
000002c0: 486b 29c4 486b 29c4 486b 29c4 486b 29c4
000002d0: 486b 29c4 486b 29c4 486b 29c4 486b 29c4
000002e0: 486b 29c4 486b 29c4 486b 29c4 486b 29c4
000002f0: 486b 29c4 486b 29c4 486b 29c4 486b 29c4
00000300: 486b 29c4 486b 29c4 486b 29c4 486b 29c4
00000310: c6bb ba42 777f 5443 49fe 3243 4cd4 6a43
00000320: b00b 8843 bc62 8343 024b 1a43 38c5 2843
00000330: 5ece 3f43 598d 7043 5d82 6f43 375c 6943
00000340: f021 7c43 b0f0 0a43 671e 2343 cae0 5b43
00000350: 121b 2d43 8e62 1143 5b5a 1843 b6e8 6443
00000360: a855 4543 1a0b 2e43 0ed2 2643 71ee 7343
00000370: 9131 8143 7a0d 3f43 4434 6a43 a18d 3b43
00000380: 244b 2943 a252 1443 37a5 7b43 5409 7e43
00000390: ab87 0043 0643 7943 2e59 4c43 def8 ea42
000003a0: 9ea4 1643 1813 7143 8a66 eb42 dafe ed42
000003b0: 3639 7843 b2d9 6d43 e68d 4643 b0dc 4643
000003c0: 6a9d 4643 845b 3043 e2e2 5243 4db5 6043
000003d0: 828e 4e43 24ff 7b43 6c2a 2c43 e076 0b43
000003e0: 4882 1943 db01 2443 0b05 7143 6f10 8743
000003f0: db85 1943 19d0 7b43 646d 2c43 d6c4 1d43
-345.66635 -412.92102 -327.44733 -375.25427 -340.8915 -341.55737 -455.46817 -449.97928
-422.83997 -355.92462 -375.42422 -404.8074 -374.99844 -469.46295 -457.65735 -399.3091
-274.71173 -240.47565 -218.63402 -391.18817 -432.28156 -419.34238 -445.81024 -341.7025
-351.46417 -275.59708 -401.11987 -432.96188 -471.80386 -397.40994 -348.88904 -373.7502
-194.62207 -386.24942 -426.0474 -349.25534 -457.73898 -364.82315 -286.79486 -185.88495
-331.467 -377.19452 -435.14545 -436.40546 -371.95163 -394.62955 -375.84668 -324.71005
-295.85782 -381.5332 -417.05844 -461.50638 -453.15247 -450.6504 -326.09564 -327.5328
-232.00005 -373.74106 -455.00876 -471.59622 -409.36423 -420.17117 -356.7324 -237.8675
-241.61783 -350.56223 -392.39297 -421.96356 -433.91833 -457.04214 -409.48215 -288.88623
-317.49457 -210.90099 -273.25314 -423.15283 -472.40662 -472.66028 -426.70636 -367.67395
-303.5383 -267.97958 -178.78156 -166.89413 -381.1966 -464.2968 -457.97812 -359.82278
-423.9956 -280.53763 -321.32642 -276.38544 -407.29947 -401.29413 -458.56003 -377.9537
-409.03622 -291.80164 -363.6244 -289.77673 -151.37717 -380.7505 -382.83728 -408.0993
-461.90393 -357.18332 -317.5066 -293.99905 -319.4748 -308.88943 -346.7196 -400.82864
-677.6763 -677.6763 -677.6763 -677.6763 -677.6763 -677.6763 -677.6763 -677.6763
-677.6763 -677.6763 -677.6763 -677.6763 -677.6763 -677.6763 -677.6763 -677.6763
-677.6763 -677.6763 -677.6763 -677.6763 -677.6763 -677.6763 -677.6763 -677.6763
-677.6763 -677.6763 -677.6763 -677.6763 -677.6763 -677.6763 -677.6763 -677.6763
-677.6763 -677.6763 -677.6763 -677.6763 -677.6763 -677.6763 -677.6763 -677.6763
-677.6763 -677.6763 -677.6763 -677.6763 -677.6763 -677.6763 -677.6763 -677.6763
-677.6763 -677.6763 -677.6763 -677.6763 -677.6763 -677.6763 -677.6763 -677.6763
-677.6763 -677.6763 -677.6763 -677.6763 -677.6763 -677.6763 -677.6763 -677.6763
-677.6763 -677.6763 -677.6763 -677.6763 -677.6763 -677.6763 -677.6763 -677.6763
-677.6763 -677.6763 -677.6763 -677.6763 -677.6763 -677.6763 -677.6763 -677.6763
-677.6763 -677.6763 -677.6763 -677.6763 93.366745 212.49791 178.9933 234.82928
272.0913 262.77136 154.293 168.77039 191.80612 240.55214 239.50923 233.36021
252.13257 138.94019 163.11876 219.87808 173.10574 145.38498 152.35295 228.90903
197.3346 174.04337 166.82053 243.93141 258.38724 191.05264 234.20416 187.55324
169.29352 148.32278 251.64537 254.03644 128.52995 249.26181 204.34836 117.48607
150.64304 241.07458 117.70027 118.99776 248.22348 237.85037 198.55429 198.86206
198.6149 176.35748 210.88626 224.7082 206.55667 251.99664 172.16571 139.46436
153.50891 164.00725 241.0197 270.1284 153.52287 251.81288 172.4273 157.76889
