datasets/mfccfeatures/murmur/train/aug_162_1307101835989_B_1_cardiac_pcgmix_plus_135_1306428972976_C_alpha0.41_basic_22.npy (npy, 30704 bytes, 1 tensors)

array f4 [39, 196]
00000000: c37f d1c3 f532 d6c3 3d5b f6c3 33f2 c4c3
00000010: f7f1 a6c3 fb66 9bc3 ecdf d6c3 b385 e9c3
00000020: b186 b2c3 f133 88c3 403a e1c3 88bc d6c3
00000030: 0f99 bfc3 b104 dfc3 b19c 04c4 b94f e7c3
00000040: c376 ddc3 1562 d6c3 b713 dcc3 5732 d4c3
00000050: eb6e d6c3 6f48 b8c3 41fa e9c3 135f e6c3
00000060: af3d d9c3 00a3 d3c3 f043 bdc3 a074 c0c3
00000070: 5f80 d8c3 26e8 fdc3 63cc c9c3 e7f7 e4c3
00000080: 4d64 e4c3 08df e2c3 23d0 b8c3 c5d1 adc3
00000090: f5dc d2c3 a717 02c4 901c f8c3 a852 c0c3
000000a0: 5e39 a2c3 6f5e 99c3 396a eac3 23f0 bcc3
000000b0: 4b64 dac3 af26 dac3 70e3 edc3 cb09 f1c3
000000c0: 9e12 f4c3 4ab3 b2c3 8044 d6c3 a1f9 57c3
000000d0: b8d8 b8c3 111c aac3 e850 8bc3 461e d4c3
000000e0: 438a 7cc3 0430 8ac3 868b e3c3 b9d4 b7c3
000000f0: 1bda cec3 9606 01c4 6ccc edc3 cdbc edc3
00000100: fdb8 d8c3 a49a b8c3 8cfe 94c3 916f 8bc3
00000110: be5f 8cc3 aed1 c7c3 7449 7ec3 cdee 57c3
00000120: b54e bec3 53df f4c3 cd1f c9c3 1863 c6c3
00000130: cece cac3 c6b3 d5c3 c00c a3c3 0d92 9cc3
00000140: 869a 87c3 5b01 e0c3 3e4a acc3 3b38 80c3
00000150: 3ef0 79c3 9891 8dc3 9ece d3c3 ea37 ddc3
00000160: 04d3 ccc3 23dc b8c3 2591 bbc3 9cb5 90c3
00000170: f183 6cc3 d048 c3c3 f766 aec3 7538 46c3
00000180: fdfb b1c3 5f53 ccc3 8497 cbc3 c2dd a8c3
00000190: ee7e d9c3 0ccd d1c3 9767 ccc3 b4b6 c2c3
000001a0: 4dbb d2c3 6bf2 adc3 4088 d7c3 79f2 aec3
000001b0: 700b 8fc3 289a dec3 2c61 d0c3 187b d8c3
000001c0: 7f62 80c3 aeb6 c5c3 2dbc 3ec3 c5b5 b6c3
000001d0: b077 adc3 72bb c0c3 609a adc3 e6e8 b1c3
000001e0: bb37 99c3 d3c4 b5c3 be48 8dc3 96fb ccc3
000001f0: 1005 a9c3 c197 e2c3 8de9 e2c3 ae66 efc3
00000200: b1e1 e8c3 f69d b0c3 6644 66c3 e7bf 4ac3
00000210: c67b eac3 aac6 f6c3 2215 3ec4 29b1 3ec4
00000220: 29b1 3ec4 29b1 3ec4 29b1 3ec4 29b1 3ec4
00000230: 29b1 3ec4 29b1 3ec4 29b1 3ec4 29b1 3ec4
00000240: 29b1 3ec4 29b1 3ec4 29b1 3ec4 29b1 3ec4
00000250: 29b1 3ec4 29b1 3ec4 29b1 3ec4 29b1 3ec4
00000260: 29b1 3ec4 29b1 3ec4 29b1 3ec4 29b1 3ec4
00000270: 29b1 3ec4 29b1 3ec4 29b1 3ec4 29b1 3ec4
00000280: 29b1 3ec4 29b1 3ec4 29b1 3ec4 29b1 3ec4
00000290: 29b1 3ec4 29b1 3ec4 29b1 3ec4 29b1 3ec4
000002a0: 29b1 3ec4 29b1 3ec4 29b1 3ec4 29b1 3ec4
000002b0: 29b1 3ec4 29b1 3ec4 29b1 3ec4 29b1 3ec4
000002c0: 29b1 3ec4 29b1 3ec4 29b1 3ec4 29b1 3ec4
000002d0: 29b1 3ec4 29b1 3ec4 29b1 3ec4 29b1 3ec4
000002e0: 29b1 3ec4 29b1 3ec4 29b1 3ec4 29b1 3ec4
000002f0: 29b1 3ec4 29b1 3ec4 29b1 3ec4 29b1 3ec4
00000300: 29b1 3ec4 29b1 3ec4 29b1 3ec4 29b1 3ec4
00000310: b0fd cc42 a595 4d43 fef6 6243 24ab 8443
00000320: 7065 8d43 1544 1b43 d334 5643 506d 5143
00000330: a53e 3243 fed7 f142 037f 6343 16f2 1c43
00000340: 84e9 8343 db96 3643 d6f0 3743 c21c 4a43
00000350: fcb2 0c43 19a6 0a43 c58a 7543 54e7 8543
00000360: 8001 8043 d816 1c43 4a99 5b43 1099 5243
00000370: 6f51 5443 5e30 7b43 26b0 8a43 9e91 8843
00000380: 9ac2 8543 d07f f742 944b f342 22af 4c43
00000390: 344a 4843 78ff 5943 123a 7843 1e47 4043
000003a0: d223 8d43 0de3 3243 b65c 3043 dbaa 7243
000003b0: ac65 2c43 ae20 5543 3dab 7443 66e6 4043
000003c0: e651 8443 84aa 2043 83f3 2843 f872 3e43
000003d0: 29dc 2043 984e 1443 451f 6a43 3c6f b642
000003e0: e2f2 8143 5217 8b43 f252 2f43 d66b 4a43
000003f0: ddf3 0b43 2924 da42 fc44 6f43 d2c7 4c43
-418.99814 -428.3981 -492.7128 -393.89218 -333.89035 -310.80453 -429.7494 -467.04453
-357.05228 -272.4058 -450.45508 -429.4729 -383.19577 -446.03665 -530.4483 -462.62283
-442.92783 -428.76627 -440.15402 -424.39328 -428.86655 -368.5659 -467.9551 -460.74277
-434.4819 -423.27344 -378.53076 -384.91113 -433.0029 -507.81366 -403.59677 -457.93674
-456.7836 -453.74243 -369.62607 -347.63882 -421.72623 -520.36957 -496.22314 -384.64575
-324.44818 -306.73776 -468.82986 -377.87607 -436.78354 -436.30222 -475.77686 -482.0765
-488.14545 -357.4007 -428.53516 -215.97511 -369.6931 -340.21927 -278.63208 -424.2365
-252.54008 -276.37512 -455.09003 -367.6619 -413.70395 -516.1029 -475.59705 -475.475
-433.44522 -369.20813 -297.98865 -278.8716 -280.748 -399.63812 -254.28693 -215.93282
-380.6149 -489.74472 -402.24844 -396.77417 -405.61566 -427.40448 -326.0996 -313.14102
-271.2072 -448.0106 -344.58002 -256.4393 -249.93845 -283.13745 -423.6142 -442.43683
-409.64856 -369.71982 -375.13394 -289.41882 -236.5154 -390.56885 -348.8044 -198.22054
-355.96866 -408.65134 -407.18372 -337.73248 -434.99164 -419.60193 -408.8093 -389.42737
-421.4633 -347.8939 -431.06445 -349.89432 -286.08936 -445.20435 -416.75916 -432.96167
-256.7695 -395.4272 -190.73506 -365.42007 -346.93506 -385.46442 -347.20605 -355.81952
-306.4354 -363.5377 -282.5683 -409.9655 -338.03955 -453.18558 -453.82462 -478.8022
-465.7632 -353.23407 -230.26718 -202.74962 -468.96698 -493.55206 -760.3302 -762.7681
-762.7681 -762.7681 -762.7681 -762.7681 -762.7681 -762.7681 -762.7681 -762.7681
-762.7681 -762.7681 -762.7681 -762.7681 -762.7681 -762.7681 -762.7681 -762.7681
-762.7681 -762.7681 -762.7681 -762.7681 -762.7681 -762.7681 -762.7681 -762.7681
-762.7681 -762.7681 -762.7681 -762.7681 -762.7681 -762.7681 -762.7681 -762.7681
-762.7681 -762.7681 -762.7681 -762.7681 -762.7681 -762.7681 -762.7681 -762.7681
-762.7681 -762.7681 -762.7681 -762.7681 -762.7681 -762.7681 -762.7681 -762.7681
-762.7681 -762.7681 -762.7681 -762.7681 -762.7681 -762.7681 -762.7681 -762.7681
-762.7681 -762.7681 -762.7681 -762.7681 102.49548 205.58455 226.96481 265.33704
282.79248 155.26595 214.20634 209.427 178.2447 120.92186 227.49614 156.94565
263.82434 182.58928 183.94077 202.11234 140.69916 138.64882 245.54207 267.80725
256.01172 156.08923 219.59879 210.5979 212.3181 251.18893 277.37616 273.13763
267.52032 123.74963 121.64761 204.68411 200.28986 217.99792 248.22684 192.2778
282.27985 178.88692 176.36215 242.6674 172.39716 213.12766 244.6689 192.9
264.63983 160.66608 168.95122 190.4491 160.86 148.307 234.12215 91.217255
259.89752 278.1822 175.324 202.42123 139.95259 109.070625 239.26947 204.78055
