datasets/mfccfeatures/murmur/train/aug_201101051108_cardiac_pcgmix_plus_162_1307101835989_B_1_alpha0.47_optimal_112.npy (npy, 30704 bytes, 1 tensors)

array f4 [39, 196]
000000 f7 12 b6 c3 f4 a2 a1 c3 b3 02 b6 c3 f9 79 c5 c3
       -364.14816 -323.27307 -364.0211 -394.9529
000010 41 54 d1 c3 eb 90 e2 c3 fe c6 26 c4 31 25 30 c4
       -418.65823 -453.13217 -667.10925 -704.5811
000020 31 0d 32 c4 71 b0 30 c4 c1 fe 2c c4 5f b4 a9 c3
       -712.2061 -706.7569 -691.9805 -339.40915
000030 4f ff c9 c3 6c 59 8a c3 7f ec 2f c4 e3 4c a6 c3
       -403.9946 -276.6986 -703.69525 -332.60068
000040 28 f8 cd c3 e6 f3 ed c3 e2 25 e8 c3 8c 05 14 c4
       -411.93872 -475.90546 -464.29596 -592.0867
000050 53 37 c5 c3 22 71 2b c4 a9 2d 2d c4 14 cc e8 c3
       -394.43222 -685.7677 -692.71344 -465.59436
000060 19 6d 29 c4 45 ce 2b c4 36 5c 27 c4 71 db e0 c3
       -677.70465 -687.22296 -669.4408 -449.7144
000070 a4 7c d9 c3 59 f3 c6 c3 04 90 af c3 26 63 c4 c3
       -434.97375 -397.90115 -351.12512 -392.7746
000080 a4 ec d8 c3 37 fb c3 c3 52 13 ba c3 69 f0 d7 c3
       -433.84875 -391.96262 -372.15094 -431.8782
000090 d2 d3 f1 c3 b7 0d fa c3 04 ac f2 c3 24 71 dc c3
       -483.65485 -500.10715 -485.34387 -440.8839
0000a0 1e 6c c0 c3 ad 20 ae c3 f0 2a 2e c4 df b5 e2 c3
       -384.84467 -348.25528 -696.6709 -453.42087
0000b0 34 76 c8 c3 69 65 f5 c3 06 f8 00 c4 05 41 dd c3
       -400.92346 -490.79227 -515.87537 -442.50797
0000c0 ed ea c7 c3 1f ce 8d c3 ec 07 36 c4 32 2e eb c3
       -399.83536 -283.61032 -728.1238 -470.3609
0000d0 32 bc de c3 fe 50 b9 c3 c8 0c 36 c4 44 68 2d c4
       -445.47028 -370.63275 -728.1997 -693.62915
0000e0 ae 93 38 c4 71 4b 38 c4 18 79 d7 c3 00 fb df c3
       -738.3075 -737.1788 -430.94604 -447.96094
0000f0 c2 cd 09 c4 d8 8b 05 c4 27 0c 05 c4 de 19 d3 c3
       -551.21497 -534.18506 -532.1899 -422.2021
000100 bb 52 e9 c3 69 9b e3 c3 44 33 3b c4 1d 8d 3b c4
       -466.64633 -455.21414 -748.801 -750.2049
000110 7b 02 3a c4 ab 6d 3b c4 2d 78 3b c4 f6 67 25 c4
       -744.03876 -749.71356 -749.87775 -661.6244
000120 87 e4 cd c3 8a 28 cd c3 6c 69 7f c3 6d ce 02 c4
       -411.78537 -410.3167 -255.4118 -523.2254
000130 dd a6 d8 c3 17 e1 d9 c3 a8 81 3b c4 8e d5 3c c4
       -433.30362 -435.7585 -750.0259 -755.3368
000140 28 a6 3c c4 4e 29 3b c4 0d 77 3b c4 b8 df 3c c4
       -754.5962 -748.6454 -749.86017 -755.4956
000150 74 53 00 c4 1b 59 f1 c3 26 e9 e3 c3 cf 72 c4 c3
       -513.30396 -482.69614 -455.82147 -392.89694
000160 ad 40 01 c4 db ab 00 c4 97 61 0b c4 ea 33 a0 c3
       -517.01056 -514.68524 -557.52484 -320.40558
000170 af fd 14 c4 fb 82 b7 c3 64 5b c7 c3 3b 7b 36 c4
       -595.9638 -367.0233 -398.714 -729.9255
000180 86 17 3b c4 d1 70 3b c4 ec db 31 c4 81 fa 39 c4
       -748.36755 -749.76276 -711.4363 -743.9141
000190 1f c8 c6 c3 f3 18 56 c3 5a b6 e7 c3 ab f4 f2 c3
       -397.56345 -214.09746 -463.42462 -485.91147
0001a0 20 4e f0 c3 82 9a b9 c3 bd 81 cc c3 68 73 d7 c3
       -480.61035 -371.2071 -409.01358 -430.9016
0001b0 61 e2 34 c4 6a 76 2e c4 31 1c 34 c4 07 05 35 c4
       -723.5372 -697.8502 -720.4405 -724.07855
0001c0 d0 ad 2f c4 9d b5 30 c4 b0 f6 31 c4 c6 ab bd c3
       -702.7158 -706.8377 -711.8545 -379.34198
0001d0 bf 48 95 c3 c0 37 9b c3 58 c8 bb c3 db 32 07 c4
       -298.56833 -310.43555 -375.5652 -540.7946
0001e0 a5 12 81 c3 29 f6 97 c3 a1 cd 30 c4 8e c7 27 c4
       -258.14566 -303.92313 -707.21295 -671.11804
0001f0 77 c1 31 c4 e5 bb 27 c4 65 3d 0e c4 79 05 2e c4
       -711.0229 -670.93585 -568.9593 -696.0855
000200 85 4d 2a c4 9b ef 02 c4 b9 b3 82 c3 33 28 d8 c3
       -681.21124 -523.74384 -261.40408 -432.31406
000210 9c fa e2 c3 d1 07 b4 c3 76 2a c1 c3 84 10 80 c3
       -453.9579 -360.06107 -386.33173 -256.12903
000220 1f 8a 2a c4 f4 f3 b9 c3 b4 63 98 c3 5c 9b 33 c4
       -682.15814 -371.90588 -304.77893 -718.4275
000230 05 fb 3c c4 05 fb 3c c4 05 fb 3c c4 05 fb 3c c4
       -755.9222 -755.9222 -755.9222 -755.9222
000240 05 fb 3c c4 05 fb 3c c4 05 fb 3c c4 05 fb 3c c4
       -755.9222 -755.9222 -755.9222 -755.9222
000250 05 fb 3c c4 05 fb 3c c4 05 fb 3c c4 05 fb 3c c4
       -755.9222 -755.9222 -755.9222 -755.9222
000260 05 fb 3c c4 05 fb 3c c4 05 fb 3c c4 05 fb 3c c4
       -755.9222 -755.9222 -755.9222 -755.9222
000270 05 fb 3c c4 05 fb 3c c4 05 fb 3c c4 05 fb 3c c4
       -755.9222 -755.9222 -755.9222 -755.9222
000280 05 fb 3c c4 05 fb 3c c4 05 fb 3c c4 05 fb 3c c4
       -755.9222 -755.9222 -755.9222 -755.9222
000290 05 fb 3c c4 05 fb 3c c4 05 fb 3c c4 05 fb 3c c4
       -755.9222 -755.9222 -755.9222 -755.9222
0002a0 05 fb 3c c4 05 fb 3c c4 05 fb 3c c4 05 fb 3c c4
       -755.9222 -755.9222 -755.9222 -755.9222
0002b0 05 fb 3c c4 05 fb 3c c4 05 fb 3c c4 05 fb 3c c4
       -755.9222 -755.9222 -755.9222 -755.9222
0002c0 05 fb 3c c4 05 fb 3c c4 05 fb 3c c4 05 fb 3c c4
       -755.9222 -755.9222 -755.9222 -755.9222
0002d0 05 fb 3c c4 05 fb 3c c4 05 fb 3c c4 05 fb 3c c4
       -755.9222 -755.9222 -755.9222 -755.9222
0002e0 05 fb 3c c4 05 fb 3c c4 05 fb 3c c4 05 fb 3c c4
       -755.9222 -755.9222 -755.9222 -755.9222
0002f0 05 fb 3c c4 05 fb 3c c4 05 fb 3c c4 05 fb 3c c4
       -755.9222 -755.9222 -755.9222 -755.9222
000300 05 fb 3c c4 05 fb 3c c4 05 fb 3c c4 05 fb 3c c4
       -755.9222 -755.9222 -755.9222 -755.9222
000310 48 9d d1 42 20 12 3c 43 b6 85 74 43 74 ab 67 43
       104.80719 188.0708 244.52231 231.66974
000320 42 23 13 43 e4 d5 6a 43 80 e5 34 42 fc 72 24 c1
       147.13773 234.83551 45.22412 -10.278072
000330 5c f9 f8 40 d6 09 c4 c0 68 9d 84 c1 fe d7 e8 42
       7.7804394 -6.1262007 -16.576859 116.42186
000340 99 33 77 43 80 1b fb 42 4a 96 6f 40 6a 8e 88 43
       247.20155 125.55371 3.743548 273.1126
000350 d8 27 27 43 48 66 48 43 2e 12 3b 43 11 81 ad 42
       167.15564 200.39954 187.07101 86.75208
000360 a6 5d 59 43 fb ea 1c 40 4a 76 a3 40 a8 e3 b4 42
       217.36581 2.451842 5.1081896 90.44464
000370 9f ce 7d c1 f6 0a d9 be c1 7a 8c c0 e2 b0 68 43
       -15.862945 -0.42391175 -4.3899846 232.69095
000380 67 a7 7f 43 16 70 0c 43 75 2b 87 43 8e d5 0e 43
       255.65392 140.43784 270.3395 142.8342
000390 d0 52 60 43 d4 5b 87 43 60 36 84 43 46 06 9d 42
       224.32349 270.7174 264.4248 78.51225
0003a0 86 70 31 43 e0 00 29 43 28 23 35 43 6c da 57 43
       177.43954 169.00342 181.13733 215.85321
0003b0 0d b4 68 43 90 d2 47 43 6d 82 c2 c0 ae 7f 01 43
       232.70332 199.82251 -6.078421 129.49875
0003c0 80 71 89 43 90 fe b2 42 0b 0f 20 43 b8 ef 4c 43
       274.88672 89.49719 160.05876 204.9364
0003d0 05 ad 11 43 f2 e9 49 43 e8 1d 06 c1 64 ec 18 43
       145.67586 201.91385 -8.382301 152.9234
0003e0 01 16 80 43 7c 10 31 43 20 61 eb bf 1b 84 04 42
       256.1719 177.06439 -1.8389015 33.12901
0003f0 b0 8d a6 3f 56 0c cd c0 82 9f 75 43 66 be 2a 43
       1.301199 -6.407756 245.62308 170.74374
