datasets/mfccfeatures/murmur/train/aug_288_1311164615284_B1_cardiac_pcgmix_plus_201108222243_alpha0.52_optimal_80.npy (npy, 30704 bytes, 1 tensors)

array f4 [39, 196]
00000000: 78a2 e1c3 fc66 c1c3 dbb9 bcc3 3ba0 c9c3
00000010: 2a9d 72c3 2026 aec3 199c 9bc3 8345 a0c3
00000020: 5309 9ac3 8a0d d9c3 409c c0c3 1310 cdc3
00000030: d54b a1c3 45f7 c3c3 c979 98c3 d78a c7c3
00000040: d019 c3c3 6f4b c8c3 7df0 e0c3 4a40 e4c3
00000050: c6ca d0c3 b252 92c3 2ebf d2c3 ed10 cac3
00000060: 1d71 b3c3 ea63 9bc3 bb7b b2c3 8fcb e7c3
00000070: 1770 e9c3 7f19 d7c3 b003 e8c3 33fb dbc3
00000080: 1197 d8c3 9216 d9c3 9a48 c3c3 1fc6 a4c3
00000090: 4328 ddc3 4372 afc3 349d efc3 bb1d f1c3
000000a0: 93ac 97c3 8964 cbc3 5705 c3c3 6186 d1c3
000000b0: d8b7 aec3 d572 dbc3 2413 9ac3 207f e3c3
000000c0: ff2d f4c3 6f25 92c3 8e25 dfc3 f62e dcc3
000000d0: ff77 d3c3 6ad9 d0c3 36ce b5c3 3d46 c5c3
000000e0: 0bf7 d7c3 ba44 a1c3 cf68 a6c3 82a2 fbc3
000000f0: a9fd c4c3 ab37 cac3 b6ae b3c3 fc94 b7c3
00000100: 4428 c3c3 6883 67c3 4c40 c9c3 9f9c d3c3
00000110: 87dd c3c3 8325 d1c3 7261 d5c3 b5bb c5c3
00000120: 43d5 bfc3 3c0e afc3 43cd b8c3 2dab bfc3
00000130: 1a9d aec3 f31d adc3 f6aa b6c3 e76a c6c3
00000140: 2140 d4c3 71b4 cfc3 b088 cfc3 52d0 b8c3
00000150: 0f53 bac3 3e85 c0c3 bc93 4dc3 c9bb d6c3
00000160: 5a63 c6c3 aace ddc3 fa9b dac3 212b d1c3
00000170: 8f93 cdc3 a6be 9ec3 f919 bdc3 adae c4c3
00000180: f042 71c3 b74a d5c3 efab c0c3 3907 adc3
00000190: d2ef dec3 6a2d c5c3 6252 c5c3 7f46 b9c3
000001a0: bab4 bcc3 b62d c5c3 1a5f 63c3 f402 d6c3
000001b0: 0848 cac3 c830 d4c3 1d54 dfc3 5e53 e4c3
000001c0: 35d0 d1c3 3bc5 c3c3 a2ad a1c3 8a70 b3c3
000001d0: 63ad b8c3 13cf 65c3 ca7f b8c3 26da cbc3
000001e0: 3378 ccc3 54c0 19c4 54c0 19c4 54c0 19c4
000001f0: 54c0 19c4 54c0 19c4 54c0 19c4 54c0 19c4
00000200: 54c0 19c4 54c0 19c4 54c0 19c4 54c0 19c4
00000210: 54c0 19c4 54c0 19c4 54c0 19c4 54c0 19c4
00000220: 54c0 19c4 54c0 19c4 54c0 19c4 54c0 19c4
00000230: 54c0 19c4 54c0 19c4 54c0 19c4 54c0 19c4
00000240: 54c0 19c4 54c0 19c4 54c0 19c4 54c0 19c4
00000250: 54c0 19c4 54c0 19c4 54c0 19c4 54c0 19c4
00000260: 54c0 19c4 54c0 19c4 54c0 19c4 54c0 19c4
00000270: 54c0 19c4 54c0 19c4 54c0 19c4 54c0 19c4
00000280: 54c0 19c4 54c0 19c4 54c0 19c4 54c0 19c4
00000290: 54c0 19c4 54c0 19c4 54c0 19c4 54c0 19c4
000002a0: 54c0 19c4 54c0 19c4 54c0 19c4 54c0 19c4
000002b0: 54c0 19c4 54c0 19c4 54c0 19c4 54c0 19c4
000002c0: 54c0 19c4 54c0 19c4 54c0 19c4 54c0 19c4
000002d0: 54c0 19c4 54c0 19c4 54c0 19c4 54c0 19c4
000002e0: 54c0 19c4 54c0 19c4 54c0 19c4 54c0 19c4
000002f0: 54c0 19c4 54c0 19c4 54c0 19c4 54c0 19c4
00000300: 54c0 19c4 54c0 19c4 54c0 19c4 54c0 19c4
00000310: 9a9d 1143 1616 4c43 f6ef 5143 1ac7 3f43
00000320: 88df 3043 d80f 1b43 f6fc ee42 f4ae 6a43
00000330: ce3b 3843 583e 1943 70e9 3d43 cee8 3643
00000340: a041 7343 9a41 4943 f0cb f942 8074 4b43
00000350: c8d9 1543 5ab8 2a43 b3e8 1443 207e 1343
00000360: dd7e 3b43 4a04 d142 39a2 3743 0298 4243
00000370: 7252 1743 56de 6b43 d282 ff42 aa5f 1743
00000380: 45a0 1543 40d4 0e43 1597 1f43 322f 2243
00000390: 25f7 2943 54f3 2943 8ece 2143 873e 6343
000003a0: 82ad 1143 06bc 3343 b094 1443 3768 0f43
000003b0: 04f4 df42 96de 3d43 26bc 3543 b4eb 3243
000003c0: fa1e 0d43 0cca 2f43 5acd e042 9218 2443
000003d0: 894a 0c43 acd8 cd42 4c95 2943 f345 2843
000003e0: 00bf 3043 793f 3343 ea4c 1d43 d4ab 4d43
000003f0: 4d40 1d43 4a84 f742 f257 ce42 8056 e642
-451.2693 -386.80457 -377.452 -403.2518 -242.61392 -348.29785 -311.2195 -320.54306
-308.07285 -434.10577 -385.2207 -410.12558 -322.59244 -391.9318 -304.95145 -399.0847
-390.20166 -400.58932 -449.8788 -456.50226 -417.58417 -292.64606 -421.4936 -404.13223
-358.8837 -310.78058 -356.96664 -463.5903 -466.8757 -430.1992 -464.0288 -439.9625
-433.1802 -434.17633 -390.5672 -329.54782 -442.31454 -350.89267 -479.22815 -482.23227
-303.34824 -406.78543 -390.04172 -419.04984 -349.43628 -438.89713 -308.14954 -454.99316
-488.35934 -292.29245 -446.2934 -440.36688 -422.93747 -417.69855 -363.61102 -394.54874
-431.93002 -322.53693 -332.81882 -503.2696 -393.98172 -404.4349 -359.36493 -367.16394
-390.31458 -231.5133 -402.50232 -423.2236 -391.73068 -418.29306 -426.7613 -395.46646
-383.6661 -350.1112 -369.6036 -383.3373 -349.22736 -346.23398 -365.33563 -396.83517
-424.501 -415.4097 -415.06787 -369.6275 -372.6489 -385.04095 -205.57709 -429.46707
-396.77618 -443.61456 -437.21857 -418.33694 -411.1528 -317.48944 -378.2029 -393.36465
-241.26147 -426.5837 -385.34323 -346.05643 -445.8736 -394.3548 -394.64362 -370.55075
-377.41193 -394.35712 -227.37149 -428.02307 -404.56274 -424.3811 -446.65714 -456.6513
-419.62662 -391.54086 -323.3565 -358.8792 -369.35458 -229.80888 -368.99835 -407.70428
-408.93906 -615.0051 -615.0051 -615.0051 -615.0051 -615.0051 -615.0051 -615.0051
-615.0051 -615.0051 -615.0051 -615.0051 -615.0051 -615.0051 -615.0051 -615.0051
-615.0051 -615.0051 -615.0051 -615.0051 -615.0051 -615.0051 -615.0051 -615.0051
-615.0051 -615.0051 -615.0051 -615.0051 -615.0051 -615.0051 -615.0051 -615.0051
-615.0051 -615.0051 -615.0051 -615.0051 -615.0051 -615.0051 -615.0051 -615.0051
-615.0051 -615.0051 -615.0051 -615.0051 -615.0051 -615.0051 -615.0051 -615.0051
-615.0051 -615.0051 -615.0051 -615.0051 -615.0051 -615.0051 -615.0051 -615.0051
-615.0051 -615.0051 -615.0051 -615.0051 -615.0051 -615.0051 -615.0051 -615.0051
-615.0051 -615.0051 -615.0051 -615.0051 -615.0051 -615.0051 -615.0051 -615.0051
-615.0051 -615.0051 -615.0051 -615.0051 145.61563 204.08627 209.93735 191.77774
176.87317 155.06189 119.494064 234.68341 184.23361 153.24353 189.91187 182.9094
243.25635 201.25626 124.898315 203.45508 149.85071 170.72012 148.90898 147.49268
187.49556 104.50838 183.63368 194.59378 151.32205 235.8685 127.75551 151.37369
149.62605 142.8291 159.59016 162.18436 169.96541 169.9505 161.80685 227.24425
145.67776 179.73447 148.58081 143.40709 111.97659 189.86948 181.73495 178.92072
141.121 175.78925 112.40108 164.09598 140.29115 102.92319 169.58319 168.27324
176.7461 179.24794 157.30045 205.6712 157.25117 123.75838 103.17177 115.168945
