datasets/mfccfeatures/extra_systole/train/198_1308141739338_B1.npy (npy, 30704 bytes, 1 tensors)

array f4 [39, 196]
00000000: f2f2 dac3 95db f9c3 ab5f ffc3 b9c8 cbc3
00000010: 82f4 fcc3 83ff fdc3 c164 f9c3 994d 02c4
00000020: 26e4 ffc3 41af fec3 2e61 ebc3 484c edc3
00000030: cc69 f9c3 33a7 f4c3 2f3b fdc3 bf6f cfc3
00000040: 9d27 d6c3 a6ba f5c3 1c53 00c4 ca14 ffc3
00000050: 026d fec3 fd5a ffc3 9fd4 01c4 de7c 00c4
00000060: ce1f ffc3 f469 fec3 7a4d e9c3 10e4 e1c3
00000070: b9db f0c3 bd7b f1c3 4e9a f3c3 737b 81c3
00000080: 9b8c e1c3 3398 fac3 6a96 f7c3 656e f9c3
00000090: 3615 00c4 cbd4 fec3 e228 01c4 74a2 00c4
000000a0: 658d e0c3 344b eac3 7659 f8c3 92c3 f6c3
000000b0: b5a9 fcc3 0e02 93c3 a999 ecc3 afcc fbc3
000000c0: ce8e fec3 c576 fcc3 1a2b fcc3 8a1b fbc3
000000d0: 99e7 01c4 421e f7c3 c9eb e8c3 a7f7 f0c3
000000e0: be0d dac3 0b49 e0c3 98ff e1c3 0e71 e8c3
000000f0: 0f54 e6c3 4f28 7cc3 457a cec3 b75e fcc3
00000100: 5cd6 fdc3 071c f8c3 6546 fec3 788e eec3
00000110: c98e f7c3 2faf e9c3 1119 fbc3 3dcd fac3
00000120: 1719 c8c3 27e1 e5c3 ef7a f9c3 ce93 ffc3
00000130: df96 f9c3 acd2 fec3 4297 ffc3 5056 dec3
00000140: 6b7a f4c3 51ea f4c3 ee74 fbc3 d2f5 fbc3
00000150: bf7f 97c3 a143 f7c3 4bb2 fec3 139f fbc3
00000160: 75ea fbc3 faee fec3 e137 fbc3 ab9e 01c4
00000170: 1100 00c4 5c1e fdc3 642b 00c4 153e dec3
00000180: ff76 efc3 13da f1c3 fd22 fbc3 25ff f8c3
00000190: b7c0 a9c3 247c dfc3 ea31 f6c3 6c73 fbc3
000001a0: 4002 01c4 0989 32c4 0989 32c4 0989 32c4
000001b0: 0989 32c4 0989 32c4 0989 32c4 0989 32c4
000001c0: 0989 32c4 0989 32c4 0989 32c4 0989 32c4
000001d0: 0989 32c4 0989 32c4 0989 32c4 0989 32c4
000001e0: 0989 32c4 0989 32c4 0989 32c4 0989 32c4
000001f0: 0989 32c4 0989 32c4 0989 32c4 0989 32c4
00000200: 0989 32c4 0989 32c4 0989 32c4 0989 32c4
00000210: 0989 32c4 0989 32c4 0989 32c4 0989 32c4
00000220: 0989 32c4 0989 32c4 0989 32c4 0989 32c4
00000230: 0989 32c4 0989 32c4 0989 32c4 0989 32c4
00000240: 0989 32c4 0989 32c4 0989 32c4 0989 32c4
00000250: 0989 32c4 0989 32c4 0989 32c4 0989 32c4
00000260: 0989 32c4 0989 32c4 0989 32c4 0989 32c4
00000270: 0989 32c4 0989 32c4 0989 32c4 0989 32c4
00000280: 0989 32c4 0989 32c4 0989 32c4 0989 32c4
00000290: 0989 32c4 0989 32c4 0989 32c4 0989 32c4
000002a0: 0989 32c4 0989 32c4 0989 32c4 0989 32c4
000002b0: 0989 32c4 0989 32c4 0989 32c4 0989 32c4
000002c0: 0989 32c4 0989 32c4 0989 32c4 0989 32c4
000002d0: 0989 32c4 0989 32c4 0989 32c4 0989 32c4
000002e0: 0989 32c4 0989 32c4 0989 32c4 0989 32c4
000002f0: 0989 32c4 0989 32c4 0989 32c4 0989 32c4
00000300: 0989 32c4 0989 32c4 0989 32c4 0989 32c4
00000310: 1663 c142 080b 1743 fc70 0343 02d8 7543
00000320: 67c4 0c43 40be 1143 858b 1d43 ae8d fb42
00000330: fcc3 0843 840c 0643 3b25 3c43 3c87 2943
00000340: 5ae8 1943 efd6 2043 4cb0 0643 24d3 5043
00000350: 5cab 5743 74fb 1943 8cfb 0243 0b65 1043
00000360: 04cc 0443 de97 0943 6ea5 0143 47cb 0343
00000370: 56c1 0843 df11 0643 fc6b 4643 ea9d 2a43
00000380: c84f 2443 8af2 1f43 404e 1143 4dc5 5f43
00000390: 975d 3843 cc24 1143 d90b 1043 0f7a 1043
000003a0: c570 0543 98bc 0843 a8e3 0043 996f 0943
000003b0: fa01 5243 48e8 2843 99e5 1843 469b 1543
000003c0: ebfc 0b43 c72e 7a43 ac95 2543 d297 0d43
000003d0: ed92 0343 a825 0543 6b60 0f43 f00e 0f43
000003e0: cc90 ff42 48db 1d43 67fe 3843 f03a 1f43
000003f0: 983d 6043 bcdd 4443 fc5f 3c43 f80b 3043
-437.898 -499.71548 -510.7474 -407.56815 -505.91022 -507.9962 -498.78714 -521.21246
-511.7824 -509.36917 -470.75922 -474.59595 -498.82654 -489.30624 -506.46237 -414.87302
-428.30948 -491.4582 -513.2986 -510.1624 -508.85162 -510.71085 -519.3222 -513.95105
-510.24847 -508.82776 -466.6053 -451.78174 -481.71658 -482.9667 -487.2055 -258.96445
-451.09848 -501.18906 -495.1751 -498.86246 -512.3314 -509.66245 -516.6388 -514.5383
-449.10464 -468.58752 -496.6989 -493.5279 -505.32584 -294.01605 -473.20047 -503.5991
-509.11566 -504.9279 -504.33673 -502.21515 -519.6187 -494.2364 -465.84207 -481.93478
-436.10736 -448.57065 -451.99683 -464.88324 -460.6567 -252.15746 -412.95523 -504.73996
-507.67468 -496.21896 -508.54996 -477.11304 -495.1155 -467.36862 -502.19583 -501.60342
-400.196 -459.759 -498.96042 -511.15472 -499.17868 -509.64587 -511.1817 -444.67432
-488.9564 -489.8306 -502.9135 -503.92047 -302.99802 -494.52835 -509.3929 -503.24277
-503.8317 -509.867 -502.43655 -518.4792 -512.00104 -506.23718 -512.678 -444.48502
-478.92966 -483.7037 -502.27335 -497.99332 -339.50558 -446.96985 -492.38995 -502.90173
-516.03516 -714.1412 -714.1412 -714.1412 -714.1412 -714.1412 -714.1412 -714.1412
-714.1412 -714.1412 -714.1412 -714.1412 -714.1412 -714.1412 -714.1412 -714.1412
-714.1412 -714.1412 -714.1412 -714.1412 -714.1412 -714.1412 -714.1412 -714.1412
-714.1412 -714.1412 -714.1412 -714.1412 -714.1412 -714.1412 -714.1412 -714.1412
-714.1412 -714.1412 -714.1412 -714.1412 -714.1412 -714.1412 -714.1412 -714.1412
-714.1412 -714.1412 -714.1412 -714.1412 -714.1412 -714.1412 -714.1412 -714.1412
-714.1412 -714.1412 -714.1412 -714.1412 -714.1412 -714.1412 -714.1412 -714.1412
-714.1412 -714.1412 -714.1412 -714.1412 -714.1412 -714.1412 -714.1412 -714.1412
-714.1412 -714.1412 -714.1412 -714.1412 -714.1412 -714.1412 -714.1412 -714.1412
-714.1412 -714.1412 -714.1412 -714.1412 -714.1412 -714.1412 -714.1412 -714.1412
-714.1412 -714.1412 -714.1412 -714.1412 -714.1412 -714.1412 -714.1412 -714.1412
-714.1412 -714.1412 -714.1412 -714.1412 96.69353 151.04309 131.44135 245.84378
140.7672 145.74316 157.545 125.77672 136.76556 134.04889 188.14543 169.52826
153.90762 160.83958 134.68866 208.82477 215.66937 153.98224 130.9826 144.3947
132.79694 137.59323 129.64621 131.79405 136.75522 134.06981 198.42181 170.61685
164.31165 159.94742 145.30566 223.7707 184.36559 145.14374 144.04628 144.47679
133.4405 136.7367 128.88928 137.43593 210.00772 168.90735 152.89687 149.60654
139.98796 250.18272 165.58466 141.59305 131.57393 133.1471 143.37663 143.05835
127.78281 157.85657 184.99376 159.23022 224.2406 196.86615 188.37494 176.04675
