datasets/mfccfeatures/extra_systole/train/aug_261_1309353556003_C_cardiac_pcgmix_plus_198_1308141739338_B1_alpha0.50_optimal_148.npy (npy, 30704 bytes, 1 tensors)

array f4 [39, 196]
-511.26395 -553.16077 -565.2983 -464.19513 -490.82468 -519.6142 -534.14874 -516.6387
-488.20547 -507.28238 -509.4544 -511.8299 -519.8004 -507.3725 -553.447 -542.8767
-474.27997 -496.0707 -525.3212 -535.81165 -546.9591 -551.485 -370.9611 -361.44403
-544.8151 -557.6486 -536.4019 -552.2215 -549.3625 -553.133 -546.3591 -506.12476
-460.05695 -518.8809 -537.2827 -541.8448 -532.8441 -369.7541 -531.2416 -407.8663
-544.36646 -548.2072 -551.08734 -518.3248 -539.3264 -558.5428 -496.9712 -506.1034
-509.7827 -486.48242 -533.1996 -535.7473 -549.486 -425.9541 -408.43823 -537.108
-567.0872 -550.44385 -541.0321 -565.2416 -558.25775 -491.2203 -421.6232 -464.34644
-514.51117 -534.6644 -429.1694 -472.0557 -500.05292 -514.3257 -519.9325 -523.59607
-532.5627 -534.5034 -506.78214 -514.4937 -526.4109 -524.6741 -479.21222 -498.25986
-499.68945 -516.42834 -801.1588 -801.1588 -801.1588 -801.1588 -801.1588 -801.1588
-801.1588 -801.1588 -801.1588 -801.1588 -801.1588 -801.1588 -801.1588 -801.1588
-801.1588 -801.1588 -801.1588 -801.1588 -801.1588 -801.1588 -801.1588 -801.1588
-801.1588 -801.1588 -801.1588 -801.1588 -801.1588 -801.1588 -801.1588 -801.1588
-801.1588 -801.1588 -801.1588 -801.1588 -801.1588 -801.1588 -801.1588 -801.1588
-801.1588 -801.1588 -801.1588 -801.1588 -801.1588 -801.1588 -801.1588 -801.1588
-801.1588 -801.1588 -801.1588 -801.1588 -801.1588 -801.1588 -801.1588 -801.1588
-801.1588 -801.1588 -801.1588 -801.1588 -801.1588 -801.1588 -801.1588 -801.1588
-801.1588 -801.1588 -801.1588 -801.1588 -801.1588 -801.1588 -801.1588 -801.1588
-801.1588 -801.1588 -801.1588 -801.1588 -801.1588 -801.1588 -801.1588 -801.1588
-801.1588 -801.1588 -801.1588 -801.1588 -801.1588 -801.1588 -801.1588 -801.1588
-801.1588 -801.1588 -801.1588 -801.1588 -801.1588 -801.1588 -801.1588 -801.1588
-801.1588 -801.1588 -801.1588 -801.1588 -801.1588 -801.1588 -801.1588 -801.1588
-801.1588 -801.1588 -801.1588 -801.1588 -801.1588 -801.1588 -801.1588 -801.1588
-801.1588 -801.1588 -801.1588 -801.1588 87.34401 160.46964 148.52473 253.24329
194.11703 170.49484 170.04027 176.239 233.90288 184.44128 177.63394 176.08951
168.73114 183.44318 159.8382 165.23666 151.60413 217.1363 188.11896 171.83582
169.24069 155.46085 212.12117 116.71956 159.46309 148.70303 173.17285 147.94476
145.89525 148.03372 153.59724 197.12376 140.89453 183.88794 165.07077 161.71265
145.97809 153.81248 153.40752 176.41283 157.97314 157.69376 150.11267 176.23051
167.89502 157.31503 168.38379 177.66312 200.5763 165.48723 176.56685 173.245
158.4985 135.418 149.6348 169.23773 137.2651 156.44307 156.20633 146.86694
00000000: c9a1 ffc3 4a4a 0ac4 1753 0dc4 fa18 e8c3
00000010: 8f69 f5c3 4fe7 01c4 8589 05c4 e028 01c4
00000020: 4d1a f4c3 25a4 fdc3 2aba fec3 3aea ffc3
00000030: 3af3 01c4 aeaf fdc3 9c5c 0ac4 1cb8 07c4
00000040: d623 edc3 0d09 f8c3 8f54 03c4 f2f3 05c4
00000050: 62bd 08c4 0adf 09c4 057b b9c3 d6b8 b4c3
00000060: 2b34 08c4 8369 0bc4 b919 06c4 2d0e 0ac4
00000070: 3357 09c4 8348 0ac4 fb96 08c4 f80f fdc3
00000080: 4a07 e6c3 61b8 01c4 1852 06c4 1176 07c4
00000090: 0636 05c4 86e0 b8c3 76cf 04c4 e3ee cbc3
000000a0: 7417 08c4 430d 09c4 97c5 09c4 ca94 01c4
000000b0: e4d4 06c4 bda2 0bc4 507c f8c3 3c0d fdc3
000000c0: 30e4 fec3 c03d f3c3 c64c 05c4 d4ef 05c4
000000d0: 1b5f 09c4 20fa d4c3 1838 ccc3 e946 06c4
000000e0: 95c5 0dc4 689c 09c4 0e42 07c4 764f 0dc4
000000f0: 7f90 0bc4 339c f5c3 c5cf d2c3 582c e8c3
00000100: b7a0 00c4 86aa 05c4 af95 d6c3 2107 ecc3
00000110: c606 fac3 d894 00c4 aefb 01c4 26e6 02c4
00000120: 0324 05c4 38a0 05c4 1d64 fdc3 999f 00c4
00000130: 4c9a 03c4 242b 03c4 2a9b efc3 4321 f9c3
00000140: 40d8 f9c3 6a1b 01c4 2a4a 48c4 2a4a 48c4
00000150: 2a4a 48c4 2a4a 48c4 2a4a 48c4 2a4a 48c4
00000160: 2a4a 48c4 2a4a 48c4 2a4a 48c4 2a4a 48c4
00000170: 2a4a 48c4 2a4a 48c4 2a4a 48c4 2a4a 48c4
00000180: 2a4a 48c4 2a4a 48c4 2a4a 48c4 2a4a 48c4
00000190: 2a4a 48c4 2a4a 48c4 2a4a 48c4 2a4a 48c4
000001a0: 2a4a 48c4 2a4a 48c4 2a4a 48c4 2a4a 48c4
000001b0: 2a4a 48c4 2a4a 48c4 2a4a 48c4 2a4a 48c4
000001c0: 2a4a 48c4 2a4a 48c4 2a4a 48c4 2a4a 48c4
000001d0: 2a4a 48c4 2a4a 48c4 2a4a 48c4 2a4a 48c4
000001e0: 2a4a 48c4 2a4a 48c4 2a4a 48c4 2a4a 48c4
000001f0: 2a4a 48c4 2a4a 48c4 2a4a 48c4 2a4a 48c4
00000200: 2a4a 48c4 2a4a 48c4 2a4a 48c4 2a4a 48c4
00000210: 2a4a 48c4 2a4a 48c4 2a4a 48c4 2a4a 48c4
00000220: 2a4a 48c4 2a4a 48c4 2a4a 48c4 2a4a 48c4
00000230: 2a4a 48c4 2a4a 48c4 2a4a 48c4 2a4a 48c4
00000240: 2a4a 48c4 2a4a 48c4 2a4a 48c4 2a4a 48c4
00000250: 2a4a 48c4 2a4a 48c4 2a4a 48c4 2a4a 48c4
00000260: 2a4a 48c4 2a4a 48c4 2a4a 48c4 2a4a 48c4
00000270: 2a4a 48c4 2a4a 48c4 2a4a 48c4 2a4a 48c4
00000280: 2a4a 48c4 2a4a 48c4 2a4a 48c4 2a4a 48c4
00000290: 2a4a 48c4 2a4a 48c4 2a4a 48c4 2a4a 48c4
000002a0: 2a4a 48c4 2a4a 48c4 2a4a 48c4 2a4a 48c4
000002b0: 2a4a 48c4 2a4a 48c4 2a4a 48c4 2a4a 48c4
000002c0: 2a4a 48c4 2a4a 48c4 2a4a 48c4 2a4a 48c4
000002d0: 2a4a 48c4 2a4a 48c4 2a4a 48c4 2a4a 48c4
000002e0: 2a4a 48c4 2a4a 48c4 2a4a 48c4 2a4a 48c4
000002f0: 2a4a 48c4 2a4a 48c4 2a4a 48c4 2a4a 48c4
00000300: 2a4a 48c4 2a4a 48c4 2a4a 48c4 2a4a 48c4
00000310: 22b0 ae42 3a78 2043 5586 1443 483e 7d43
00000320: f61d 4243 ae7e 2a43 4f0a 2a43 2f3d 3043
00000330: 23e7 6943 f870 3843 4aa2 3143 ea16 3043
00000340: 2cbb 2843 7471 3743 94d6 1f43 963c 2543
00000350: a89a 1743 e522 5943 741e 3c43 f8d5 2b43
00000360: 9e3d 2943 fa75 1b43 051f 5443 6a70 e942
00000370: 8d76 1f43 fab3 1443 402c 2d43 dcf1 1343
00000380: 2fe5 1143 a208 1443 e598 1943 af1f 4543
00000390: 00e5 0c43 50e3 3743 1e12 2543 70b6 2143
000003a0: 64fa 1143 ffcf 1943 5368 1943 af69 3043
000003b0: 20f9 1d43 9ab1 1d43 d81c 1643 033b 3043
000003c0: 20e5 2743 a650 1d43 4062 2843 c2a9 3143
000003d0: 8893 4843 bb7c 2543 1d91 3043 b83e 2d43
000003e0: 9e7f 1e43 026b 0743 82a2 1543 dc3c 2943
000003f0: de43 0943 6d71 1c43 d234 1c43 f0dd 1243
