datasets/mfccfeatures/extra_systole/train/aug_229_1308594979317_B_cardiac_pcgmix_plus_198_1308141739338_B1_alpha0.60_basic_74.npy (npy, 30704 bytes, 1 tensors)

array f4 [39, 196]
-473.0308 -518.7589 -545.59076 -444.70874 -486.02667 -479.11618 -508.09323 -454.35004
-499.29282 -515.2947 -523.22186 -485.07416 -480.71042 -470.93466 -493.01224 -511.7924
-403.53043 -357.05682 -501.3596 -529.5852 -520.6677 -518.8581 -460.15784 -446.43814
-380.91528 -496.31485 -503.41245 -443.72556 -324.21118 -509.73282 -501.68375 -512.2484
-507.243 -460.65402 -463.171 -464.24045 -473.2089 -487.3914 -492.87698 -434.69812
-438.6456 -486.26123 -493.17807 -490.10052 -484.68338 -399.1764 -455.76358 -448.77353
-486.46927 -404.28122 -450.54846 -477.6809 -495.3415 -500.36182 -492.41388 -316.23843
-394.25302 -509.13834 -500.92822 -426.2121 -404.17462 -508.33044 -506.74454 -517.3336
-500.87445 -414.7158 -451.64322 -451.6723 -501.1135 -494.38123 -456.9102 -493.1535
-490.9984 -503.39838 -456.7789 -453.0191 -441.09375 -519.65924 -526.11365 -434.32086
-380.05017 -512.403 -495.13968 -518.1478 -466.76617 -469.80508 -483.53342 -494.35745
-739.3481 -739.3481 -739.3481 -739.3481 -739.3481 -739.3481 -739.3481 -739.3481
-739.3481 -739.3481 -739.3481 -739.3481 -739.3481 -739.3481 -739.3481 -739.3481
-739.3481 -739.3481 -739.3481 -739.3481 -739.3481 -739.3481 -739.3481 -739.3481
-739.3481 -739.3481 -739.3481 -739.3481 -739.3481 -739.3481 -739.3481 -739.3481
-739.3481 -739.3481 -739.3481 -739.3481 -739.3481 -739.3481 -739.3481 -739.3481
-739.3481 -739.3481 -739.3481 -739.3481 -739.3481 -739.3481 -739.3481 -739.3481
-739.3481 -739.3481 -739.3481 -739.3481 -739.3481 -739.3481 -739.3481 -739.3481
-739.3481 -739.3481 -739.3481 -739.3481 -739.3481 -739.3481 -739.3481 -739.3481
-739.3481 -739.3481 -739.3481 -739.3481 -739.3481 -739.3481 -739.3481 -739.3481
-739.3481 -739.3481 -739.3481 -739.3481 -739.3481 -739.3481 -739.3481 -739.3481
-739.3481 -739.3481 -739.3481 -739.3481 -739.3481 -739.3481 -739.3481 -739.3481
-739.3481 -739.3481 -739.3481 -739.3481 -739.3481 -739.3481 -739.3481 -739.3481
-739.3481 -739.3481 -739.3481 -739.3481 -739.3481 -739.3481 -739.3481 -739.3481
-739.3481 -739.3481 -739.3481 -739.3481 98.327286 148.70503 121.82759 230.66617
141.10495 129.45906 147.66547 216.53314 128.50676 135.15782 140.959 160.11243
187.3458 173.17361 168.5441 156.36954 200.42163 113.41003 153.87039 130.40454
146.85675 129.7496 121.88147 229.26514 109.01549 165.17752 154.61935 218.45068
94.558075 140.44052 149.37363 139.99728 148.32037 202.7641 116.276794 197.55042
183.91544 166.75299 164.54651 235.41245 126.30975 167.75572 166.60184 164.19711
156.23535 260.20557 131.69476 130.62216 159.57858 115.2682 213.63187 182.1762
164.54108 164.41638 150.34805 206.88391 123.972595 156.54095 160.01643 119.679344
00000000: f183 ecc3 92b0 01c4 cf65 08c4 b85a dec3
00000010: 6a03 f3c3 df8e efc3 ef0b fec3 ce2c e3c3
00000020: 7ba5 f9c3 dcd2 00c4 33ce 02c4 7e89 f2c3
00000030: ef5a f0c3 a377 ebc3 9181 f6c3 6de5 ffc3
00000040: e5c3 c9c3 4687 b2c3 07ae fac3 7465 04c4
00000050: bc2a 02c4 ebb6 01c4 3414 e6c3 1538 dfc3
00000060: 2875 bec3 4d28 f8c3 cbb4 fbc3 dfdc ddc3
00000070: 081b a2c3 cddd fec3 85d7 fac3 e60f 00c4
00000080: 1b9f fdc3 b753 e6c3 e395 e7c3 c71e e8c3
00000090: bd9a ecc3 19b2 f3c3 4170 f6c3 5c59 d9c3
000000a0: a352 dbc3 7021 f3c3 cb96 f6c3 de0c f5c3
000000b0: 7957 f2c3 9496 c7c3 bde1 e3c3 0363 e0c3
000000c0: 113c f3c3 ff23 cac3 3446 e1c3 28d7 eec3
000000d0: b6ab f7c3 502e fac3 fa34 f6c3 851e 9ec3
000000e0: 6320 c5c3 b591 fec3 d076 fac3 261b d5c3
000000f0: 5a16 cac3 4c2a fec3 4d5f fdc3 5a55 01c4
00000100: ee6f fac3 9f5b cfc3 55d2 e1c3 0ed6 e1c3
00000110: 878e fac3 cc30 f7c3 8174 e4c3 a693 f6c3
00000120: cc7f f5c3 feb2 fbc3 b363 e4c3 7282 e2c3
00000130: 008c dcc3 31ea 01c4 4687 03c4 1229 d9c3
00000140: 6c06 bec3 cb19 00c4 e191 f7c3 7689 01c4
00000150: 1262 e9c3 0de7 eac3 47c4 f1c3 c12d f7c3
00000160: 47d6 38c4 47d6 38c4 47d6 38c4 47d6 38c4
00000170: 47d6 38c4 47d6 38c4 47d6 38c4 47d6 38c4
00000180: 47d6 38c4 47d6 38c4 47d6 38c4 47d6 38c4
00000190: 47d6 38c4 47d6 38c4 47d6 38c4 47d6 38c4
000001a0: 47d6 38c4 47d6 38c4 47d6 38c4 47d6 38c4
000001b0: 47d6 38c4 47d6 38c4 47d6 38c4 47d6 38c4
000001c0: 47d6 38c4 47d6 38c4 47d6 38c4 47d6 38c4
000001d0: 47d6 38c4 47d6 38c4 47d6 38c4 47d6 38c4
000001e0: 47d6 38c4 47d6 38c4 47d6 38c4 47d6 38c4
000001f0: 47d6 38c4 47d6 38c4 47d6 38c4 47d6 38c4
00000200: 47d6 38c4 47d6 38c4 47d6 38c4 47d6 38c4
00000210: 47d6 38c4 47d6 38c4 47d6 38c4 47d6 38c4
00000220: 47d6 38c4 47d6 38c4 47d6 38c4 47d6 38c4
00000230: 47d6 38c4 47d6 38c4 47d6 38c4 47d6 38c4
00000240: 47d6 38c4 47d6 38c4 47d6 38c4 47d6 38c4
00000250: 47d6 38c4 47d6 38c4 47d6 38c4 47d6 38c4
00000260: 47d6 38c4 47d6 38c4 47d6 38c4 47d6 38c4
00000270: 47d6 38c4 47d6 38c4 47d6 38c4 47d6 38c4
00000280: 47d6 38c4 47d6 38c4 47d6 38c4 47d6 38c4
00000290: 47d6 38c4 47d6 38c4 47d6 38c4 47d6 38c4
000002a0: 47d6 38c4 47d6 38c4 47d6 38c4 47d6 38c4
000002b0: 47d6 38c4 47d6 38c4 47d6 38c4 47d6 38c4
000002c0: 47d6 38c4 47d6 38c4 47d6 38c4 47d6 38c4
000002d0: 47d6 38c4 47d6 38c4 47d6 38c4 47d6 38c4
000002e0: 47d6 38c4 47d6 38c4 47d6 38c4 47d6 38c4
000002f0: 47d6 38c4 47d6 38c4 47d6 38c4 47d6 38c4
00000300: 47d6 38c4 47d6 38c4 47d6 38c4 47d6 38c4
00000310: 92a7 c442 7db4 1443 baa7 f342 8aaa 6643
00000320: de1a 0d43 8575 0143 5caa 1343 7c88 5843
00000330: bb81 0043 6728 0743 81f5 0c43 c81c 2043
00000340: 8658 3b43 722c 2d43 4a8b 2843 9a5e 1c43
00000350: f06b 4843 efd1 e242 d2de 1943 9067 0243
00000360: 54db 1243 e6bf 0143 50c3 f342 e043 6543
00000370: ee07 da42 722d 2543 8e9e 1a43 6073 5a43
00000380: bc1d bd42 c670 0c43 a65f 1543 4eff 0b43
00000390: 0452 1443 9cc3 4a43 b88d e842 e88c 4543
000003a0: 5aea 3743 c4c0 2643 e88b 2443 9669 6b43
000003b0: 989e fc42 77c1 2743 129a 2643 7632 2443
000003c0: 403c 1c43 501a 8243 dcb1 0343 469f 0243
000003d0: 1e94 1f43 5289 e642 c2a1 5543 1b2d 3643
000003e0: 848a 2443 986a 2443 1a59 1643 48e2 4e43
000003f0: f8f1 f742 7c8a 1c43 3504 2043 d35b ef42
