datasets/mfccfeatures/extra_systole/train/aug_127_1306764300147_C2_cardiac_pcgmix_plus_198_1308141739338_B1_alpha0.34_optimal_205.npy (npy, 30704 bytes, 1 tensors)

array f4 [39, 196]
00000000: 230e 10c4 bc1f 0ec4 4a8a 0fc4 e42b efc3
00000010: 9032 05c4 492e 08c4 d192 0dc4 d971 f1c3
00000020: 23b4 0fc4 45fa 0ec4 4afb 0dc4 9a4e 0cc4
00000030: eeea 0bc4 5895 e7c3 dd8b 0ac4 36ad 0ac4
00000040: 12e1 09c4 7fd1 cdc3 ca5a 0ac4 0d6e fcc3
00000050: 4f54 fdc3 af6e d8c3 5734 fec3 05c7 a8c3
00000060: af9d f2c3 5c3b 06c4 4aa5 eac3 5afb e4c3
00000070: fd17 f6c3 050f 05c4 d4c6 01c4 980c 08c4
00000080: 2684 82c3 60e5 bec3 303c 08c4 bc0d 04c4
00000090: 9f33 02c4 648d efc3 0b1e e8c3 46e5 f4c3
000000a0: b072 05c4 e4d8 05c4 d5f2 e0c3 ce67 d8c3
000000b0: 81db edc3 c380 edc3 d570 a3c3 6d78 cfc3
000000c0: 201c fac3 36d3 ffc3 323e 02c4 2f6b 02c4
000000d0: 09dc ebc3 0a8c f4c3 79fe edc3 0cd4 f2c3
000000e0: caef a7c3 1bbc c2c3 7af6 f7c3 7a2d fac3
000000f0: 99fc f7c3 c4bc f6c3 d45b ebc3 225d bac3
00000100: b743 efc3 927e f0c3 39e5 d8c3 e666 d8c3
00000110: b2b7 d7c3 7c53 fcc3 7b77 fac3 eaa6 fcc3
00000120: 6951 dbc3 f08b 82c3 928b f0c3 bf2f efc3
00000130: 7162 fdc3 d009 2ec4 d009 2ec4 d009 2ec4
00000140: d009 2ec4 d009 2ec4 d009 2ec4 d009 2ec4
00000150: d009 2ec4 d009 2ec4 d009 2ec4 d009 2ec4
00000160: d009 2ec4 d009 2ec4 d009 2ec4 d009 2ec4
00000170: d009 2ec4 d009 2ec4 d009 2ec4 d009 2ec4
00000180: d009 2ec4 d009 2ec4 d009 2ec4 d009 2ec4
00000190: d009 2ec4 d009 2ec4 d009 2ec4 d009 2ec4
000001a0: d009 2ec4 d009 2ec4 d009 2ec4 d009 2ec4
000001b0: d009 2ec4 d009 2ec4 d009 2ec4 d009 2ec4
000001c0: d009 2ec4 d009 2ec4 d009 2ec4 d009 2ec4
000001d0: d009 2ec4 d009 2ec4 d009 2ec4 d009 2ec4
000001e0: d009 2ec4 d009 2ec4 d009 2ec4 d009 2ec4
000001f0: d009 2ec4 d009 2ec4 d009 2ec4 d009 2ec4
00000200: d009 2ec4 d009 2ec4 d009 2ec4 d009 2ec4
00000210: d009 2ec4 d009 2ec4 d009 2ec4 d009 2ec4
00000220: d009 2ec4 d009 2ec4 d009 2ec4 d009 2ec4
00000230: d009 2ec4 d009 2ec4 d009 2ec4 d009 2ec4
00000240: d009 2ec4 d009 2ec4 d009 2ec4 d009 2ec4
00000250: d009 2ec4 d009 2ec4 d009 2ec4 d009 2ec4
00000260: d009 2ec4 d009 2ec4 d009 2ec4 d009 2ec4
00000270: d009 2ec4 d009 2ec4 d009 2ec4 d009 2ec4
00000280: d009 2ec4 d009 2ec4 d009 2ec4 d009 2ec4
00000290: d009 2ec4 d009 2ec4 d009 2ec4 d009 2ec4
000002a0: d009 2ec4 d009 2ec4 d009 2ec4 d009 2ec4
000002b0: d009 2ec4 d009 2ec4 d009 2ec4 d009 2ec4
000002c0: d009 2ec4 d009 2ec4 d009 2ec4 d009 2ec4
000002d0: d009 2ec4 d009 2ec4 d009 2ec4 d009 2ec4
000002e0: d009 2ec4 d009 2ec4 d009 2ec4 d009 2ec4
000002f0: d009 2ec4 d009 2ec4 d009 2ec4 d009 2ec4
00000300: d009 2ec4 d009 2ec4 d009 2ec4 d009 2ec4
00000310: d03a c442 4817 d042 6c9c b442 9ef4 4843
00000320: 68e0 d442 5aa1 ca42 bea8 c842 e5bd 4243
00000330: 2659 c042 9e68 be42 28b7 bc42 ac34 e442
00000340: 823d e342 2784 cc42 5247 e242 5428 ea42
00000350: 44f3 b442 58a7 1d43 b44a d842 06a9 9e42
00000360: 8883 2743 6c2a c442 5ad9 0243 ac05 5d43
00000370: 4cc7 ed42 7215 f542 9887 c542 9217 4943
00000380: a50b c142 b902 0043 fab3 0643 58d3 d942
00000390: 52ab 2943 9e0b 1143 06d9 d842 ce00 fe42
000003a0: c105 0143 b293 3443 06f2 ca42 20bc 1d43
000003b0: 66c9 d242 9613 cf42 24fa 4e43 d033 2643
000003c0: 2a53 2743 43f2 2443 ecad 5443 975f 5043
000003d0: ac2a 0543 7c88 0343 9c06 fd42 5eed ef42
000003e0: 298c 3443 e213 1843 78c1 1643 4424 1143
000003f0: 1d27 7d43 d13d 2843 3466 0b43 54e3 0543
-576.2209 -568.49585 -574.16077 -478.3429 -532.79004 -544.7232 -566.294 -482.88943
-574.81464 -571.91046 -567.9264 -561.22815 -559.6708 -463.16675 -554.18536 -554.7064
-551.5167 -411.6367 -553.4186 -504.85977 -506.65866 -432.86472 -508.4089 -337.55484
-485.2319 -536.9275 -469.29132 -457.96368 -492.1874 -532.2347 -519.1067 -544.1968
-261.0324 -381.792 -544.9404 -528.2146 -520.8066 -479.1046 -464.2347 -489.7912
-533.792 -535.3889 -449.89713 -432.81097 -475.71487 -475.00595 -326.8815 -414.94083
-500.21973 -511.6501 -520.9718 -521.67474 -471.71902 -489.09406 -475.98807 -485.65662
-335.87335 -389.46957 -495.9256 -500.3553 -495.97342 -493.47473 -470.7174 -372.7276
-478.52902 -480.98883 -433.7908 -432.8039 -431.43512 -504.65222 -500.93344 -505.30402
-438.63602 -261.09326 -481.0904 -478.37302 -506.76907 -696.1533 -696.1533 -696.1533
-696.1533 -696.1533 -696.1533 -696.1533 -696.1533 -696.1533 -696.1533 -696.1533
-696.1533 -696.1533 -696.1533 -696.1533 -696.1533 -696.1533 -696.1533 -696.1533
-696.1533 -696.1533 -696.1533 -696.1533 -696.1533 -696.1533 -696.1533 -696.1533
-696.1533 -696.1533 -696.1533 -696.1533 -696.1533 -696.1533 -696.1533 -696.1533
-696.1533 -696.1533 -696.1533 -696.1533 -696.1533 -696.1533 -696.1533 -696.1533
-696.1533 -696.1533 -696.1533 -696.1533 -696.1533 -696.1533 -696.1533 -696.1533
-696.1533 -696.1533 -696.1533 -696.1533 -696.1533 -696.1533 -696.1533 -696.1533
-696.1533 -696.1533 -696.1533 -696.1533 -696.1533 -696.1533 -696.1533 -696.1533
-696.1533 -696.1533 -696.1533 -696.1533 -696.1533 -696.1533 -696.1533 -696.1533
-696.1533 -696.1533 -696.1533 -696.1533 -696.1533 -696.1533 -696.1533 -696.1533
-696.1533 -696.1533 -696.1533 -696.1533 -696.1533 -696.1533 -696.1533 -696.1533
-696.1533 -696.1533 -696.1533 -696.1533 -696.1533 -696.1533 -696.1533 -696.1533
-696.1533 -696.1533 -696.1533 -696.1533 -696.1533 -696.1533 -696.1533 -696.1533
-696.1533 -696.1533 -696.1533 -696.1533 -696.1533 -696.1533 -696.1533 -696.1533
-696.1533 -696.1533 -696.1533 -696.1533 98.11487 104.04547 90.30551 200.95554
106.43829 101.31514 100.329575 194.74178 96.17412 95.20433 94.35773 114.102875
113.62013 102.25811 113.1393 117.078766 90.47513 157.65369 108.145905 79.330124
167.5138 98.082855 130.84903 221.02216 118.88925 122.541885 98.76483 201.09207
96.52274 128.01064 134.70303 108.91278 169.66922 145.04538 108.423874 127.00157
129.02248 180.57693 101.4727 157.73486 105.39336 103.53825 206.97711 166.2024
167.32486 164.94633 212.67938 208.3734 133.16669 131.53314 126.51291 119.96361
180.5475 152.07767 150.75574 145.14166 253.15279 168.24147 139.39923 133.888
