datasets/mfccfeatures/extra_systole/train/aug_198_1308141739338_B1_cardiac_pcgmix_plus_294_1311681084248_C_alpha0.47_optimal_157.npy (npy, 30704 bytes, 1 tensors)

array f4 [39, 196]
00000000: 396e d4c3 587a edc3 a4df bfc3 bae6 b7c3
00000010: ac3c dbc3 c2cb d2c3 d293 90c3 e11a d3c3
00000020: 126a efc3 9a65 f4c3 62f9 c0c3 33d9 d7c3
00000030: c2c8 efc3 eb60 f6c3 b861 f5c3 6d96 ddc3
00000040: e476 a0c3 7e28 f7c3 5c2d f9c3 0822 f6c3
00000050: 6174 f5c3 419a f6c3 fdba fac3 e919 f8c3
00000060: e270 f6c3 15ad f5c3 c078 b8c3 78e7 b9c3
00000070: f5b2 f3c3 ccd0 f5c3 cbbc eac3 c9b1 a0c3
00000080: 821d d8c3 d95b f4c3 8cc0 ecc3 392c f0c3
00000090: 23a1 f6c3 cd2a f5c3 66af f8c3 5d6b ddc3
000000a0: 4b4e bec3 a34f e0c3 772c eec3 8430 f4c3
000000b0: dabe f2c3 0482 a7c3 a4bc a8c3 9910 f8c3
000000c0: 5074 f3c3 7462 f1c3 93ca f0c3 f994 efc3
000000d0: 054f f8c3 32d7 ebc3 7ea9 ecc3 45c5 f1c3
000000e0: 95b9 cac3 1471 c3c3 2a36 e9c3 43e6 dac3
000000f0: ab8a d9c3 34fe 96c3 f8e7 b4c3 1c2a efc3
00000100: 9e16 d4c3 2fb7 eac3 ae06 f1c3 6d18 bcc3
00000110: a344 dcc3 668a d8c3 5062 edc3 a5c4 f0c3
00000120: b9f3 c1c3 b9c8 d2c3 d919 f7c3 23cd f0c3
00000130: 037e ebc3 1ab4 f0c3 6a70 f1c3 ce6d adc3
00000140: 5549 e6c3 d991 e6c3 56cf eec3 69b5 edc3
00000150: 0467 aac3 5aa7 f5c3 c239 f7c3 fe90 fcc3
00000160: 4dea edc3 a204 f1c3 525f edc3 745f f5c3
00000170: f04f f2c3 dd80 efc3 a5a9 f2c3 2f8d afc3
00000180: 8fd9 f5c3 7b68 f7c3 6241 c6c3 e179 e5c3
00000190: 501a 87c3 bdc1 d2c3 019b e9c3 acff eec3
000001a0: dcbb f5c3 d0d8 24c4 d0d8 24c4 d0d8 24c4
000001b0: d0d8 24c4 d0d8 24c4 d0d8 24c4 d0d8 24c4
000001c0: d0d8 24c4 d0d8 24c4 d0d8 24c4 d0d8 24c4
000001d0: d0d8 24c4 d0d8 24c4 d0d8 24c4 d0d8 24c4
000001e0: d0d8 24c4 d0d8 24c4 d0d8 24c4 d0d8 24c4
000001f0: d0d8 24c4 d0d8 24c4 d0d8 24c4 d0d8 24c4
00000200: d0d8 24c4 d0d8 24c4 d0d8 24c4 d0d8 24c4
00000210: d0d8 24c4 d0d8 24c4 d0d8 24c4 d0d8 24c4
00000220: d0d8 24c4 d0d8 24c4 d0d8 24c4 d0d8 24c4
00000230: d0d8 24c4 d0d8 24c4 d0d8 24c4 d0d8 24c4
00000240: d0d8 24c4 d0d8 24c4 d0d8 24c4 d0d8 24c4
00000250: d0d8 24c4 d0d8 24c4 d0d8 24c4 d0d8 24c4
00000260: d0d8 24c4 d0d8 24c4 d0d8 24c4 d0d8 24c4
00000270: d0d8 24c4 d0d8 24c4 d0d8 24c4 d0d8 24c4
00000280: d0d8 24c4 d0d8 24c4 d0d8 24c4 d0d8 24c4
00000290: d0d8 24c4 d0d8 24c4 d0d8 24c4 d0d8 24c4
000002a0: d0d8 24c4 d0d8 24c4 d0d8 24c4 d0d8 24c4
000002b0: d0d8 24c4 d0d8 24c4 d0d8 24c4 d0d8 24c4
000002c0: d0d8 24c4 d0d8 24c4 d0d8 24c4 d0d8 24c4
000002d0: d0d8 24c4 d0d8 24c4 d0d8 24c4 d0d8 24c4
000002e0: d0d8 24c4 d0d8 24c4 d0d8 24c4 d0d8 24c4
000002f0: d0d8 24c4 d0d8 24c4 d0d8 24c4 d0d8 24c4
00000300: d0d8 24c4 d0d8 24c4 d0d8 24c4 d0d8 24c4
00000310: cc46 c142 86a1 0743 24b2 5f43 3807 5843
00000320: cef3 3c43 c480 ce42 a000 1843 60ee c242
00000330: 86ec 1743 d424 e942 ca17 6443 be11 ec42
00000340: b4a7 0743 b2f1 0c43 2262 0343 3aa9 2343
00000350: 0eb6 f542 3e5c 0743 31e4 f942 3ec4 fa42
00000360: b2d6 e242 54da ec42 3037 dc42 8caa e042
00000370: 2619 eb42 26b8 e542 4606 5a43 c693 c942
00000380: f5c7 1043 ecba 0743 5893 fc42 b9b0 6843
00000390: 0e70 2543 444e 0d43 9c1e 0243 18b7 fb42
000003a0: 0c3b e542 04fe eb42 be05 dd42 f63b e042
000003b0: a206 6743 d5e2 1643 daf2 0643 909b 0d43
000003c0: abc8 0643 fcc3 6143 fc24 ac42 9f5a 0643
000003d0: 203c e542 cfb7 e842 7feb fc42 318e fc42
000003e0: baef de42 8246 db42 9d4f 1843 282d 0d43
000003f0: d195 4543 4804 1043 e38f 2043 9ed6 2143
-424.8611 -474.9558 -383.7472 -367.80255 -438.474 -421.59186 -289.15485 -422.21
-478.82867 -488.79376 -385.9483 -431.69687 -479.56842 -492.75717 -490.76343 -443.1752
-320.92883 -494.31635 -498.35437 -492.26587 -490.9092 -493.2051 -501.46085 -496.20242
-492.8819 -491.3522 -368.94336 -371.80835 -487.3981 -491.63123 -469.47495 -321.38895
-432.23053 -488.71756 -473.50427 -480.3455 -493.25888 -490.33438 -497.3703 -442.83878
-380.61166 -448.62216 -476.34738 -488.37903 -485.49103 -335.01575 -337.47375 -496.12967
-486.9087 -482.76917 -481.5826 -479.16385 -496.61734 -471.6812 -473.32416 -483.54117
-405.44986 -390.88342 -466.42316 -437.79892 -435.08334 -301.98596 -361.81226 -478.32898
-424.1767 -469.43112 -482.0522 -376.19083 -440.53622 -433.08124 -474.76807 -481.5363
-387.90408 -421.56815 -494.20193 -481.60263 -470.98447 -481.40704 -482.87823 -346.85785
-460.5729 -461.13943 -477.6198 -475.41727 -340.8048 -491.30743 -494.45123 -505.13275
-475.83047 -482.0362 -474.7447 -490.74573 -484.6245 -479.00674 -485.32535 -351.103
-491.69968 -494.81625 -396.5108 -458.95218 -270.20557 -421.51358 -467.21097 -477.99744
-491.46765 -659.3877 -659.3877 -659.3877 -659.3877 -659.3877 -659.3877 -659.3877
-659.3877 -659.3877 -659.3877 -659.3877 -659.3877 -659.3877 -659.3877 -659.3877
-659.3877 -659.3877 -659.3877 -659.3877 -659.3877 -659.3877 -659.3877 -659.3877
-659.3877 -659.3877 -659.3877 -659.3877 -659.3877 -659.3877 -659.3877 -659.3877
-659.3877 -659.3877 -659.3877 -659.3877 -659.3877 -659.3877 -659.3877 -659.3877
-659.3877 -659.3877 -659.3877 -659.3877 -659.3877 -659.3877 -659.3877 -659.3877
-659.3877 -659.3877 -659.3877 -659.3877 -659.3877 -659.3877 -659.3877 -659.3877
-659.3877 -659.3877 -659.3877 -659.3877 -659.3877 -659.3877 -659.3877 -659.3877
-659.3877 -659.3877 -659.3877 -659.3877 -659.3877 -659.3877 -659.3877 -659.3877
-659.3877 -659.3877 -659.3877 -659.3877 -659.3877 -659.3877 -659.3877 -659.3877
-659.3877 -659.3877 -659.3877 -659.3877 -659.3877 -659.3877 -659.3877 -659.3877
-659.3877 -659.3877 -659.3877 -659.3877 96.638275 135.63095 223.69586 216.0282
188.95236 103.251495 152.00244 97.465576 151.92392 116.57193 228.09293 118.03465
135.65509 140.94412 131.38333 163.66104 122.855576 135.36032 124.94569 125.383286
113.41933 118.42642 110.10779 112.3331 117.54912 114.859665 218.0245 100.78862
144.78108 135.73016 126.28778 232.69032 165.43771 141.30573 130.11957 125.857605
114.615326 117.996124 110.511215 112.11711 231.02591 150.88606 134.94864 141.60767
134.78386 225.76556 86.072235 134.35399 114.61743 116.359 126.45995 126.27772
111.468216 109.63771 152.31099 141.17639 197.58522 144.01672 160.56206 161.83835
