datasets/mfccfeatures/extra_systole/train/aug_128_1306344005749_A_cardiac_pcgmix_plus_144_1306522408528_B1_alpha0.61_basic_95.npy (npy, 30704 bytes, 1 tensors)

array f4 [39, 196]
0	0xc3e9147f	-466.16013
1	0xc3fc868d	-505.05118
2	0xc3fb7e86	-502.98846
3	0xc3e769fe	-462.82806
4	0xc3ec5171	-472.63626
5	0xc3f6edfe	-493.8593
6	0xc3d46067	-424.75314
7	0xc3f8dec9	-497.7405
8	0xc3d98c74	-435.0973
9	0xc3ce7dab	-412.98178
10	0xc3faab51	-501.3384
11	0xc401c0cb	-519.0124
12	0xc3edd1ab	-475.63803
13	0xc400f76b	-515.8659
14	0xc3c77ea5	-398.9894
15	0xc3c388b8	-391.0681
16	0xc3ff0134	-510.0094
17	0xc3ff30f8	-510.38257
18	0xc3e250c3	-452.63095
19	0xc3a58012	-331.00055
20	0xc3e5da5b	-459.7059
21	0xc4041165	-528.2718
22	0xc4019c3a	-518.44104
23	0xc3ec0d3f	-472.1035
24	0xc3e96ff8	-466.87476
25	0xc3fed112	-509.63336
26	0xc3ff462c	-510.54822
27	0xc3beb69e	-381.4267
28	0xc3d8759b	-432.9188
29	0xc3fbc1d5	-503.5143
30	0xc3f16efd	-482.8671
31	0xc409ea8f	-551.665
32	0xc40a0a9f	-552.16595
33	0xc408c612	-547.09485
34	0xc40164fd	-517.57794
35	0xc3f7c39f	-495.5283
36	0xc3f9fc36	-499.9704
37	0xc3f8e6e5	-497.80386
38	0xc3fca58e	-505.2934
39	0xc3e9632b	-466.77475
40	0xc40114f4	-516.3274
41	0xc404b153	-530.7707
42	0xc402900f	-522.2509
43	0xc40338bb	-524.8864
44	0xc3ee5f86	-476.74628
45	0xc3d5a84a	-427.31476
46	0xc407e3d4	-543.5598
47	0xc4074f11	-541.2354
48	0xc3fc620d	-504.76602
49	0xc4038b02	-526.172
50	0xc40b032b	-556.0495
51	0xc40a7951	-553.89557
52	0xc4076291	-541.5401
53	0xc3fafc28	-501.96997
54	0xc3ecabba	-473.3416
55	0xc3c49f60	-393.24512
56	0xc4075aee	-541.4208
57	0xc4081d93	-544.4621
58	0xc3c271c1	-388.8887
59	0xc3ea37ea	-468.43683
60	0xc403d7c5	-527.3714
61	0xc4037d35	-525.95636
62	0xc4021c17	-520.4389
63	0xc404b950	-530.8955
64	0xc40051e6	-513.27966
65	0xc3e80f62	-464.12018
66	0xc4070e58	-540.2241
67	0xc40a5990	-553.3994
68	0xc3bf3c57	-382.4714
69	0xc3dd1cb4	-442.22424
70	0xc402e473	-523.5695
71	0xc3ea2adb	-468.3348
72	0xc3d48e82	-425.11334
73	0xc403e80b	-527.6257
74	0xc402f3ca	-523.8092
75	0xc40161c3	-517.5275
76	0xc3fb7b4e	-502.96332
77	0xc3ebf0a0	-471.87988
78	0xc40161c3	-517.5275
79	0xc4045c0e	-529.43835
80	0xc3fc450e	-504.5395
81	0xc40316de	-524.3573
82	0xc403f4be	-527.8241
83	0xc408e9ef	-547.6552
84	0xc40e89f5	-570.1556
85	0xc40c7162	-561.7716
86	0xc4072d8d	-540.71173
87	0xc40cd529	-563.3306
88	0xc40d0cba	-564.19885
89	0xc40c430e	-561.0477
90	0xc403e774	-527.61646
91	0xc40750cb	-541.2624
92	0xc40a7539	-553.8316
93	0xc408a650	-546.59863
94	0xc40aac27	-554.6899
95	0xc3f91193	-498.1373
96	0xc401b625	-518.846
97	0xc407753b	-541.8317
98	0xc40b4b8a	-557.1803
99	0xc40affe8	-555.99854
100	0xc400f65a	-515.84924
101	0xc40a504b	-553.2546
102	0xc40b0fb9	-556.24567
103	0xc40c8d5d	-562.2088
104	0xc40f0e3a	-572.2223
105	0xc40e9fb2	-570.49524
106	0xc402e7ea	-523.62366
107	0xc40180e5	-518.014
108	0xc3f2e9fc	-485.828
109	0xc405a7c9	-534.62164
110	0xc4011e5a	-516.47424
111	0xc40612a4	-536.29126
112	0xc40591e3	-534.2795
113	0xc406069b	-536.1032
114	0xc40590cd	-534.2625
115	0xc407e4bf	-543.57416
116	0xc4020088	-520.0083
117	0xc403baa0	-526.916
118	0xc40eb28b	-570.78973
119	0xc40cd866	-563.3812
120	0xc3eebce8	-477.47583
121	0xc40d7a7a	-565.9137
122	0xc403866d	-526.1004
123	0xc4066fd8	-537.74756
124	0xc40b97f2	-558.37415
125	0xc40b32f7	-556.7963
126	0xc405ff70	-535.9912
127	0xc409dc19	-551.439
128	0xc40dfc6b	-567.94403
129	0xc3ded546	-445.6662
130	0xc3f9eab5	-499.83365
131	0xc4087fcd	-545.9969
132	0xc409854b	-550.0827
133	0xc4085082	-545.25793
134	0xc40c8561	-562.08405
135	0xc40a02c4	-552.0432
136	0xc403d608	-527.34424
137	0xc407c86d	-543.13165
138	0xc40c544c	-561.31714
139	0xc4068343	-538.05096
140	0xc40537ea	-532.87366
141	0xc40bf10e	-559.7665
142	0xc40ede4c	-571.4734
143	0xc40e2b6e	-568.6786
144	0xc40f7db2	-573.964
145	0xc436e439	-731.566
146	0xc436e439	-731.566
147	0xc436e439	-731.566
148	0xc436e439	-731.566
149	0xc436e439	-731.566
150	0xc436e439	-731.566
151	0xc436e439	-731.566
152	0xc436e439	-731.566
153	0xc436e439	-731.566
154	0xc436e439	-731.566
155	0xc436e439	-731.566
156	0xc436e439	-731.566
157	0xc436e439	-731.566
158	0xc436e439	-731.566
159	0xc436e439	-731.566
160	0xc436e439	-731.566
161	0xc436e439	-731.566
162	0xc436e439	-731.566
163	0xc436e439	-731.566
164	0xc436e439	-731.566
165	0xc436e439	-731.566
166	0xc436e439	-731.566
167	0xc436e439	-731.566
168	0xc436e439	-731.566
169	0xc436e439	-731.566
170	0xc436e439	-731.566
171	0xc436e439	-731.566
172	0xc436e439	-731.566
173	0xc436e439	-731.566
174	0xc436e439	-731.566
175	0xc436e439	-731.566
176	0xc436e439	-731.566
177	0xc436e439	-731.566
178	0xc436e439	-731.566
179	0xc436e439	-731.566
180	0xc436e439	-731.566
181	0xc436e439	-731.566
182	0xc436e439	-731.566
183	0xc436e439	-731.566
184	0xc436e439	-731.566
185	0xc436e439	-731.566
186	0xc436e439	-731.566
187	0xc436e439	-731.566
188	0xc436e439	-731.566
189	0xc436e439	-731.566
190	0xc436e439	-731.566
191	0xc436e439	-731.566
192	0xc436e439	-731.566
193	0xc436e439	-731.566
194	0xc436e439	-731.566
195	0xc436e439	-731.566
196	0x42b651d4	91.15982
197	0x4308a43b	136.64153
198	0x433326e8	179.15198
199	0x43446bad	196.42061
200	0x4352c932	210.78592
201	0x433fb963	191.72417
202	0x42f2cf00	121.4043
203	0x433b96be	187.58884
204	0x43336eee	179.43332
205	0x42e7909a	115.782425
206	0x433aea00	186.91406
207	0x4331c05a	177.75137
208	0x43416d32	193.42654
209	0x432e4a5a	174.29044
210	0x4381ec78	259.8474
211	0x42bb31f8	93.597595
212	0x433095b8	176.58484
213	0x43344a4c	180.29022
214	0x432cd308	172.82434
215	0x42aa47f8	85.140564
216	0x4351749e	209.45554
217	0x431ea740	158.65332
218	0x432a2b3c	170.16888
219	0x43070255	135.00911
220	0x435d70c0	221.44043
221	0x4327d69c	167.83832
222	0x43310173	177.00566
223	0x4343eaf9	195.91786
224	0x42db81a0	109.753174
225	0x4315cefe	149.80856
226	0x43448c13	196.54716
227	0x430bd751	139.84108
228	0x4310e7e0	144.90576
229	0x43166c90	150.42407
230	0x43352d7f	181.17772
231	0x4354e0aa	212.8776
232	0x4342a14a	194.63004
233	0x433e3b0a	190.23062
234	0x433fcffb	191.81242
235	0x4359fee0	217.9956
236	0x432840bb	168.25285
237	0x43232f5b	163.18498
238	0x432664b2	166.39334
239	0x432482f4	164.51154
240	0x42fb3f14	125.6232
241	0x436c4000	236.25
242	0x4310a590	144.64673
243	0x430e8738	142.5282
244	0x42ef5a3e	119.676254
245	0x431c9f86	156.62314
246	0x4312dcd2	146.86258
247	0x4308e84a	136.90738
248	0x43101529	144.08266
249	0x42e6e09a	115.438675
250	0x435f276a	223.15396
251	0x42b88087	92.25103
252	0x43225c3d	162.3603
253	0x431c41ce	156.25705
254	0x4383e837	263.81418
255	0x431567f0	149.406
