datasets/mfccfeatures/extra_systole/train/aug_198_1308141739338_B1_cardiac_pcgmix_plus_261_1309353556003_C_alpha0.51_basic_93.npy (npy, 30704 bytes, 1 tensors)

array f4 [39, 196]
000000 15 ee fd c3 3e 52 02 c4 35 81 05 c4 87 7d d8 c3
       -507.86002 -521.28503 -534.01886 -432.98068
000010 26 0c f6 c3 b4 49 ee c3 58 40 ec c3 66 49 03 c4
       -492.0949 -476.5758 -472.5027 -525.14685
000020 8f 3e fe c3 ca b8 fe c3 32 a6 d4 c3 25 66 f1 c3
       -508.48874 -509.44366 -425.2984 -482.798
000030 ae 7a fb c3 97 89 01 c4 42 9a 04 c4 af 4e e2 c3
       -502.95844 -518.14984 -530.4103 -452.61472
000040 3c a7 aa c3 01 4f fb c3 70 ad 04 c4 9d 1e 01 c4
       -341.30652 -502.61722 -530.70996 -516.47833
000050 6e 96 04 c4 c5 e0 02 c4 5f 7f 03 c4 5d 5b 01 c4
       -530.35046 -523.512 -525.9902 -517.42755
000060 a0 4a fc c3 f8 5a fb c3 5b 82 df c3 f7 c3 c2 c3
       -504.583 -502.7107 -447.0184 -389.53098
000070 d6 24 fa c3 83 7d fc c3 97 8d fc c3 d1 0d a0 c3
       -500.28778 -504.98056 -505.10617 -320.10794
000080 b5 b1 e6 c3 f5 67 fc c3 98 31 00 c4 b8 ad fe c3
       -461.38834 -504.81216 -512.7749 -509.35718
000090 00 27 02 c4 ed bb f1 c3 a8 ef fa c3 f5 16 e8 c3
       -520.6094 -483.46817 -501.8723 -464.17935
0000a0 58 a3 ce c3 7f ba d2 c3 aa 6c f6 c3 d1 3a f9 c3
       -413.27612 -421.457 -492.84894 -498.4595
0000b0 86 8f f9 c3 7e 3a a3 c3 af e3 ba c3 84 96 fc c3
       -499.12128 -326.45697 -373.77878 -505.1759
0000c0 33 9f fd c3 08 98 00 c4 f9 ba ec c3 48 ca 00 c4
       -507.24374 -514.3755 -473.46072 -515.16064
0000d0 8f 86 ff c3 ad e0 ef c3 90 cc df c3 80 57 f3 c3
       -511.05124 -479.75528 -447.59814 -486.6836
0000e0 b0 20 c9 c3 78 91 de c3 e4 67 e9 c3 5f d8 ec c3
       -402.25537 -445.13647 -466.81165 -473.6904
0000f0 df 81 e5 c3 e4 9b 4f c3 48 7f c4 c3 14 4c f2 c3
       -459.01462 -207.60895 -392.9944 -484.59436
000100 33 b7 f3 c3 c0 ed ed c3 c9 02 f4 c3 03 43 e4 c3
       -487.43124 -475.85742 -488.02176 -456.52353
000110 b0 35 ed c3 c9 51 df c3 22 b8 f0 c3 b3 67 f0 c3
       -474.41943 -446.63895 -481.43854 -480.81015
000120 87 b7 bd c3 24 80 db c3 cf 20 ef c3 b9 43 f5 c3
       -379.4338 -439.0011 -478.25632 -490.52908
000130 65 54 ef c3 22 a0 f4 c3 d9 75 f5 c3 e1 4a d4 c3
       -478.65933 -489.25104 -490.9207 -424.585
000140 ce 85 ea c3 4a 0e eb c3 93 b9 f1 c3 29 5d f2 c3
       -469.04535 -470.11163 -483.4498 -484.7278
000150 5f a6 4c c3 9e f2 ed c3 ac 8b f5 c3 4d a2 f2 c3
       -204.64989 -475.89545 -491.0912 -485.26797
000160 8f 1a f3 c3 d4 4d f6 c3 89 c8 f2 c3 4d 05 fb c3
       -486.2075 -492.60803 -485.56668 -502.0414
000170 b6 ee f7 c3 af 49 f5 c3 17 ba f8 c3 e0 d7 d6 c3
       -495.86493 -490.57565 -497.45383 -429.68652
000180 66 47 e8 c3 60 e3 ea c3 75 69 f4 c3 f5 83 f2 c3
       -464.5578 -469.77637 -488.82388 -485.0309
000190 f6 86 89 c3 ea 78 d9 c3 ec 6b f0 c3 fc ec f5 c3
       -275.05438 -434.94464 -480.84314 -491.85144
0001a0 97 b7 fc c3 c6 5b 2e c4 c6 5b 2e c4 c6 5b 2e c4
       -505.4343 -697.43396 -697.43396 -697.43396
0001b0 c6 5b 2e c4 c6 5b 2e c4 c6 5b 2e c4 c6 5b 2e c4
       -697.43396 -697.43396 -697.43396 -697.43396
0001c0 c6 5b 2e c4 c6 5b 2e c4 c6 5b 2e c4 c6 5b 2e c4
       -697.43396 -697.43396 -697.43396 -697.43396
0001d0 c6 5b 2e c4 c6 5b 2e c4 c6 5b 2e c4 c6 5b 2e c4
       -697.43396 -697.43396 -697.43396 -697.43396
0001e0 c6 5b 2e c4 c6 5b 2e c4 c6 5b 2e c4 c6 5b 2e c4
       -697.43396 -697.43396 -697.43396 -697.43396
0001f0 c6 5b 2e c4 c6 5b 2e c4 c6 5b 2e c4 c6 5b 2e c4
       -697.43396 -697.43396 -697.43396 -697.43396
000200 c6 5b 2e c4 c6 5b 2e c4 c6 5b 2e c4 c6 5b 2e c4
       -697.43396 -697.43396 -697.43396 -697.43396
000210 c6 5b 2e c4 c6 5b 2e c4 c6 5b 2e c4 c6 5b 2e c4
       -697.43396 -697.43396 -697.43396 -697.43396
000220 c6 5b 2e c4 c6 5b 2e c4 c6 5b 2e c4 c6 5b 2e c4
       -697.43396 -697.43396 -697.43396 -697.43396
000230 c6 5b 2e c4 c6 5b 2e c4 c6 5b 2e c4 c6 5b 2e c4
       -697.43396 -697.43396 -697.43396 -697.43396
000240 c6 5b 2e c4 c6 5b 2e c4 c6 5b 2e c4 c6 5b 2e c4
       -697.43396 -697.43396 -697.43396 -697.43396
000250 c6 5b 2e c4 c6 5b 2e c4 c6 5b 2e c4 c6 5b 2e c4
       -697.43396 -697.43396 -697.43396 -697.43396
000260 c6 5b 2e c4 c6 5b 2e c4 c6 5b 2e c4 c6 5b 2e c4
       -697.43396 -697.43396 -697.43396 -697.43396
000270 c6 5b 2e c4 c6 5b 2e c4 c6 5b 2e c4 c6 5b 2e c4
       -697.43396 -697.43396 -697.43396 -697.43396
000280 c6 5b 2e c4 c6 5b 2e c4 c6 5b 2e c4 c6 5b 2e c4
       -697.43396 -697.43396 -697.43396 -697.43396
000290 c6 5b 2e c4 c6 5b 2e c4 c6 5b 2e c4 c6 5b 2e c4
       -697.43396 -697.43396 -697.43396 -697.43396
0002a0 c6 5b 2e c4 c6 5b 2e c4 c6 5b 2e c4 c6 5b 2e c4
       -697.43396 -697.43396 -697.43396 -697.43396
0002b0 c6 5b 2e c4 c6 5b 2e c4 c6 5b 2e c4 c6 5b 2e c4
       -697.43396 -697.43396 -697.43396 -697.43396
0002c0 c6 5b 2e c4 c6 5b 2e c4 c6 5b 2e c4 c6 5b 2e c4
       -697.43396 -697.43396 -697.43396 -697.43396
0002d0 c6 5b 2e c4 c6 5b 2e c4 c6 5b 2e c4 c6 5b 2e c4
       -697.43396 -697.43396 -697.43396 -697.43396
0002e0 c6 5b 2e c4 c6 5b 2e c4 c6 5b 2e c4 c6 5b 2e c4
       -697.43396 -697.43396 -697.43396 -697.43396
0002f0 c6 5b 2e c4 c6 5b 2e c4 c6 5b 2e c4 c6 5b 2e c4
       -697.43396 -697.43396 -697.43396 -697.43396
000300 c6 5b 2e c4 c6 5b 2e c4 c6 5b 2e c4 c6 5b 2e c4
       -697.43396 -697.43396 -697.43396 -697.43396
000310 f6 15 af 42 18 7e f7 42 94 d6 de 42 f4 67 58 43
       87.54289 123.74628 111.4191 216.40607
000320 26 c4 0d 43 00 b0 dd 42 14 59 33 43 04 d6 ec 42
       141.7662 110.84375 179.34796 118.418
000330 e4 5b 02 43 c8 a6 f8 42 21 05 53 43 d2 91 18 43
       130.35895 124.325745 211.02003 152.56961
000340 c8 50 05 43 62 bc ff 42 0e cc d6 42 fd 93 34 43
       133.31555 127.867935 107.398544 180.57808
000350 ea c7 cd 42 36 0d 02 43 d8 b9 df 42 a0 b2 00 43
       102.89046 130.0516 111.862976 128.69775
000360 18 24 d9 42 d2 f6 dd 42 00 d4 da 42 9a 3f e1 42
       108.570496 110.98207 109.41406 112.62422
000370 29 0c 03 43 4d 9c 00 43 58 28 50 43 ae ff dd 42
       131.0475 128.61055 208.1576 110.999374
000380 2c f7 0c 43 da 4a f5 42 da 4d f8 42 c0 d0 5d 43
       140.96552 122.646194 124.152054 221.81543
000390 46 93 30 43 75 76 05 43 82 6b ed 42 c0 cf f8 42
       176.57529 133.46272 118.70998 124.40576
0003a0 48 69 eb 42 e4 17 0e 43 19 95 00 43 7e cf d7 42
       117.70563 142.09332 128.58241 107.90526
0003b0 dc a0 59 43 84 04 e9 42 95 c5 0b 43 00 44 09 43
       217.62836 116.50882 139.7718 137.26562
0003c0 02 c6 05 43 91 fd 65 43 42 f0 b6 42 58 6f 02 43
       133.77347 229.9905 91.46925 130.43494
0003d0 f6 20 f4 42 76 18 e6 42 94 3c 14 43 02 51 e6 42
       122.06438 115.047775 148.23663 115.15822
0003e0 84 4c e7 42 ce e4 05 43 bc a3 38 43 c2 f4 12 43
       115.649445 133.89377 184.63959 146.95609
0003f0 6c c0 30 43 6e 41 39 43 ae 93 21 43 b9 92 1b 43
       176.75165 185.25558 161.57687 155.57314
