datasets/mfccfeatures/extra_systole/train/aug_298_1311685888900_C_cardiac_pcgmix_plus_198_1308141739338_B1_alpha0.70_optimal_207.npy (npy, 30704 bytes, 1 tensors)

array f4 [39, 196]
000000 c8 3c 01 c4 3d 02 e8 c3 be 69 fe c3 b4 9c 02 c4
       -516.9497 -464.0175 -508.8261 -522.4485
000010 72 75 dc c3 ef 43 e7 c3 c5 29 01 c4 4f 40 fd c3
       -440.91754 -462.53073 -516.65265 -506.5024
000020 0e be fd c3 1f c2 fc c3 ce e6 f7 c3 52 a5 dd c3
       -507.4848 -505.51657 -495.80316 -443.29156
000030 49 b9 fe c3 20 38 fd c3 d9 fb e3 c3 21 05 00 c4
       -509.44754 -506.43848 -455.96756 -512.08014
000040 86 5e 02 c4 df b2 05 c4 36 01 fc c3 de 7e e2 c3
       -521.4769 -534.79486 -504.00946 -452.99115
000050 b7 38 f0 c3 e4 66 fd c3 69 97 fb c3 21 3e 01 c4
       -480.44308 -506.80383 -503.1829 -516.97076
000060 48 55 02 c4 56 f7 fe c3 e4 4a fb c3 cc 60 00 c4
       -521.3325 -509.9323 -502.58508 -513.51245
000070 91 1c f3 c3 c0 95 04 c4 d6 23 e2 c3 64 03 ca c3
       -486.22318 -530.33984 -452.27997 -404.0265
000080 cd a4 02 c4 ea c4 04 c4 9d ce 00 c4 f7 87 e6 c3
       -522.575 -531.0768 -515.22833 -461.06223
000090 07 1f e7 c3 ac 53 fd c3 ad b0 00 c4 90 61 01 c4
       -462.2424 -506.6537 -514.76056 -517.5244
0000a0 8f 4e 01 c4 89 24 ff c3 b7 39 fb c3 d4 12 01 c4
       -517.2275 -510.28543 -502.4509 -516.2942
0000b0 aa 47 04 c4 01 f6 03 c4 a4 5a ff c3 c1 f8 d1 c3
       -529.11975 -527.8438 -510.70813 -419.9434
0000c0 5e 1c 05 c4 ee 5f f9 c3 e8 8f 05 c4 02 88 03 c4
       -532.44324 -498.74945 -534.24854 -526.1251
0000d0 94 33 e7 c3 cc b2 fe c3 62 44 e9 c3 54 b2 ee c3
       -462.40295 -509.39685 -466.53424 -477.3932
0000e0 8f 7e fb c3 a7 db fc c3 2f 62 e7 c3 8d c6 02 c4
       -502.98874 -505.71603 -462.76706 -523.10236
0000f0 05 21 04 c4 a0 d4 e8 c3 63 82 b1 c3 e3 48 f0 c3
       -528.5159 -465.66113 -355.01865 -480.56943
000100 4f 77 01 c4 95 c0 00 c4 e3 64 02 c4 2c 34 fc c3
       -517.8642 -515.0091 -521.57635 -504.4076
000110 f2 84 ea c3 8d 8b fb c3 37 1b ff c3 5b c0 fc c3
       -469.03864 -503.09024 -510.21262 -505.50278
000120 b1 d9 c1 c3 a8 e9 e9 c3 90 40 00 c4 52 9b 00 c4
       -387.7007 -467.82544 -513.0088 -514.4269
000130 d4 1e ff c3 9f 13 fd c3 e5 50 fb c3 a3 ad dd c3
       -510.24084 -506.1533 -502.632 -443.35654
000140 e8 c9 b2 c3 9f 8a f6 c3 55 2f f8 c3 19 1a fc c3
       -357.5774 -493.08298 -496.36978 -504.2039
000150 1c 47 00 c4 6e 98 dc c3 01 e5 f7 c3 b8 6a fd c3
       -513.1111 -441.19086 -495.7891 -506.83374
000160 2e 90 f9 c3 86 6e 00 c4 1e eb fe c3 ad 25 00 c4
       -499.1264 -513.7269 -509.83685 -512.5887
000170 1c 33 01 c4 4b bf 03 c4 99 98 04 c4 26 45 03 c4
       -516.7986 -526.98895 -530.38434 -525.08044
000180 20 74 d8 c3 36 b4 b5 c3 c7 24 e5 c3 94 7b f7 c3
       -432.90723 -363.4079 -458.28732 -494.96545
000190 1c e8 ff c3 1e 79 d4 c3 9a ac e1 c3 a3 5b fb c3
       -511.81335 -424.94623 -451.34845 -502.7159
0001a0 df 7b 03 c4 8a 07 05 c4 41 e2 02 c4 32 80 05 c4
       -525.9355 -532.1178 -523.5352 -534.00305
0001b0 3c 0d 03 c4 bb b2 01 c4 46 59 fe c3 dc a2 ff c3
       -524.2068 -518.79266 -508.69745 -511.27234
0001c0 8c b9 ec c3 a3 6a 01 c4 8c 1c 01 c4 cd 84 00 c4
       -473.4496 -517.6662 -516.44604 -514.075
0001d0 02 63 02 c4 0f 6f ca c3 aa f1 f6 c3 f3 f3 00 c4
       -521.547 -404.86765 -493.888 -515.8117
0001e0 9b bf 00 c4 16 ed 03 c4 f9 3c 05 c4 7f 59 03 c4
       -514.99384 -527.70447 -532.9527 -525.3984
0001f0 44 29 04 c4 c3 06 04 c4 f7 9f 02 c4 46 a3 01 c4
       -528.6448 -528.10565 -522.49945 -518.55115
000200 6a ed c5 c3 c7 7b f7 c3 a5 23 fc c3 97 93 01 c4
       -395.8548 -494.967 -504.27847 -518.3061
000210 b4 03 01 c4 7d 2a ea c3 92 24 f2 c3 e0 8d f9 c3
       -516.05786 -468.33194 -484.2857 -499.1084
000220 bc bc fe c3 cf 8e 00 c4 4c ba fe c3 b0 9e f9 c3
       -509.4745 -514.2314 -509.45544 -499.23975
000230 ed b9 f9 c3 b3 5e fc c3 0b 7b fd c3 9e 25 f9 c3
       -499.45255 -504.73984 -506.96127 -498.29388
000240 8c 5d e1 c3 7d 86 f5 c3 dc fb ff c3 45 54 fe c3
       -450.73083 -491.0507 -511.96765 -508.65836
000250 ba 77 00 c4 6a 59 f0 c3 82 df e6 c3 d7 2e f9 c3
       -513.8707 -480.69855 -461.74615 -498.36594
000260 8d 03 00 c4 40 64 fe c3 b4 c5 01 c4 f1 f2 00 c4
       -512.0555 -508.7832 -519.0891 -515.79596
000270 88 3b 05 c4 9d 16 02 c4 cf 35 f8 c3 ee d5 ce c3
       -532.9302 -520.35333 -496.42038 -413.67133
000280 bf 88 31 c4 bf 88 31 c4 bf 88 31 c4 bf 88 31 c4
       -710.13666 -710.13666 -710.13666 -710.13666
000290 bf 88 31 c4 bf 88 31 c4 bf 88 31 c4 bf 88 31 c4
       -710.13666 -710.13666 -710.13666 -710.13666
0002a0 bf 88 31 c4 bf 88 31 c4 bf 88 31 c4 bf 88 31 c4
       -710.13666 -710.13666 -710.13666 -710.13666
0002b0 bf 88 31 c4 bf 88 31 c4 bf 88 31 c4 bf 88 31 c4
       -710.13666 -710.13666 -710.13666 -710.13666
0002c0 bf 88 31 c4 bf 88 31 c4 bf 88 31 c4 bf 88 31 c4
       -710.13666 -710.13666 -710.13666 -710.13666
0002d0 bf 88 31 c4 bf 88 31 c4 bf 88 31 c4 bf 88 31 c4
       -710.13666 -710.13666 -710.13666 -710.13666
0002e0 bf 88 31 c4 bf 88 31 c4 bf 88 31 c4 bf 88 31 c4
       -710.13666 -710.13666 -710.13666 -710.13666
0002f0 bf 88 31 c4 bf 88 31 c4 bf 88 31 c4 bf 88 31 c4
       -710.13666 -710.13666 -710.13666 -710.13666
000300 bf 88 31 c4 bf 88 31 c4 bf 88 31 c4 bf 88 31 c4
       -710.13666 -710.13666 -710.13666 -710.13666
000310 a7 21 d4 42 16 a3 d7 42 6e bc ff 42 ca 63 e0 42
       106.06573 107.81853 127.86803 112.1949
000320 fe 58 5a 43 82 f7 31 43 76 b4 f7 42 f6 b5 ff 42
       218.34763 177.96683 123.85246 127.85539
000330 4e e7 fb 42 f7 70 01 43 fd 18 0c 43 90 7c 3f 43
       125.95177 129.44127 140.09761 191.48657
000340 f0 6e 04 43 d4 34 05 43 38 0a 51 43 52 80 03 43
       132.43335 133.20636 209.03992 131.50125
000350 86 b9 fe 42 16 da e8 42 82 ca 04 43 48 f8 52 43
       127.36235 116.42595 132.79105 210.96985
000360 62 10 e2 42 90 8a 03 43 20 9a 0a 43 70 32 f8 42
       113.032 131.54126 138.60205 124.09851
000370 82 a2 f4 42 14 25 ff 42 46 f7 bb 42 58 f2 f9 42
       122.3174 127.57242 93.982956 124.97333
000380 3b d3 20 43 a6 ad e6 42 48 1e 07 43 2a bd e1 42
       160.82512 115.33916 135.11829 112.86946
000390 fb 88 01 43 43 0c f9 42 5d ed 0a 43 1c bb ff 42
       129.53508 124.52395 138.9272 127.86545
0003a0 92 11 41 43 ec 8a 06 43 0d 13 02 43 b8 0e fb 42
       193.06863 134.54266 130.07442 125.52875
0003b0 30 b6 f6 42 6e 86 fd 42 ea ad 12 43 37 70 01 43
       123.355835 126.76256 146.67935 129.43834
0003c0 47 fa ea 42 ab dc ea 42 29 53 fc 42 05 3a 3c 43
       117.48882 117.43099 126.16242 188.22664
0003d0 12 5e ee 42 6d 47 1c 43 ec e7 ef 42 6c 44 e2 42
       119.18373 156.279 119.95297 113.13364
0003e0 a7 b7 4d 43 07 57 fa 42 92 47 2f 43 b3 cc 1d 43
       205.71739 125.169975 175.27957 157.7996
0003f0 05 6d 03 43 05 f7 04 43 f2 6d b3 42 f4 21 00 43
       131.42586 132.96492 89.71474 128.13263
