datasets/mfccfeatures/extra_systole/train/aug_261_1309353556003_C_cardiac_pcgmix_plus_198_1308141739338_B1_alpha0.37_basic_100.npy (npy, 30704 bytes, 1 tensors)

array f4 [39, 196]
00000000: c711 01c4 718a 0ac4 9718 0cc4 f81d e3c3
00000010: 30df f8c3 7ec9 e3c3 da20 f0c3 77dc fac3
00000020: 1d9a eec3 4472 02c4 c0bc 05c4 584c 05c4
00000030: 97a4 f8c3 aecd f1c3 996b f7c3 1912 f4c3
00000040: fb7a dbc3 a808 f2c3 f4f6 f8c3 9fc5 fdc3
00000050: 7f2b 01c4 30bf 03c4 e8c3 a0c3 ed91 86c3
00000060: c1d5 ffc3 8101 05c4 ed48 00c4 4cc7 03c4
00000070: c6c6 02c4 af65 04c4 1902 03c4 a393 f1c3
00000080: d18e d2c3 de70 f3c3 b226 fac3 a259 00c4
00000090: a0b0 fcc3 459a a2c3 0bf9 fbc3 4f08 f0c3
000000a0: 2199 ffc3 5f3e 02c4 cba5 04c4 b08f fec3
000000b0: 4252 04c4 bc8a fac3 7871 f0c3 7223 f3c3
000000c0: 15ca f3c3 4f63 ebc3 89b8 00c4 08b1 01c4
000000d0: 0745 05c4 38cc c8c3 0e17 c1c3 cbea 01c4
000000e0: 3ef5 0ac4 e408 06c4 6235 04c4 debb 0ac4
000000f0: 1209 09c4 8cef efc3 e977 c8c3 f949 e3c3
00000100: 6247 d3c3 0400 04c4 49e1 f8c3 6995 e9c3
00000110: 1e89 f3c3 9ef2 f8c3 7782 02c4 4cfe ffc3
00000120: e1da 03c4 8957 04c4 0388 05c4 b377 06c4
00000130: e24e 02c4 5ce7 00c4 4113 ecc3 c235 f5c3
00000140: 2387 f5c3 82d9 fdc3 81a2 40c4 81a2 40c4
00000150: 81a2 40c4 81a2 40c4 81a2 40c4 81a2 40c4
00000160: 81a2 40c4 81a2 40c4 81a2 40c4 81a2 40c4
00000170: 81a2 40c4 81a2 40c4 81a2 40c4 81a2 40c4
00000180: 81a2 40c4 81a2 40c4 81a2 40c4 81a2 40c4
00000190: 81a2 40c4 81a2 40c4 81a2 40c4 81a2 40c4
000001a0: 81a2 40c4 81a2 40c4 81a2 40c4 81a2 40c4
000001b0: 81a2 40c4 81a2 40c4 81a2 40c4 81a2 40c4
000001c0: 81a2 40c4 81a2 40c4 81a2 40c4 81a2 40c4
000001d0: 81a2 40c4 81a2 40c4 81a2 40c4 81a2 40c4
000001e0: 81a2 40c4 81a2 40c4 81a2 40c4 81a2 40c4
000001f0: 81a2 40c4 81a2 40c4 81a2 40c4 81a2 40c4
00000200: 81a2 40c4 81a2 40c4 81a2 40c4 81a2 40c4
00000210: 81a2 40c4 81a2 40c4 81a2 40c4 81a2 40c4
00000220: 81a2 40c4 81a2 40c4 81a2 40c4 81a2 40c4
00000230: 81a2 40c4 81a2 40c4 81a2 40c4 81a2 40c4
00000240: 81a2 40c4 81a2 40c4 81a2 40c4 81a2 40c4
00000250: 81a2 40c4 81a2 40c4 81a2 40c4 81a2 40c4
00000260: 81a2 40c4 81a2 40c4 81a2 40c4 81a2 40c4
00000270: 81a2 40c4 81a2 40c4 81a2 40c4 81a2 40c4
00000280: 81a2 40c4 81a2 40c4 81a2 40c4 81a2 40c4
00000290: 81a2 40c4 81a2 40c4 81a2 40c4 81a2 40c4
000002a0: 81a2 40c4 81a2 40c4 81a2 40c4 81a2 40c4
000002b0: 81a2 40c4 81a2 40c4 81a2 40c4 81a2 40c4
000002c0: 81a2 40c4 81a2 40c4 81a2 40c4 81a2 40c4
000002d0: 81a2 40c4 81a2 40c4 81a2 40c4 81a2 40c4
000002e0: 81a2 40c4 81a2 40c4 81a2 40c4 81a2 40c4
000002f0: 81a2 40c4 81a2 40c4 81a2 40c4 81a2 40c4
00000300: 81a2 40c4 81a2 40c4 81a2 40c4 81a2 40c4
00000310: ceff b442 5499 1443 0e16 0743 ab7a 7643
00000320: 9a6b 0643 99c9 d242 403a 2f43 2d2a 2843
00000330: ac66 5e43 eda0 0443 9ab3 1b43 49c0 1243
00000340: 1ac5 2443 36e8 3343 02f0 2943 b237 2b43
00000350: 42a3 4543 5b20 4a43 165c 3a43 74f8 2c43
00000360: 0485 2b43 14f1 1b43 4a8f 5443 9ff3 d142
00000370: ca55 1e43 54bd 1443 2839 2b43 dc62 1843
00000380: a800 1843 96f9 1343 fc51 1a43 2515 4243
00000390: a6cc 0a43 4634 3b43 bd06 2e43 8e41 2443
000003a0: 9caa 0f43 604e 1a43 7c33 3043 1628 4d43
000003b0: 38fe 2443 f457 2643 e9d9 1643 f01d 2543
000003c0: 6831 1843 cec0 2543 b092 2f43 aa24 2c43
000003d0: 1a79 4543 d0ba 1943 8aad 2f43 2724 2b43
000003e0: 87d7 1843 daf9 0643 546a 1443 9df3 2543
000003f0: ef3e 0143 0fcc 1743 f7a6 1743 b2fc 0d43
-516.2778 -554.16315 -560.3842 -454.23413 -497.74365 -455.57416 -480.25665 -501.72238
-477.204 -521.7854 -534.9492 -533.1929 -497.28586 -483.60687 -494.8406 -488.1414
-438.9608 -484.06763 -497.92932 -507.5439 -516.6796 -526.9873 -321.53052 -269.14005
-511.66995 -532.0235 -513.13947 -527.114 -523.10583 -529.5888 -524.0328 -483.1534
-421.11575 -486.88177 -500.3023 -513.4005 -505.37988 -325.20523 -503.94565 -480.0649
-511.19632 -520.97455 -530.5905 -509.12256 -529.2853 -501.08386 -480.88647 -486.27692
-487.57877 -470.77585 -514.88336 -518.7661 -533.07855 -401.59546 -386.1801 -519.66864
-555.8319 -536.1389 -528.8341 -554.9354 -548.1417 -479.87146 -400.9368 -454.5779
-422.55768 -528.00024 -497.76004 -467.16727 -487.07123 -497.89545 -522.0385 -511.9867
-527.42 -529.36774 -534.1252 -537.8703 -521.23254 -515.615 -472.15042 -490.41998
-491.05576 -507.69928 -770.5391 -770.5391 -770.5391 -770.5391 -770.5391 -770.5391
-770.5391 -770.5391 -770.5391 -770.5391 -770.5391 -770.5391 -770.5391 -770.5391
-770.5391 -770.5391 -770.5391 -770.5391 -770.5391 -770.5391 -770.5391 -770.5391
-770.5391 -770.5391 -770.5391 -770.5391 -770.5391 -770.5391 -770.5391 -770.5391
-770.5391 -770.5391 -770.5391 -770.5391 -770.5391 -770.5391 -770.5391 -770.5391
-770.5391 -770.5391 -770.5391 -770.5391 -770.5391 -770.5391 -770.5391 -770.5391
-770.5391 -770.5391 -770.5391 -770.5391 -770.5391 -770.5391 -770.5391 -770.5391
-770.5391 -770.5391 -770.5391 -770.5391 -770.5391 -770.5391 -770.5391 -770.5391
-770.5391 -770.5391 -770.5391 -770.5391 -770.5391 -770.5391 -770.5391 -770.5391
-770.5391 -770.5391 -770.5391 -770.5391 -770.5391 -770.5391 -770.5391 -770.5391
-770.5391 -770.5391 -770.5391 -770.5391 -770.5391 -770.5391 -770.5391 -770.5391
-770.5391 -770.5391 -770.5391 -770.5391 -770.5391 -770.5391 -770.5391 -770.5391
-770.5391 -770.5391 -770.5391 -770.5391 -770.5391 -770.5391 -770.5391 -770.5391
-770.5391 -770.5391 -770.5391 -770.5391 -770.5391 -770.5391 -770.5391 -770.5391
-770.5391 -770.5391 -770.5391 -770.5391 90.49962 148.59894 135.08615 246.47917
134.42032 105.393745 175.22754 168.16475 222.40106 132.62862 155.70157 146.75111
164.76993 179.90707 169.93753 171.21756 197.63773 202.12639 186.35971 172.97052
171.51959 155.94171 212.55972 104.97582 158.33511 148.73956 171.22327 152.38617
152.00256 147.97495 154.32025 194.0826 138.79941 187.2042 174.02632 164.25607
143.66644 154.30615 176.20111 205.15659 164.99304 166.34357 150.85121 165.11694
152.193 165.75314 175.573 172.14322 197.47305 153.72974 175.67789 171.14122
152.8419 134.97598 148.41534 165.95161 129.24583 151.7971 151.6522 141.98709
