datasets/mfccfeatures/extra_systole/train/aug_194_1308139824187_B_cardiac_pcgmix_plus_144_1306522408528_B1_alpha0.51_basic_65.npy (npy, 30704 bytes, 1 tensors)

array f4 [39, 196]
-528.662 -462.28418 -445.47485 -438.18927 -458.88718 -472.52997 -449.14676 -415.3616
-438.9449 -498.80676 -525.29614 -443.48016 -444.3079 -494.15326 -478.49783 -491.03726
-453.0671 -418.8047 -377.79688 -394.51233 -439.90454 -459.11102 -374.14984 -473.29663
-453.93802 -476.44064 -475.99896 -352.35995 -459.70398 -456.33102 -470.84686 -441.94373
-483.39774 -495.69376 -496.38956 -427.95892 -479.84116 -522.5325 -499.2097 -368.88055
-416.03152 -494.61722 -498.09302 -500.45883 -492.031 -293.30713 -495.0733 -453.2625
-444.2389 -385.77008 -355.4369 -484.35748 -499.62823 -447.35837 -363.0163 -473.74213
-466.1158 -451.61603 -419.2557 -425.0019 -462.53604 -488.68735 -422.95377 -319.0068
-466.66876 -460.98743 -448.67163 -424.8776 -483.46976 -471.1296 -469.83862 -358.52924
-475.42447 -482.99884 -497.69104 -473.38028 -449.32208 -445.66193 -459.48923 -452.1012
-347.56577 -432.4164 -439.96606 -441.5172 -386.4065 -423.33997 -454.4669 -444.9572
-442.07388 -410.3285 -451.20822 -470.95615 -656.5917 -656.5917 -656.5917 -656.5917
-656.5917 -656.5917 -656.5917 -656.5917 -656.5917 -656.5917 -656.5917 -656.5917
-656.5917 -656.5917 -656.5917 -656.5917 -656.5917 -656.5917 -656.5917 -656.5917
-656.5917 -656.5917 -656.5917 -656.5917 -656.5917 -656.5917 -656.5917 -656.5917
-656.5917 -656.5917 -656.5917 -656.5917 -656.5917 -656.5917 -656.5917 -656.5917
-656.5917 -656.5917 -656.5917 -656.5917 -656.5917 -656.5917 -656.5917 -656.5917
-656.5917 -656.5917 -656.5917 -656.5917 -656.5917 -656.5917 -656.5917 -656.5917
-656.5917 -656.5917 -656.5917 -656.5917 -656.5917 -656.5917 -656.5917 -656.5917
-656.5917 -656.5917 -656.5917 -656.5917 -656.5917 -656.5917 -656.5917 -656.5917
-656.5917 -656.5917 -656.5917 -656.5917 -656.5917 -656.5917 -656.5917 -656.5917
-656.5917 -656.5917 -656.5917 -656.5917 -656.5917 -656.5917 -656.5917 -656.5917
-656.5917 -656.5917 -656.5917 -656.5917 -656.5917 -656.5917 -656.5917 -656.5917
-656.5917 -656.5917 -656.5917 -656.5917 -656.5917 -656.5917 -656.5917 -656.5917
-656.5917 -656.5917 -656.5917 -656.5917 115.95975 163.63174 174.68839 201.31342
152.58133 150.5495 165.7486 212.77615 106.65462 146.12097 123.326515 190.7568
174.25092 141.40057 143.07005 141.74956 158.84268 211.36041 138.00003 202.4957
182.51974 174.48132 152.25345 152.84125 160.04556 142.41821 160.76143 98.57506
156.22731 154.31548 150.82613 193.98605 138.16371 133.00076 131.49338 206.93295
143.2385 115.47873 124.305176 226.90388 105.03677 132.80533 118.12027 120.2813
128.26587 102.25647 147.64319 174.24982 174.54242 222.98636 103.304794 156.54941
143.13275 187.78436 215.37085 154.31345 144.21637 155.1804 213.50858 99.05042
00000000: 5e2a 04c4 6024 e7c3 c8bc dec3 3a18 dbc3
00000010: 8f71 e5c3 d643 ecc3 c992 e0c3 49ae cfc3
00000020: f278 dbc3 4467 f9c3 f452 03c4 76bd ddc3
00000030: 6927 dec3 9e13 f7c3 b93f efc3 c584 f5c3
00000040: 9788 e2c3 0067 d1c3 00e6 bcc3 9441 c5c3
00000050: c8f3 dbc3 368e e5c3 2e13 bbc3 f8a5 ecc3
00000060: 11f8 e2c3 6738 eec3 deff edc3 132e b0c3
00000070: 1cda e5c3 5f2a e4c3 666c ebc3 ccf8 dcc3
00000080: e9b2 f1c3 cdd8 f7c3 dd31 f8c3 befa d5c3
00000090: abeb efc3 14a2 02c4 d79a f9c3 b670 b8c3
000000a0: 0904 d0c3 014f f7c3 e80b f9c3 bb3a fac3
000000b0: f803 f6c3 50a7 92c3 6289 f7c3 9aa1 e2c3
000000c0: 941e dec3 92e2 c0c3 ecb7 b1c3 c22d f2c3
000000d0: 6ad0 f9c3 dfad dfc3 1682 b5c3 fede ecc3
000000e0: d30e e9c3 dace e1c3 bba0 d1c3 3e80 d4c3
000000f0: 9d44 e7c3 fb57 f4c3 157a d3c3 df80 9fc3
00000100: 9a55 e9c3 647e e6c3 f855 e0c3 5570 d4c3
00000110: 21bc f1c3 9790 ebc3 58eb eac3 be43 b3c3
00000120: 55b6 edc3 da7f f1c3 74d8 f8c3 adb0 ecc3
00000130: 3aa9 e0c3 bad4 dec3 9fbe e5c3 f40c e2c3
00000140: 6bc8 adc3 4d35 d8c3 a8fb dbc3 34c2 dcc3
00000150: 0834 c1c3 84ab d3c3 c33b e3c3 867a dec3
00000160: 7509 ddc3 0c2a cdc3 a79a e1c3 637a ebc3
00000170: de25 24c4 de25 24c4 de25 24c4 de25 24c4
00000180: de25 24c4 de25 24c4 de25 24c4 de25 24c4
00000190: de25 24c4 de25 24c4 de25 24c4 de25 24c4
000001a0: de25 24c4 de25 24c4 de25 24c4 de25 24c4
000001b0: de25 24c4 de25 24c4 de25 24c4 de25 24c4
000001c0: de25 24c4 de25 24c4 de25 24c4 de25 24c4
000001d0: de25 24c4 de25 24c4 de25 24c4 de25 24c4
000001e0: de25 24c4 de25 24c4 de25 24c4 de25 24c4
000001f0: de25 24c4 de25 24c4 de25 24c4 de25 24c4
00000200: de25 24c4 de25 24c4 de25 24c4 de25 24c4
00000210: de25 24c4 de25 24c4 de25 24c4 de25 24c4
00000220: de25 24c4 de25 24c4 de25 24c4 de25 24c4
00000230: de25 24c4 de25 24c4 de25 24c4 de25 24c4
00000240: de25 24c4 de25 24c4 de25 24c4 de25 24c4
00000250: de25 24c4 de25 24c4 de25 24c4 de25 24c4
00000260: de25 24c4 de25 24c4 de25 24c4 de25 24c4
00000270: de25 24c4 de25 24c4 de25 24c4 de25 24c4
00000280: de25 24c4 de25 24c4 de25 24c4 de25 24c4
00000290: de25 24c4 de25 24c4 de25 24c4 de25 24c4
000002a0: de25 24c4 de25 24c4 de25 24c4 de25 24c4
000002b0: de25 24c4 de25 24c4 de25 24c4 de25 24c4
000002c0: de25 24c4 de25 24c4 de25 24c4 de25 24c4
000002d0: de25 24c4 de25 24c4 de25 24c4 de25 24c4
000002e0: de25 24c4 de25 24c4 de25 24c4 de25 24c4
000002f0: de25 24c4 de25 24c4 de25 24c4 de25 24c4
00000300: de25 24c4 de25 24c4 de25 24c4 de25 24c4
00000310: 64eb e742 baa1 2343 3ab0 2e43 3c50 4943
00000320: d294 1843 ac8c 1643 a4bf 2543 b2c6 5443
00000330: 2a4f d542 f81e 1243 2da7 f642 bec1 3e43
00000340: 3c40 2e43 8c66 0d43 ef11 0f43 e3bf 0d43
00000350: bad7 1e43 445c 5343 0200 0a43 e67e 4a43
00000360: 0e85 3643 387b 2e43 e240 1843 5cd7 1843
00000370: aa0b 2043 106b 0e43 edc2 2043 6e26 c542
00000380: 313a 1c43 c350 1a43 7dd3 1643 6efc 4143
00000390: e929 0a43 3200 0543 4e7e 0343 d6ee 4e43
000003a0: 0e3d 0f43 1cf5 e642 409c f842 65e7 6243
000003b0: d412 d242 2ace 0443 943d ec42 0790 f042
000003c0: 1044 0043 5083 cc42 a8a4 1343 f43f 2e43
000003d0: dc8a 2e43 82fc 5e43 0e9c ce42 a68c 1c43
000003e0: fc21 0f43 ccc8 3b43 f05e 5743 3e50 1a43
000003f0: 6437 1043 2f2e 1b43 3282 5543 d119 c642
