datasets/mfccfeatures/extra_systole/train/aug_198_1308141739338_B1_cardiac_pcgmix_plus_216_1308245839516_B_alpha0.65_optimal_197.npy (npy, 30704 bytes, 1 tensors)

array f4 [39, 196]
000000 4a 41 d2 c3 18 52 f2 c3 80 99 00 c4 04 f7 b4 c3
       -420.51007 -484.64136 -514.39844 -361.9298
000010 cb 86 f4 c3 e7 4a f5 c3 0e 27 fb c3 24 38 fb c3
       -489.05307 -490.58517 -502.3051 -502.4386
000020 e3 d1 fb c3 25 32 f5 c3 3b 23 ed c3 12 e6 e3 c3
       -503.63974 -490.39175 -474.27524 -455.79742
000030 da 82 ef c3 40 aa e9 c3 7b 05 f6 c3 e7 f2 c8 c3
       -479.02228 -467.33008 -492.04282 -401.89767
000040 41 77 bc c3 ed 81 f7 c3 33 8a 00 c4 b2 23 e6 c3
       -376.93167 -495.01505 -514.15936 -460.27887
000050 e9 05 f4 c3 6d f7 f4 c3 a2 54 f9 c3 7c a1 f6 c3
       -488.04617 -489.933 -498.6612 -493.2616
000060 93 d0 f4 c3 96 24 f4 c3 70 26 cf c3 c4 b9 b8 c3
       -489.6295 -488.28583 -414.3003 -369.4513
000070 70 c7 e6 c3 e4 79 e7 c3 9c b1 e9 c3 e5 76 8a c3
       -461.5581 -462.95227 -467.38757 -276.92886
000080 7d e0 d7 c3 af bb f8 c3 69 39 f8 c3 52 19 f0 c3
       -431.7538 -497.46628 -496.44852 -480.1978
000090 f1 f7 f6 c3 00 cc f5 c3 45 6f f9 c3 1c ea ed c3
       -493.93704 -491.59375 -498.8693 -475.82898
0000a0 35 e3 e2 c3 79 e8 e1 c3 b8 65 e4 c3 ec b7 ee c3
       -453.77505 -451.8162 -456.79468 -477.4369
0000b0 2a d0 f4 c3 96 46 98 c3 cb 32 e5 c3 c5 bf f4 c3
       -489.62628 -304.55145 -458.39682 -489.4982
0000c0 2d 80 f7 c3 4c 9a f5 c3 1a 8e f5 c3 e3 aa f4 c3
       -495.00137 -491.20544 -491.11017 -489.33505
0000d0 9d 8f fd c3 05 12 f8 c3 30 d3 ef c3 82 09 f3 c3
       -507.12198 -496.14078 -479.6499 -486.07428
0000e0 0a c7 e1 c3 13 19 db c3 87 41 e7 c3 56 b1 e3 c3
       -451.555 -438.1959 -462.51193 -455.38544
0000f0 85 ca e1 c3 5a da 63 c3 b5 54 ca c3 39 6e f8 c3
       -451.58218 -227.85294 -404.66177 -496.8611
000100 d3 14 fa c3 68 8c f4 c3 5c e5 fa c3 02 61 eb c3
       -500.1627 -489.09692 -501.79187 -470.75787
000110 a3 8e f4 c3 9d dc e6 c3 af 6d f8 c3 82 47 f8 c3
       -489.11435 -461.72354 -496.8569 -496.55865
000120 82 b9 c5 c3 9d a2 e3 c3 63 60 f7 c3 e9 96 fd c3
       -395.44928 -455.27042 -494.75302 -507.179
000130 ec b0 f7 c3 fb 05 fd c3 db de fd c3 c2 b3 dc c3
       -495.3822 -506.04672 -507.74106 -441.40436
000140 40 e7 f2 c3 74 5d f3 c3 70 f9 f9 c3 ac 7d fa c3
       -485.80664 -486.7301 -499.94873 -500.9818
000150 67 f8 8b c3 cc d3 f5 c3 2e 3e fd c3 79 2e fa c3
       -279.94064 -491.65466 -506.48578 -500.36307
000160 21 75 fa c3 6f 77 fd c3 6d b3 f9 c3 a6 d8 00 c4
       -500.91507 -506.93307 -499.40176 -515.38513
000170 ee 72 fe c3 b6 84 fb c3 e0 a6 fe c3 51 83 dc c3
       -508.8979 -503.0368 -509.3037 -441.0259
000180 69 a9 ed c3 8d 06 f0 c3 af 3e f9 c3 56 10 f7 c3
       -475.32352 -480.05118 -498.48972 -494.12762
000190 eb 4b 9c c3 8a 6f dd c3 6c 13 f4 c3 f5 41 f9 c3
       -312.5931 -442.8714 -488.15173 -498.5153
0001a0 9b d6 ff c3 a9 b3 30 c4 a9 b3 30 c4 a9 b3 30 c4
       -511.6766 -706.8072 -706.8072 -706.8072
0001b0 a9 b3 30 c4 a9 b3 30 c4 a9 b3 30 c4 a9 b3 30 c4
       -706.8072 -706.8072 -706.8072 -706.8072
0001c0 a9 b3 30 c4 a9 b3 30 c4 a9 b3 30 c4 a9 b3 30 c4
       -706.8072 -706.8072 -706.8072 -706.8072
0001d0 a9 b3 30 c4 a9 b3 30 c4 a9 b3 30 c4 a9 b3 30 c4
       -706.8072 -706.8072 -706.8072 -706.8072
0001e0 a9 b3 30 c4 a9 b3 30 c4 a9 b3 30 c4 a9 b3 30 c4
       -706.8072 -706.8072 -706.8072 -706.8072
0001f0 a9 b3 30 c4 a9 b3 30 c4 a9 b3 30 c4 a9 b3 30 c4
       -706.8072 -706.8072 -706.8072 -706.8072
000200 a9 b3 30 c4 a9 b3 30 c4 a9 b3 30 c4 a9 b3 30 c4
       -706.8072 -706.8072 -706.8072 -706.8072
000210 a9 b3 30 c4 a9 b3 30 c4 a9 b3 30 c4 a9 b3 30 c4
       -706.8072 -706.8072 -706.8072 -706.8072
000220 a9 b3 30 c4 a9 b3 30 c4 a9 b3 30 c4 a9 b3 30 c4
       -706.8072 -706.8072 -706.8072 -706.8072
000230 a9 b3 30 c4 a9 b3 30 c4 a9 b3 30 c4 a9 b3 30 c4
       -706.8072 -706.8072 -706.8072 -706.8072
000240 a9 b3 30 c4 a9 b3 30 c4 a9 b3 30 c4 a9 b3 30 c4
       -706.8072 -706.8072 -706.8072 -706.8072
000250 a9 b3 30 c4 a9 b3 30 c4 a9 b3 30 c4 a9 b3 30 c4
       -706.8072 -706.8072 -706.8072 -706.8072
000260 a9 b3 30 c4 a9 b3 30 c4 a9 b3 30 c4 a9 b3 30 c4
       -706.8072 -706.8072 -706.8072 -706.8072
000270 a9 b3 30 c4 a9 b3 30 c4 a9 b3 30 c4 a9 b3 30 c4
       -706.8072 -706.8072 -706.8072 -706.8072
000280 a9 b3 30 c4 a9 b3 30 c4 a9 b3 30 c4 a9 b3 30 c4
       -706.8072 -706.8072 -706.8072 -706.8072
000290 a9 b3 30 c4 a9 b3 30 c4 a9 b3 30 c4 a9 b3 30 c4
       -706.8072 -706.8072 -706.8072 -706.8072
0002a0 a9 b3 30 c4 a9 b3 30 c4 a9 b3 30 c4 a9 b3 30 c4
       -706.8072 -706.8072 -706.8072 -706.8072
0002b0 a9 b3 30 c4 a9 b3 30 c4 a9 b3 30 c4 a9 b3 30 c4
       -706.8072 -706.8072 -706.8072 -706.8072
0002c0 a9 b3 30 c4 a9 b3 30 c4 a9 b3 30 c4 a9 b3 30 c4
       -706.8072 -706.8072 -706.8072 -706.8072
0002d0 a9 b3 30 c4 a9 b3 30 c4 a9 b3 30 c4 a9 b3 30 c4
       -706.8072 -706.8072 -706.8072 -706.8072
0002e0 a9 b3 30 c4 a9 b3 30 c4 a9 b3 30 c4 a9 b3 30 c4
       -706.8072 -706.8072 -706.8072 -706.8072
0002f0 a9 b3 30 c4 a9 b3 30 c4 a9 b3 30 c4 a9 b3 30 c4
       -706.8072 -706.8072 -706.8072 -706.8072
000300 a9 b3 30 c4 a9 b3 30 c4 a9 b3 30 c4 a9 b3 30 c4
       -706.8072 -706.8072 -706.8072 -706.8072
000310 1c 6c c1 42 ca ff 1a 43 fa e9 01 43 16 06 5d 43
       96.71115 154.99918 129.91397 221.02377
000320 da a5 11 43 ea fb 16 43 42 8d 0f 43 fc 7e 05 43
       145.64786 150.98404 143.55179 133.49603
000330 a0 6d 09 43 55 04 0c 43 90 57 35 43 08 bf 2e 43
       137.42822 140.01692 181.34204 174.74622
000340 dd 53 20 43 3f be 21 43 12 cb 10 43 8b 2e 4c 43
       160.32759 161.74315 144.79324 204.18181
000350 7e 75 2b 43 4d c4 1b 43 0a 79 03 43 5b ef d2 42
       171.45895 155.7668 131.47281 105.46749
000360 89 b9 0b 43 24 80 10 43 88 a1 08 43 24 ab 0a 43
       139.72475 144.50055 136.63098 138.66852
000370 c4 95 0f 43 d8 d8 0c 43 90 df 73 43 c6 93 e5 42
       143.58502 140.84705 243.87329 114.78862
000380 3a ea 2a 43 22 79 26 43 90 b9 17 43 a8 02 60 43
       170.91495 166.47318 151.72485 224.01038
000390 7e 78 3e 43 4f 96 18 43 4c 0d 10 43 9f 4a 16 43
       190.47067 152.58714 144.05194 150.29149
0003a0 f8 1d 0b 43 e4 3e 0e 43 c1 3e 06 43 2a 0d f3 42
       139.11707 142.24567 134.24513 121.52571
0003b0 22 7e 4e 43 61 bc 2d 43 b0 13 00 43 3e 1f 1a 43
       206.4927 173.73586 128.0769 154.12204
0003c0 d8 4e 10 43 ae a8 6a 43 a8 87 29 43 d2 01 13 43
       144.30798 234.6589 169.5299 147.00711
0003d0 f8 0f 07 43 ad 6f 08 43 7e 83 12 43 e0 f5 11 43
       135.06238 136.43623 146.51364 145.96045
0003e0 a6 71 02 43 21 93 0f 43 3a e7 32 43 34 49 1b 43
       130.44394 143.57472 178.90323 155.28595
0003f0 23 a3 52 43 1d 6d 46 43 18 99 32 43 a0 2e 31 43
       210.63725 198.42622 178.59802 177.18213
