datasets/mfccfeatures/extra_systole/train/aug_179_1307990076841_C_cardiac_pcgmix_plus_144_1306522408528_B1_alpha0.35_basic_46.npy (npy, 30704 bytes, 1 tensors)

array f4 [39, 196]
00000000: f505 ccc3 515a dec3 2f9b 60c3 cc8e ddc3
00000010: c127 b9c3 6709 e4c3 d449 d8c3 5972 49c3
00000020: 48ba 97c3 94f7 dac3 8e6f edc3 fa2b c3c3
00000030: 8749 b2c3 f270 dfc3 8187 dcc3 d841 e5c3
00000040: 98b5 e5c3 ad81 2dc3 3491 85c3 509e d1c3
00000050: d6ec e4c3 7e11 d0c3 c6a8 96c3 4ee8 d7c3
00000060: fdf4 d9c3 a87b cac3 7eb5 c2c3 299f dcc3
00000070: 40f1 dec3 ba09 54c3 3070 dec3 74f4 c2c3
00000080: 4d01 d4c3 9144 8ec3 a802 dac3 419c d2c3
00000090: 396e d6c3 6019 d2c3 9e56 d7c3 3f9c a8c3
000000a0: faed bdc3 96cb d9c3 3491 dbc3 44be 98c3
000000b0: 4493 9ac3 88e8 d6c3 68cd dcc3 7b72 d6c3
000000c0: 97a1 a0c3 cfb5 77c3 4210 d8c3 98d0 e3c3
000000d0: 1307 c7c3 ce41 c8c3 91c6 b9c3 af55 ebc3
000000e0: 080e f2c3 1322 d0c3 142f 7ac3 6c7a b0c3
000000f0: ab8e d8c3 2825 ddc3 0e4c a4c3 07c1 d5c3
00000100: 1119 c8c3 cb90 d5c3 625b d0c3 7f74 d2c3
00000110: 6e32 dac3 8126 c6c3 5b52 b0c3 679a d7c3
00000120: 9ba9 dbc3 427a b3c3 9d9c 5ac3 d67f e2c3
00000130: 8d8d e2c3 5b47 e1c3 340f d3c3 5485 c9c3
00000140: 823d c8c3 43bf a2c3 442f ddc3 e00c d6c3
00000150: 0aef c7c3 38f5 3ac3 2cd4 dec3 64b3 e2c3
00000160: 3e99 dbc3 963f dfc3 b0e4 75c3 81c7 dfc3
00000170: ba48 e0c3 fc96 d1c3 037b 66c3 76b2 cdc3
00000180: e99e b7c3 4714 c3c3 f1e1 dfc3 c978 87c3
00000190: b296 e9c3 0f45 dbc3 5aa2 dcc3 7fb8 cdc3
000001a0: 1035 bcc3 c8b4 e4c3 42e0 e1c3 42f8 bec3
000001b0: f416 bdc3 bfb2 c8c3 a141 e0c3 34db dfc3
000001c0: 730b e8c3 03a1 7cc3 b5f6 e0c3 378d c9c3
000001d0: b2df c1c3 a64e dac3 1345 dbc3 81e7 b6c3
000001e0: a71d b6c3 a072 cdc3 cfcd e6c3 e707 eac3
000001f0: 8a0f cfc3 9bba e0c3 20f0 e4c3 7bbe d8c3
00000200: ad62 d2c3 6bd5 dec3 4dfc d3c3 50f1 a3c3
00000210: 033a d1c3 352e d6c3 83be cdc3 ea6f dec3
00000220: 779a cac3 bea7 d2c3 a6ea b7c3 9a76 b5c3
00000230: cc64 e0c3 b12e aac3 ff09 e4c3 cfd6 d7c3
00000240: 613c c8c3 1eba 4ec3 9e4d e7c3 3afb cac3
00000250: 9a5a d7c3 d93b e6c3 3981 85c3 6a76 bcc3
00000260: 672f e9c3 232a e8c3 79b5 95c3 baad e1c3
00000270: af53 e3c3 496a dbc3 a441 ebc3 4350 c9c3
00000280: 7346 d4c3 f931 e3c3 bfbd ddc3 c5f7 d3c3
00000290: dc9c 97c3 0d0a d1c3 36d5 d2c3 b986 d2c3
000002a0: 5489 d1c3 83c5 d7c3 84e1 b6c3 01ae bec3
000002b0: c2f9 dac3 904a e0c3 fe37 ebc3 5390 e9c3
000002c0: 11d2 c9c3 3a59 c1c3 d563 c5c3 de9d cbc3
000002d0: c728 d6c3 d92d d7c3 407b 94c3 b56e dbc3
000002e0: 5dc9 dcc3 b33f dcc3 2215 57c3 664b dcc3
000002f0: 0131 d6c3 308b c6c3 44c5 e2c3 6b85 aac3
00000300: 7654 dec3 0c16 c3c3 a056 e9c3 506c 19c4
00000310: 4a9f cb42 9833 ff42 f109 4243 206f 1543
00000320: e6ec cb42 115e 0243 e73c 0b43 6b1e b842
00000330: f2d5 d242 a3c8 1e43 68ec 0643 6b24 4843
00000340: b12f 0843 b4f0 0f43 1d43 1743 84db 1943
00000350: f869 0143 8204 b742 465b bb42 2876 2743
00000360: 92b9 1243 800e 3543 58d9 1243 b323 1843
00000370: cc8f 1043 44eb 0743 d294 1b43 a6f4 0d43
00000380: 50be 0943 5c21 bb42 622c 0d43 c42c 1743
00000390: 34b4 0f43 2431 4743 e0b9 1d43 8d54 1f43
000003a0: 2ecd 1743 b5b5 2143 be81 2343 08d8 5943
000003b0: efa0 ce42 fa0b 0b43 5046 0d43 4340 6543
000003c0: a398 d542 a603 1a43 47d9 0743 05bd 0d43
000003d0: 89cf 0743 3089 bd42 55fc d842 3604 fa42
000003e0: a2bc d742 f6f8 3c43 b276 bc42 c287 0243
000003f0: c21e e242 ec23 0943 a2e3 2f43 53d4 3b43
-408.04654 -444.7056 -224.60619 -443.1156 -370.31058 -456.07346 -432.57678 -201.44667
-303.45532 -437.9342 -474.87152 -390.34357 -356.57443 -446.8824 -441.05862 -458.5144
-459.4187 -173.50655 -267.1344 -419.23682 -457.85028 -416.13666 -301.31854 -431.81488
-435.91397 -404.96606 -389.4179 -441.24344 -445.88477 -212.038 -444.87646 -389.9098
-424.01016 -284.53568 -436.02075 -421.22073 -428.8611 -420.19824 -430.6767 -337.22067
-379.8592 -435.5905 -439.1344 -305.48645 -309.1505 -429.81665 -441.60474 -428.89438
-321.26242 -247.71019 -432.127 -455.62964 -398.05527 -400.5141 -371.5513 -470.6694
-484.10962 -416.2662 -250.1839 -352.95642 -433.1146 -442.29028 -328.59418 -427.50803
-400.19583 -427.1312 -416.71393 -420.91013 -436.39398 -396.3008 -352.6434 -431.20627
-439.32504 -358.95514 -218.61177 -452.99872 -453.10587 -450.55746 -422.11877 -403.04163
-400.48053 -325.49423 -442.36926 -428.1006 -399.8675 -186.95789 -445.6576 -453.4015
-439.1972 -446.49677 -245.89331 -447.55862 -448.56818 -419.17957 -230.48051 -411.39423
-367.2415 -390.15842 -447.76517 -270.94363 -467.1773 -438.53952 -441.26837 -411.44138
-376.41455 -457.41235 -451.752 -381.9395 -378.17932 -401.39645 -448.51273 -447.71252
-464.08945 -252.62895 -449.9274 -403.10324 -387.74762 -436.61444 -438.53964 -365.80862
-364.23166 -410.8955 -461.60788 -468.06174 -414.1214 -449.45786 -457.87598 -433.48813
-420.7709 -445.66733 -423.9711 -327.88525 -418.45322 -428.361 -411.48837 -444.87433
-405.20676 -421.3105 -367.8332 -362.92657 -448.78748 -340.36478 -456.0781 -431.6782
-400.4717 -206.72702 -462.60638 -405.9627 -430.70782 -460.46756 -267.00955 -376.9251
-466.37033 -464.3292 -299.41776 -451.35724 -454.65378 -438.83035 -470.51282 -402.62704
-424.55038 -454.3904 -443.4824 -423.9357 -303.22546 -418.07852 -421.6657 -421.05252
-419.07288 -431.54306 -365.76184 -381.3594 -437.95123 -448.58252 -470.43744 -467.12753
-403.64114 -386.69708 -394.77994 -407.23334 -428.31857 -430.3582 -296.9629 -438.8649
-441.57315 -440.49765 -215.08255 -440.58905 -428.38284 -397.0874 -453.54114 -341.04233
-444.65985 -390.17224 -466.67676 -613.6924 101.81111 127.60077 194.03883 149.43408
101.96269 130.36745 139.2379 92.05941 105.41786 158.78374 134.92346 200.14226
136.1863 143.94025 151.26216 153.85748 129.41394 91.508804 93.67827 167.46155
146.72488 181.05664 146.849 152.13945 144.5617 135.919 155.58133 141.95566
137.74341 93.565155 141.17337 151.17487 143.70392 199.19196 157.72607 159.33028
151.80148 161.7098 163.5068 217.84387 103.31432 139.04678 141.27466 229.25102
106.79812 154.01425 135.84874 141.73836 135.81068 94.767944 108.492836 125.008224
107.86842 188.9725 94.23183 130.5303 113.060074 137.14032 175.88919 187.82939
