datasets/mfccfeatures/extra_systole/train/aug_229_1308594979317_B_cardiac_pcgmix_plus_198_1308141739338_B1_alpha0.47_basic_177.npy (npy, 30704 bytes, 1 tensors)

array f4 [39, 196]
000000 11 f4 fc c3 20 49 08 c4 97 df 0c c4 a7 92 e4 c3
       -505.90677 -545.1426 -563.4936 -457.14572
000010 4f eb fd c3 6a 9c f6 c3 fa c4 01 c4 ae b1 ea c3
       -507.83835 -493.222 -519.07776 -469.38812
000020 ac 2c fe c3 6b 03 05 c4 e2 c9 05 c4 7f 12 f5 c3
       -508.349 -532.0534 -535.1544 -490.1445
000030 b2 ab f6 c3 fd 2d ec c3 f7 e1 fa c3 e8 1a 01 c4
       -493.34137 -472.35928 -501.76535 -516.4204
000040 79 29 c0 c3 7f e4 aa c3 86 33 fc c3 ee e1 04 c4
       -384.324 -341.78513 -504.40253 -531.53015
000050 a0 fa 02 c4 99 48 02 c4 75 9f e1 c3 91 2d e4 c3
       -523.916 -521.13434 -451.24576 -456.356
000060 b0 b9 b8 c3 c2 78 f9 c3 2d 3e fa c3 9a 5c d9 c3
       -369.45068 -498.94342 -500.48575 -434.72345
000070 4d 05 96 c3 12 38 ff c3 45 eb f9 c3 39 0c fe c3
       -300.0414 -510.43805 -499.83804 -508.0955
000080 f7 f3 fd c3 51 6d eb c3 a9 8d e4 c3 3c 14 ea c3
       -507.90598 -470.85403 -457.10672 -468.15808
000090 67 54 ed c3 b3 0d f6 c3 4a f9 f8 c3 6b 6e d8 c3
       -474.6594 -492.10703 -497.94757 -432.86264
0000a0 82 f6 d7 c3 8b 5f f7 c3 f5 59 fa c3 a2 e5 f8 c3
       -431.92584 -494.74643 -500.7028 -497.794
0000b0 3e 76 f2 c3 4d 2e c2 c3 3a ab e1 c3 b8 34 dc c3
       -484.92377 -388.36172 -451.3377 -440.41187
0000c0 5e 3e f4 c3 4b b7 c6 c3 a4 99 e1 c3 af 5c ec c3
       -488.48724 -397.43198 -451.20032 -472.7241
0000d0 48 37 f7 c3 8b a7 f8 c3 8a 44 f8 c3 92 a6 94 c3
       -494.4319 -497.30893 -496.53546 -297.30133
0000e0 f3 89 c0 c3 e9 63 02 c4 01 e3 fd c3 c7 92 d3 c3
       -385.07773 -521.5611 -507.77347 -423.1467
0000f0 df 9f c7 c3 76 8b 00 c4 dc 42 fe c3 ed c8 03 c4
       -399.249 -514.1791 -508.52234 -527.13947
000100 ff 95 fe c3 29 5e cb c3 2c 41 e2 c3 31 22 ea c3
       -509.17184 -406.73563 -452.50916 -468.26712
000110 5a e2 01 c4 a1 f2 ff c3 cb 5a ec c3 8d 69 fe c3
       -519.53674 -511.89554 -472.70932 -508.82462
000120 3f 2f fe c3 2d 1d 03 c4 32 05 eb c3 fa 26 e8 c3
       -508.3691 -524.4559 -470.0406 -464.3045
000130 54 f6 e1 c3 e9 41 07 c4 82 37 08 c4 dc bd e3 c3
       -451.92444 -541.02985 -544.8673 -455.48328
000140 99 97 be c3 c0 13 04 c4 d6 df ff c3 61 07 06 c4
       -381.18436 -528.3086 -511.74872 -536.1153
000150 50 e1 ef c3 c5 5d f1 c3 ad 27 f8 c3 b8 79 fd c3
       -479.76025 -482.73257 -496.30997 -506.95093
000160 18 58 36 c4 18 58 36 c4 18 58 36 c4 18 58 36 c4
       -729.37646 -729.37646 -729.37646 -729.37646
000170 18 58 36 c4 18 58 36 c4 18 58 36 c4 18 58 36 c4
       -729.37646 -729.37646 -729.37646 -729.37646
000180 18 58 36 c4 18 58 36 c4 18 58 36 c4 18 58 36 c4
       -729.37646 -729.37646 -729.37646 -729.37646
000190 18 58 36 c4 18 58 36 c4 18 58 36 c4 18 58 36 c4
       -729.37646 -729.37646 -729.37646 -729.37646
0001a0 18 58 36 c4 18 58 36 c4 18 58 36 c4 18 58 36 c4
       -729.37646 -729.37646 -729.37646 -729.37646
0001b0 18 58 36 c4 18 58 36 c4 18 58 36 c4 18 58 36 c4
       -729.37646 -729.37646 -729.37646 -729.37646
0001c0 18 58 36 c4 18 58 36 c4 18 58 36 c4 18 58 36 c4
       -729.37646 -729.37646 -729.37646 -729.37646
0001d0 18 58 36 c4 18 58 36 c4 18 58 36 c4 18 58 36 c4
       -729.37646 -729.37646 -729.37646 -729.37646
0001e0 18 58 36 c4 18 58 36 c4 18 58 36 c4 18 58 36 c4
       -729.37646 -729.37646 -729.37646 -729.37646
0001f0 18 58 36 c4 18 58 36 c4 18 58 36 c4 18 58 36 c4
       -729.37646 -729.37646 -729.37646 -729.37646
000200 18 58 36 c4 18 58 36 c4 18 58 36 c4 18 58 36 c4
       -729.37646 -729.37646 -729.37646 -729.37646
000210 18 58 36 c4 18 58 36 c4 18 58 36 c4 18 58 36 c4
       -729.37646 -729.37646 -729.37646 -729.37646
000220 18 58 36 c4 18 58 36 c4 18 58 36 c4 18 58 36 c4
       -729.37646 -729.37646 -729.37646 -729.37646
000230 18 58 36 c4 18 58 36 c4 18 58 36 c4 18 58 36 c4
       -729.37646 -729.37646 -729.37646 -729.37646
000240 18 58 36 c4 18 58 36 c4 18 58 36 c4 18 58 36 c4
       -729.37646 -729.37646 -729.37646 -729.37646
000250 18 58 36 c4 18 58 36 c4 18 58 36 c4 18 58 36 c4
       -729.37646 -729.37646 -729.37646 -729.37646
000260 18 58 36 c4 18 58 36 c4 18 58 36 c4 18 58 36 c4
       -729.37646 -729.37646 -729.37646 -729.37646
000270 18 58 36 c4 18 58 36 c4 18 58 36 c4 18 58 36 c4
       -729.37646 -729.37646 -729.37646 -729.37646
000280 18 58 36 c4 18 58 36 c4 18 58 36 c4 18 58 36 c4
       -729.37646 -729.37646 -729.37646 -729.37646
000290 18 58 36 c4 18 58 36 c4 18 58 36 c4 18 58 36 c4
       -729.37646 -729.37646 -729.37646 -729.37646
0002a0 18 58 36 c4 18 58 36 c4 18 58 36 c4 18 58 36 c4
       -729.37646 -729.37646 -729.37646 -729.37646
0002b0 18 58 36 c4 18 58 36 c4 18 58 36 c4 18 58 36 c4
       -729.37646 -729.37646 -729.37646 -729.37646
0002c0 18 58 36 c4 18 58 36 c4 18 58 36 c4 18 58 36 c4
       -729.37646 -729.37646 -729.37646 -729.37646
0002d0 18 58 36 c4 18 58 36 c4 18 58 36 c4 18 58 36 c4
       -729.37646 -729.37646 -729.37646 -729.37646
0002e0 18 58 36 c4 18 58 36 c4 18 58 36 c4 18 58 36 c4
       -729.37646 -729.37646 -729.37646 -729.37646
0002f0 18 58 36 c4 18 58 36 c4 18 58 36 c4 18 58 36 c4
       -729.37646 -729.37646 -729.37646 -729.37646
000300 18 58 36 c4 18 58 36 c4 18 58 36 c4 18 58 36 c4
       -729.37646 -729.37646 -729.37646 -729.37646
000310 d8 a4 c2 42 43 6d 03 43 98 a4 d8 42 83 32 5e 43
       97.32196 131.4268 108.32147 222.19731
000320 81 d2 fe 42 45 60 ee 42 0b e5 08 43 d4 33 4a 43
       127.41114 119.18803 136.8947 202.20245
000330 02 17 e8 42 3e 45 f1 42 88 79 fc 42 56 72 18 43
       116.04494 120.63524 126.237366 152.44662
000340 b4 6f 2d 43 26 c1 22 43 9e 01 1d 43 40 a6 17 43
       173.43634 162.75449 157.00632 151.64941
000350 04 cd 48 43 4c 5f d7 42 5c a7 15 43 ac b2 fc 42
       200.80084 107.68613 149.65375 126.34897
000360 81 58 0f 43 55 c2 fe 42 a4 ff e4 42 09 b9 5c 43
       143.34572 127.379555 114.4993 220.7228
000370 d0 6b c7 42 95 88 22 43 36 f1 17 43 a2 00 5c 43
       99.71057 162.53352 151.94223 220.00247
000380 96 31 ba 42 c8 d9 09 43 36 30 13 43 06 a8 0b 43
       93.09685 137.85071 147.18832 139.65634
000390 ca 84 11 43 96 bd 3c 43 96 81 d3 42 6e 75 3c 43
       145.5187 188.74057 105.7531 188.45871
0003a0 16 89 2b 43 2e 90 1e 43 68 12 1a 43 70 8b 6b 43
       171.53549 158.5632 154.0719 235.54468
0003b0 f3 4e e7 42 ce 44 1c 43 c8 56 19 43 65 68 18 43
       115.6542 156.26877 153.33899 152.40779
0003c0 8e df 0e 43 f7 9a 84 43 38 18 f5 42 97 f9 f2 42
       142.87326 265.21066 122.5473 121.48748
0003d0 3f 8c 19 43 fe df d2 42 d8 fe 4f 43 84 8c 37 43
       153.54784 105.437485 207.99548 183.54889
0003e0 2a a9 24 43 8a 67 27 43 dc 10 0f 43 f6 ee 4d 43
       164.6608 167.40445 143.06586 205.93344
0003f0 2c 62 e9 42 74 9a 11 43 d2 12 19 43 06 bb e8 42
       116.69174 145.60333 153.07352 116.36528
