datasets/mfccfeatures/extra_systole/train/aug_298_1311685888900_C_cardiac_pcgmix_plus_144_1306522408528_B1_alpha0.56_basic_32.npy (npy, 30704 bytes, 1 tensors)

array f4 [39, 196]
0	0xc40660f4	-537.5149
1	0xc3f0a794	-481.3092
2	0xc3f0e617	-481.79758
3	0xc3f7ab94	-495.34045
4	0xc3d1e182	-419.76178
5	0xc3e3eb75	-455.8395
6	0xc3c814fe	-400.164
7	0xc3f7aa41	-495.3301
8	0xc3f9683a	-498.81427
9	0xc3f833fc	-496.40613
10	0xc3f31067	-486.12814
11	0xc3d86782	-432.80865
12	0xc3f93c4a	-498.471
13	0xc3f7aa5d	-495.33096
14	0xc3da863d	-437.04874
15	0xc3fcd213	-505.6412
16	0xc3f80433	-496.0328
17	0xc3f875ab	-496.91928
18	0xc3f5d073	-491.6285
19	0xc3c1dc3a	-387.72052
20	0xc3c0cb2b	-385.58725
21	0xc3f731d4	-494.38928
22	0xc3f20df3	-484.10898
23	0xc3f7bf34	-495.49377
24	0xc3fe8422	-509.0323
25	0xc3f90125	-498.00894
26	0xc400b2e8	-514.7954
27	0xc3f87df2	-496.98395
28	0xc3e19b4a	-451.2132
29	0xc3fc87ec	-505.0619
30	0xc3f8541d	-496.65714
31	0xc380d596	-257.66864
32	0xc3f7b891	-495.44193
33	0xc3fa2157	-500.26047
34	0xc3f11a22	-482.20416
35	0xc3eee0e6	-477.75702
36	0xc3c6afd6	-397.37372
37	0xc3df09b6	-446.07587
38	0xc3f6de5d	-493.7372
39	0xc3ff5bde	-510.7177
40	0xc3ff9204	-511.14075
41	0xc3fc2d5e	-504.35443
42	0xc3f75db0	-494.73193
43	0xc4004731	-513.11237
44	0xc3fcd877	-505.69113
45	0xc402d7b0	-523.3701
46	0xc3fd92ee	-507.1479
47	0xc3f69322	-493.14948
48	0xc40168b5	-517.63605
49	0xc3ef8fe2	-479.12408
50	0xc4014cd9	-517.20074
51	0xc3e715e5	-462.17105
52	0xc3dbeda7	-439.85666
53	0xc3fee292	-509.77008
54	0xc3e9c261	-467.5186
55	0xc3ef7850	-478.93994
56	0xc3fc66c7	-504.80295
57	0xc3fde4bf	-507.78708
58	0xc3ff0a3d	-510.08
59	0xc401de00	-519.46875
60	0xc3fff14f	-511.88522
61	0xc3dee108	-445.75806
62	0xc3d3e226	-423.76678
63	0xc3e4e17f	-457.7617
64	0xc401fd58	-519.9585
65	0xc3fa3bde	-500.4677
66	0xc4008bd1	-514.18463
67	0xc3fc188d	-504.1918
68	0xc3c6988a	-397.1917
69	0xc3fda571	-507.2925
70	0xc4009ec8	-514.48096
71	0xc3ff1a55	-510.20572
72	0xc3d3d242	-423.64264
73	0xc3eba3c9	-471.27957
74	0xc400f635	-515.847
75	0xc4013b9d	-516.93146
76	0xc40033bf	-512.80853
77	0xc3fe22e3	-508.27255
78	0xc3fc187b	-504.19125
79	0xc3e84e63	-464.6124
80	0xc3b02d60	-352.3545
81	0xc402f918	-523.8921
82	0xc3f7167b	-494.17563
83	0xc3ff12e5	-510.1476
84	0xc3fdb496	-507.41083
85	0xc3db24bf	-438.28708
86	0xc3ca94a8	-405.16138
87	0xc401c60b	-519.0944
88	0xc401d3f1	-519.3116
89	0xc3fd5e98	-506.739
90	0xc3faff03	-501.99228
91	0xc3fbc0dc	-503.5067
92	0xc3fa388c	-500.44177
93	0xc3fcdb28	-505.71216
94	0xc3f9e893	-499.817
95	0xc3f73091	-494.37943
96	0xc3b44442	-360.53326
97	0xc3be45ae	-380.54437
98	0xc3d2a01e	-421.25092
99	0xc3ed87d0	-475.06104
100	0xc3ee4a1a	-476.57892
101	0xc3d9b56c	-435.41736
102	0xc3f05439	-480.658
103	0xc3f1cea7	-483.61447
104	0xc3f85baf	-496.71628
105	0xc3f716b3	-494.17734
106	0xc3f4e2d9	-489.77225
107	0xc3f85390	-496.65283
108	0xc3f210a1	-484.1299
109	0xc3f7797f	-494.9492
110	0xc3f21bf4	-484.21838
111	0xc3f3157f	-486.16794
112	0xc3e01da6	-448.23163
113	0xc3f3d299	-487.6453
114	0xc3ea5e8e	-468.7387
115	0xc3d90c5f	-434.09665
116	0xc3ee9b2b	-477.21225
117	0xc3c6b6b4	-397.42737
118	0xc3e85b1f	-464.71188
119	0xc3eba62e	-471.29828
120	0xc3ebe1d6	-471.76434
121	0xc3f04ffb	-480.62485
122	0xc3f0db72	-481.71442
123	0xc3ef8c26	-479.0949
124	0xc3f2eb83	-485.83994
125	0xc3f325a4	-486.29407
126	0xc3ef18b3	-478.19296
127	0xc3f08544	-481.04114
128	0xc3ac4851	-344.56497
129	0xc3ea3923	-468.44638
130	0xc3e6417e	-460.51166
131	0xc3ef588c	-478.69177
132	0xc3ecaa83	-473.33212
133	0xc3db484d	-438.56485
134	0xc3e34182	-454.51178
135	0xc3eacc7a	-469.59747
136	0xc3f012e7	-480.14767
137	0xc3f27e05	-484.98453
138	0xc3f04a61	-480.5811
139	0xc3eb50b5	-470.63052
140	0xc3eb8260	-471.01855
141	0xc3ee553e	-476.66595
142	0xc3ef81dc	-479.01453
143	0xc3eb6c3f	-470.84567
144	0xc3d3c0d4	-423.50647
145	0xc3e82b5a	-464.33868
146	0xc3f2b25f	-485.39352
147	0xc3f14c62	-482.59674
148	0xc3f4205a	-488.25275
149	0xc3e3c205	-455.51578
150	0xc3da78b3	-436.94296
151	0xc3ed02dd	-474.02237
152	0xc3f3f9be	-487.9511
153	0xc3f28840	-485.06445
154	0xc3f7f072	-495.87848
155	0xc3f6a048	-493.2522
156	0xc3ff601a	-510.7508
157	0xc3f945b2	-498.5445
158	0xc3ed9a4f	-475.20554
159	0xc3c886ea	-401.05402
160	0xc4278f8d	-670.243
161	0xc4278f8d	-670.243
162	0xc4278f8d	-670.243
163	0xc4278f8d	-670.243
164	0xc4278f8d	-670.243
165	0xc4278f8d	-670.243
166	0xc4278f8d	-670.243
167	0xc4278f8d	-670.243
168	0xc4278f8d	-670.243
169	0xc4278f8d	-670.243
170	0xc4278f8d	-670.243
171	0xc4278f8d	-670.243
172	0xc4278f8d	-670.243
173	0xc4278f8d	-670.243
174	0xc4278f8d	-670.243
175	0xc4278f8d	-670.243
176	0xc4278f8d	-670.243
177	0xc4278f8d	-670.243
178	0xc4278f8d	-670.243
179	0xc4278f8d	-670.243
180	0xc4278f8d	-670.243
181	0xc4278f8d	-670.243
182	0xc4278f8d	-670.243
183	0xc4278f8d	-670.243
184	0xc4278f8d	-670.243
185	0xc4278f8d	-670.243
186	0xc4278f8d	-670.243
187	0xc4278f8d	-670.243
188	0xc4278f8d	-670.243
189	0xc4278f8d	-670.243
190	0xc4278f8d	-670.243
191	0xc4278f8d	-670.243
192	0xc4278f8d	-670.243
193	0xc4278f8d	-670.243
194	0xc4278f8d	-670.243
195	0xc4278f8d	-670.243
196	0x42b80810	92.01575
197	0x42ec0450	118.00842
198	0x42f700f1	123.50184
199	0x42d11baa	104.55403
200	0x434de09a	205.87735
201	0x43205f6a	160.37271
202	0x42a77270	83.72351
203	0x42e3f470	113.97742
204	0x42db5ea1	109.68482
205	0x42e34069	113.6258
206	0x42f90eee	124.52916
207	0x432fece3	175.92534
208	0x42eaddf1	117.43348
209	0x42ec9cf6	118.306564
210	0x434c7714	204.46515
211	0x430157ca	129.34293
212	0x431038bb	144.2216
213	0x42fbeea8	125.966125
214	0x42ec79ea	118.23811
215	0x436790ff	231.56639
216	0x42b843c1	92.13233
217	0x430a672c	138.40302
218	0x4318050f	152.01976
219	0x430d331a	141.19962
220	0x42d76930	107.705444
221	0x42e23544	113.104034
222	0x42c3d7d2	97.921524
223	0x42d2b3da	105.35127
224	0x431f5122	159.31693
225	0x42d69c46	107.30522
226	0x43008a12	128.53934
227	0x42b8d108	92.408264
228	0x431135dc	145.21039
229	0x430c3b2a	140.23111
230	0x4306c434	134.76642
231	0x430d2390	141.13892
232	0x435c0d8a	220.05289
233	0x42f15c3e	120.68016
234	0x42ecbcd8	118.368835
235	0x42d897dd	108.29661
236	0x42d3efb0	105.96814
237	0x42d9a72b	108.8265
238	0x42f7d3e0	123.91382
239	0x42ccd3c3	102.4136
240	0x42d80ee2	108.02907
241	0x42c4c672	98.38759
242	0x42d632b9	107.09907
243	0x43140714	148.02765
244	0x42d20fcc	105.03085
245	0x430e7e4a	142.49332
246	0x42d8e22a	108.44173
247	0x42b1893f	88.76806
248	0x43205fd8	160.37439
249	0x42d026b7	104.075615
250	0x431a07fc	154.03119
251	0x4308749a	136.45547
252	0x42db5941	109.674324
253	0x42ddfb8b	110.991295
254	0x42ccbfcb	102.374596
255	0x42c33d6e	97.61998
