models/12.5s/aug_23_2025_bidirectional_lstm_model.onnx (onnx, 444606 bytes, 16 tensors)

sequential_1/dense_1_2/Cast/ReadVariableOp:0 f4 [64, 5]
000000 0e a9 1a be 36 bb 70 be 8c c9 46 bd 91 54 b3 3e
       -0.15103552 -0.23508915 -0.048532054 0.35025457
000010 4d 9b 00 be 0a ac 8c be a4 66 38 bd 4e ec 9c 3e
       -0.12559243 -0.27475005 -0.04501976 0.30649036
000020 0a 48 4a bd ae 27 6c be 3c 9d 2e be d2 28 6c 3c
       -0.049385108 -0.23062012 -0.17052168 0.014414029
000030 9d 31 9c be b3 f0 89 be f8 cb a1 be 62 0b 38 3d
       -0.30506602 -0.2694145 -0.31600928 0.04493273
000040 21 14 22 3d 28 4f ca be 57 ab 44 3e c5 5f 37 3d
       0.039569978 -0.39513516 0.19205986 0.044769067
000050 94 1b 3c be 81 a8 d9 be 30 76 35 bd 02 cd 5a 3e
       -0.18369895 -0.4251137 -0.044302166 0.21367267
000060 07 1e b7 bd 6e 50 ac bd 2e 66 d7 3d 01 9c 11 bd
       -0.08941274 -0.08413778 0.10517536 -0.035549168
000070 9f b5 92 bd cd 79 f6 bc d5 f4 0a 3b c9 ca 9c 3e
       -0.07163548 -0.030087376 0.002120306 0.30623463
000080 13 df de be 5f 5d a6 3e 8f dd 97 bd 32 19 0d 3d
       -0.43529567 0.32493111 -0.07415306 0.034447856
000090 4c 5d 1e 3e c7 a5 ca be e3 bf 03 be 8d 91 b4 3e
       0.15465277 -0.39579603 -0.12866168 0.35267296
0000a0 14 11 0d 3e 2d 93 40 3e 1a 37 67 be 3a 8f cc be
       0.13776046 0.18806143 -0.22579613 -0.39953023
0000b0 f9 6c bb 3c 2f d9 b3 be e5 64 39 be 7f 58 44 bc
       0.02287911 -0.35126635 -0.18104894 -0.01198399
0000c0 c7 50 95 3e 1f 9d 9e be b6 1f 6b be 0b 36 8c be
       0.2916319 -0.3097925 -0.22961316 -0.27384982
0000d0 2e 0a 6d 3d 7e f2 12 3e e3 7e 11 3e 83 52 3b be
       0.057871036 0.14350316 0.1420856 -0.18293194
0000e0 6a eb da bd 41 41 5a 3e 8f 64 e1 3e c0 0b c2 be
       -0.10689433 0.21313955 0.44022033 -0.3789959
0000f0 5a b0 2b 3e 48 ad fc 3d 78 6f c6 be ca 54 83 3e
       0.16766492 0.12337738 -0.3875692 0.25650626
000100 af 54 92 be 2b b9 e9 3d d6 33 21 3d 66 a3 0d 3e
       -0.28580233 0.11412271 0.039356075 0.13831863
000110 6b 9a 8f be d6 92 e6 3d c6 74 18 3e 13 98 d7 3c
       -0.280475 0.112584755 0.14888296 0.026317632
000120 d2 61 c7 3e df 29 16 be f5 25 29 be 0f 12 3b 3e
       0.38941818 -0.1466441 -0.16518386 0.18268608
000130 f9 6b 25 be 8c da 74 3e f9 99 d7 3d 2f 0c 52 be
       -0.1615447 0.23911494 0.10527415 -0.2051246
000140 06 03 8d be 95 5c b7 3e 7b 29 ae be ab 08 6f 3e
       -0.2754137 0.35812822 -0.34016022 0.2334315
000150 6d ae 02 3e 26 15 bb 3d 2d 3e 17 be b0 a9 d2 be
       0.1276185 0.09134893 -0.14769812 -0.41145086
000160 4d 45 96 be 8f 74 9d 3e 43 b4 18 be 2d 01 c8 be
       -0.29349747 0.3075299 -0.14912514 -0.39063397
000170 79 ef 2f be 3a 26 75 3e f8 4b 63 3b 3d be 9a be
       -0.17181195 0.23940364 0.0034682732 -0.30223265
000180 1a b6 9d 3e 32 08 0d 3d e1 84 68 3d 71 27 06 3e
       0.30802995 0.034431644 0.05676735 0.13100983
000190 58 15 ac bd 07 09 c6 3d 47 03 13 be 27 0d d0 3d
       -0.084025085 0.096696906 -0.14356719 0.101587586
0001a0 0b 0c ac bd 67 87 d8 be 25 69 de bc 95 24 55 ba
       -0.084007345 -0.42290804 -0.027149746 -0.00081307563
0001b0 74 f5 ce 3e 86 18 02 bf 7f b5 ac be 69 5e 72 3d
       0.4042164 -0.5081867 -0.3373222 0.059172068
0001c0 bf 24 93 3d 76 76 50 be ce cf b9 3d ec bd 87 be
       0.07184743 -0.2035769 0.09072839 -0.26512086
0001d0 68 46 50 be 24 c8 b4 be 26 ed 8a 3e 30 27 81 3e
       -0.20339358 -0.35308945 0.27134055 0.2522521
0001e0 5f 90 8a be b0 63 26 bd 15 98 b2 be bd 26 ce 3e
       -0.2706327 -0.040622413 -0.34881654 0.4026393
0001f0 64 a7 72 39 ca 62 9b be 50 f7 cd 3c c3 78 58 3e
       0.00023141276 -0.30348808 0.025142342 0.21139817
000200 96 85 ee 3d 33 0c 0a be ca 5c 2c be 76 51 54 3e
       0.11646573 -0.13481216 -0.16832271 0.207342
000210 5e 51 22 3d 1f 38 6d be 26 2c 89 3e ae 27 af bc
       0.03962838 -0.2316594 0.26791495 -0.021381225
000220 2e 99 d1 3e 42 f2 f3 bd fa ca 38 3e 49 5a 42 be
       0.4093718 -0.119114414 0.1804618 -0.18979754
000230 0e ea 21 3b 5d 90 0e 3e f2 4c bf bc 14 4b 1b be
       0.0024706158 0.13922258 -0.02335212 -0.15165359
000240 77 f7 25 bd 97 77 0e 3e 94 af 59 3e 83 8f 36 be
       -0.040519204 0.13912807 0.21258384 -0.17828183
000250 10 da f1 3c fe ab 0a bb d3 57 a6 bd 33 ca c4 3e
       0.029522926 -0.0021159644 -0.0812222 0.38435516
000260 ce 5f 1a bd 53 f1 5a be 16 93 af bd 9e 8e 53 3d
       -0.037689023 -0.2138112 -0.08572976 0.051649682
000270 98 53 a7 bd 12 2b 34 3e 7d d8 fb bd 87 23 4b be
       -0.08170241 0.17594555 -0.12297151 -0.19837771
000280 ab cc 37 be de a8 75 3e 8d 84 a5 bd 59 15 a0 3d
       -0.17949168 0.23990199 -0.08081923 0.07816572
000290 8c 90 a6 3e 96 15 79 bd f7 b0 a7 bc 23 36 56 be
       0.32532156 -0.0608116 -0.020470126 -0.20919089
0002a0 07 4c 44 be 35 d7 85 be c2 5e 2c 3e cc b6 28 3e
       -0.19169627 -0.26140752 0.16833022 0.16475981
0002b0 96 b6 74 3e ec d1 4c be ae 23 42 bc 15 38 7a bd
       0.23897776 -0.20001954 -0.011849327 -0.06108864
0002c0 f3 8b 95 be ea fe 6e 3e 40 19 e6 3d 78 14 67 bc
       -0.29208335 0.2333943 0.11235285 -0.014104001
0002d0 ea 67 a9 be a7 ac b9 3e 46 4b 9c 3e cc 55 92 3d
       -0.33087093 0.36264536 0.3052618 0.07145271
0002e0 5f 50 39 3d 40 f8 10 be 35 6c 98 3e 08 e7 b9 be
       0.045242663 -0.141572 0.29770055 -0.36309075
0002f0 71 8e 4c 3e 13 6a 4e be 5b 9d 2b 3e 14 12 8a 3e
       0.19976212 -0.20157652 0.16759245 0.26966918
000300 0a 64 03 be cc fd 90 bd 64 94 d7 3d 7c 21 23 3d
       -0.1283113 -0.07079658 0.1052635 0.039826855
000310 67 28 49 3e 4f c8 91 3e 57 89 f3 3d f9 f8 a1 be
       0.19644319 0.28473136 0.1189143 -0.31635264
000320 b2 33 3c be fb 0f f0 bd 39 81 46 3e ab 4b 60 3e
       -0.18379095 -0.11721798 0.19385232 0.21903865
000330 64 66 a5 3e 48 90 50 3e 3a 08 a8 bd 90 2b 8f 3e
       0.3230468 0.20367539 -0.08204694 0.27962923
000340 53 13 b2 3e fb 7e b1 bd 07 54 b6 be 4e ad 83 be
       0.34780368 -0.08666798 -0.35610983 -0.25718158
000350 51 2c 04 3e 07 65 2b be 96 0c 7b 3d 9f f5 97 be
       0.1290753 -0.16737758 0.0612913 -0.29679582
000360 3d fe 33 be 00 e9 4b 3e 6b 3a b5 be ec 20 5d bc
       -0.17577453 0.19913101 -0.35396132 -0.013496619
000370 f6 5d e6 bd e5 d8 e2 be 7d 8c be be 61 e3 33 bc
       -0.112483904 -0.44306102 -0.3721656 -0.010979504
000380 cb 35 f3 3d 9d eb 93 be 48 a2 db 3d 06 c8 54 be
       0.118754946 -0.28890696 0.10724312 -0.20779428
000390 d0 c5 9e 3e 3b 3b 83 3e e5 93 be 3d 8e 4b b3 be
       0.31010294 0.25631127 0.093055524 -0.3501858
0003a0 f1 1d 41 be b3 ed 20 be 20 2b b1 3e 57 6a 65 be
       -0.18859078 -0.15715675 0.34603214 -0.22403847
0003b0 60 a4 7e 3e ed 8a a3 be 6b c5 04 3e 1c 3e 64 be
       0.24867392 -0.3194193 0.12965934 -0.22289318
0003c0 e9 b0 7a 3d 0e 6a c3 be 0a 0d 4a be be 1e 0b 3e
       0.06120387 -0.3816685 -0.19731537 0.13585946
0003d0 71 41 84 3e 31 74 af bd 21 70 e6 3b b9 cb 8c 3e
       0.25831178 -0.085670836 0.00703241 0.27499178
0003e0 22 9a e9 3c 07 60 9d be 36 51 f0 3d f5 de 5d be
       0.028515879 -0.30737326 0.1173424 -0.21667083
0003f0 af 47 b6 bd 47 4d da be 4a 70 6b 3e 6b 27 30 3e
       -0.08900391 -0.42637083 0.22992054 0.17202537

sequential_1/dense_1_2/BiasAdd/ReadVariableOp:0 f4 [5]
000000 46 b4 30 bd be 6d 38 bd ac f6 18 bb ed c0 aa bb
       -0.043140672 -0.045026533 -0.0023340387 -0.005210987
000010 cd f7 75 3d
       0.060050774

sequential_1/dense_1/Cast/ReadVariableOp:0 f4 [64, 64]
000000 7b 69 2a 3e ac 93 92 3e c3 74 09 3e 23 b5 bd 3d
       0.166418 0.2862829 0.13423447 0.09263065
000010 32 96 4a 3e d7 64 18 3e f4 7a d3 3c 37 af 60 be
       0.19783857 0.14882217 0.025815465 -0.21941839
000020 c0 a7 de 3d 23 e8 5d 3e 8b 1a 19 3e ea f4 1e 3e
       0.108718395 0.21670584 0.14951532 0.15523115
000030 dd c3 34 bc cc 59 8d be 3a fc 31 3e be d0 99 3d
       -0.011033026 -0.27607572 0.17381373 0.075105175
000040 3f 16 28 3e ee bd 9d be be c2 26 3e c4 62 1a 3e
       0.16414736 -0.30808967 0.16285226 0.15076739
000050 68 da ab 3d 91 0d 16 3e f4 b8 c4 3d 2c 34 a3 bc
       0.08391267 0.14653613 0.096055895 -0.019922338
000060 4f a6 38 3e 2e 68 94 3e 1f 13 80 be 2f 23 10 bd
       0.18032192 0.28985733 -0.25014588 -0.035189804
000070 51 49 0f be 41 bd 2f 3c 09 5e d8 3d 56 eb 19 3e
       -0.13992812 0.010726274 0.10564811 0.1503118
000080 34 2c f9 3b 38 8c 65 3e 3f cd 0b 3e ac 9a 4e 3d
       0.0076041464 0.2241677 0.13652514 0.050440475
000090 16 b3 b2 bd 5d 97 43 3e 72 22 dc bd ab 8e 70 3e
       -0.08725564 0.1910071 -0.107487574 0.23491924
0000a0 b2 89 19 be 83 7f 7a 3e f2 a9 a0 be 99 aa 8e bd
       -0.14993933 0.24462704 -0.31379658 -0.06966133
0000b0 ea 77 01 be cb c8 87 3d ec 63 48 be b1 df 81 3e
       -0.126434 0.06630095 -0.19569367 0.25365975
0000c0 38 e1 d1 3d f2 60 cb bd 31 bd 5e be 2a 8c c4 3d
       0.10248035 -0.099306 -0.21751858 0.09597047
0000d0 93 d2 da bd dc 83 2c bd 95 29 0f be 22 44 b4 bd
       -0.10684695 -0.04211794 -0.13980706 -0.08802058
0000e0 82 22 ab 3d 8d 43 8b 3e 45 9e 96 be ee 9c 74 be
       0.08356191 0.27199975 -0.29417625 -0.23887989
0000f0 dc 95 51 be 91 40 60 be 25 64 99 3d c8 51 e3 bd
       -0.20467323 -0.2189963 0.07489804 -0.11099583
000100 9c 77 31 3e 0e 0b 52 3c b3 ff 63 be c3 98 32 3e
       0.17330784 0.012820018 -0.2226551 0.17441086
000110 cc 4a d7 3d c0 f5 5f be 72 1a 35 be 94 c8 18 be
       0.10512313 -0.2187109 -0.1768587 -0.14920264
000120 5c e2 92 3d 3f 4a 30 be 14 eb d2 bd bd 11 e3 3d
       0.07172081 -0.17215823 -0.10298744 0.11087368
000130 9b d1 32 3e a7 e2 e4 bd 9a 5f f4 bd 1f 87 17 3e
       0.1746277 -0.11176043 -0.11932297 0.14797638
000140 93 82 48 3d a6 81 41 bb a8 34 28 3e d5 81 be 3d
       0.04895265 -0.002952674 0.16426337 0.09302107
000150 d5 c9 63 be d5 50 0a 3e 69 8e 1b be 71 7c 99 3e
       -0.22244962 0.13507397 -0.15191044 0.29977754
000160 df cf 04 bd ac 2c dc 3d 14 27 20 3e 5c 27 1d be
       -0.032424804 0.10750708 0.15639907 -0.15347046
000170 c5 4d eb 3d 4d 4a 51 bd c7 98 0e be a8 1e 48 be
       0.11489443 -0.05109625 -0.13925467 -0.19542944
000180 aa ff ac 3d 2d 2b 59 be 13 57 2e 3c e2 0a dc bd
       0.084472016 -0.21207877 0.010640877 -0.10744263
000190 61 93 d4 bd 3f 1d 5c bd 80 0a d1 bd af 81 80 bd
       -0.10379673 -0.05373883 -0.10207081 -0.06274735
0001a0 d5 04 39 bd ac b4 4e be fe 4c 80 be 0a ec 3a be
       -0.045170624 -0.20186108 -0.2505874 -0.18254104
0001b0 e3 69 56 bc b5 15 2a be 34 25 19 be 63 d9 04 be
       -0.013086769 -0.16609843 -0.14955598 -0.12973551
0001c0 ca 35 f9 39 a2 bb 84 bd f2 32 56 bd ed 9f 18 be
       0.00047533057 -0.064811006 -0.05229468 -0.14904757
0001d0 f7 6b 40 3e 50 f5 29 be a4 25 c6 3d f0 cd 19 bc
       0.18791185 -0.16597486 0.09675148 -0.009387478
0001e0 f5 65 90 bd 4e 6b 9d bc 32 10 3b bd 02 ea 0e 3d
       -0.07050697 -0.019216206 -0.045669742 0.034891136
0001f0 1e 69 5d be 02 4b 99 bd 2a 63 68 3d cf e9 0e be
       -0.2162213 -0.0748501 0.056735195 -0.13956378
000200 80 ea 56 be 49 cf 04 be b4 26 bc bc 49 ab 24 be
       -0.20987892 -0.12969698 -0.022967674 -0.16080965
000210 93 25 8c bd d0 65 92 bd 13 19 d3 3d c5 5e 19 3d
       -0.06843104 -0.071483254 0.10307517 0.037443895
000220 9d d3 02 be f8 40 fd 3d 8b 9e 0a 3d 43 72 fb bd
       -0.12776037 0.123659074 0.033842605 -0.12277653
000230 d1 fd c6 3d 19 0c 5d 3e d9 a1 30 bd 06 73 66 be
       0.097163804 0.21586646 -0.0431231 -0.22504815
000240 42 c9 61 3e b7 42 e4 bc 65 c3 4d 3e 24 48 67 3e
       0.2204943 -0.027863843 0.20094068 0.22586113
000250 da 66 67 3d 42 59 c5 bd a8 79 65 3e b4 d1 2e 3e
       0.05649457 -0.09636165 0.2240969 0.17072183
000260 e1 03 8b bc ab d7 66 bd 82 4c 08 bc fb 3b 9a 3d
       -0.016969623 -0.05635802 -0.008319022 0.075309716
000270 96 70 0b bd 4c 99 c4 3d ad 21 db bc db 5d 5c 3d
       -0.034042917 0.095995516 -0.026749456 0.053800445
000280 37 a1 52 3e 75 c4 01 3e 4f 81 68 3d 31 ae 99 3d
       0.20569311 0.12672599 0.056763943 0.075039275
000290 59 b0 72 3e e5 da 20 be 21 5a 9e 3d f6 20 ec 3d
       0.23700084 -0.15708502 0.077320345 0.11529724
0002a0 6f f2 b6 3c 10 f5 3b 3e 80 e6 b1 bc 46 dd 45 3e
       0.022332398 0.18355203 -0.021716356 0.1932269
0002b0 88 a7 09 be 13 d8 37 3d df cc 7f bd 47 86 ad bd
       -0.13442814 0.0448838 -0.06245124 -0.08472877
0002c0 b4 ce 0c 3b eb 34 1c be 01 81 8f 3e da bd 96 bd
       0.002148551 -0.15254562 0.2802811 -0.0736043
0002d0 99 20 e9 3d d2 b7 b5 bc d2 ca 5a 3d c4 f6 42 3e
       0.11383171 -0.022182379 0.05341608 0.19039446
0002e0 90 72 55 be d7 5e 0e 3a c7 df 0c 3d a4 48 af 3c
       -0.20844483 0.00054310024 0.0343931 0.021396942
0002f0 d9 15 99 3e 87 d3 f6 3b 5c 20 0d be a4 cc 63 3d
       0.2989948 0.0075325402 -0.13781875 0.055615082
000300 40 1c 84 bd a3 d2 41 be 56 40 da bd 37 ec 93 bd
       -0.06450701 -0.18928008 -0.10656802 -0.07222789
000310 47 a9 35 bd 57 5e 03 be a8 79 6e 3c 19 94 6a bc
       -0.04435089 -0.12828957 0.014555372 -0.014317536
000320 4d de 1d bd 21 63 fe bd b6 59 1e 3c 85 49 e6 3d
       -0.03854208 -0.12421251 0.009664943 0.112444915
000330 20 3f 0c be 51 ac f3 bd 57 4e 35 be 18 be b6 3c
       -0.13695955 -0.11898101 -0.17705666 0.02230744
000340 40 0c c6 bd 24 aa cb bd fd 24 b2 3d 6d 44 96 bc
       -0.09670305 -0.09944561 0.08698461 -0.018343175
000350 e3 f2 84 3d 3a 29 7f 3e a1 29 2d be 45 b3 eb 3d
       0.064916395 0.2491807 -0.16910411 0.11508802
000360 dd 3a 4b 3e a9 18 ad bd 20 21 d7 bc 15 3d ba bd
       0.19846673 -0.08451969 -0.026260912 -0.09093682
000370 55 73 ae 3d ee 14 cc 3d eb eb 22 be 78 52 0c 3e
       0.085180916 0.099649295 -0.15910308 0.13703334
000380 48 6d 20 be 49 11 d6 bd 5f f0 eb bd e1 f7 6f be
       -0.15666687 -0.10452516 -0.115204565 -0.23434402
000390 98 52 9e 3d 23 a7 b1 3d 7d 02 d4 bd 6d ca a2 ba
       0.07730597 0.08674457 -0.10352037 -0.0012419947
0003a0 f1 47 80 be 5b a5 f9 3d 58 ce ce 3c f5 52 cd bd
       -0.25054887 0.12189742 0.025244877 -0.100255884
0003b0 3a ac 9f 3d 38 ca b5 3d 74 60 a6 bd f8 54 8c bd
       0.077965215 0.08876461 -0.08123866 -0.06852144
0003c0 73 c4 9f bd 65 c9 5f be f1 f3 06 be 9b 56 22 bd
       -0.078011416 -0.2185417 -0.13178994 -0.039633375
0003d0 a3 39 1a bd 71 fc 41 be d2 71 72 bd 80 ae 61 be
       -0.037652623 -0.18943955 -0.05919058 -0.22039223
0003e0 61 34 04 be e3 88 4c be ea 15 7d be f3 9c bb bd
       -0.12910606 -0.19974093 -0.24715391 -0.09160795
0003f0 b3 08 02 3e 59 1f 2a be eb 0c 51 be 95 29 79 be
       0.12698631 -0.1661352 -0.20415084 -0.24332269

sequential_1/dense_1/BiasAdd/ReadVariableOp:0 f4 [64]
000000 be a8 16 3c 6f 73 2f bc 8b b3 52 bb 83 8a a8 3d
       0.009195505 -0.010708674 -0.0032150473 0.08229544
000010 6c e8 be 3d 91 2c 08 bc ca f6 99 3c 4b a4 b1 3d
       0.09321675 -0.008311407 0.018794436 0.086739145
000020 34 64 54 3d e7 2a 04 3c d8 3c c0 3d 47 9c 1f 3d
       0.051853374 0.008066869 0.09386605 0.038967397
000030 9a cf d4 3c cd ad ff 3c 38 fe c5 ba 02 14 8c 3c
       0.025977898 0.031210804 -0.001510567 0.017099384
000040 a1 8c 6a 3d cb 0a 73 3d c1 3d 8f 3d 12 b6 9b 3c
       0.05726302 0.059336465 0.069942005 0.019007716
000050 96 23 0a 3c 6a 7a 69 3d 63 94 61 3d 91 85 89 3d
       0.008431336 0.05700151 0.055073153 0.06714929
000060 50 a1 42 3d da 63 00 bd d4 56 62 3d b7 16 6c 3b
       0.04751712 -0.031345226 0.055258587 0.0036024281
000070 44 eb 70 bc 81 74 27 bc 29 b1 78 3c 29 31 9a bc
       -0.014704529 -0.010220648 0.015178957 -0.01882227
000080 da cd 88 3d fb 63 f6 bc b0 f8 be bc e1 9c 53 3d
       0.06679888 -0.030076971 -0.023311943 0.051663283
000090 c2 6e 27 3d 35 5b 45 3d 0a 1b 7b 3d 4b 35 cd ba
       0.04087711 0.048182685 0.061305083 -0.0015656141
0000a0 5a 25 b8 3d a6 7a 0e bc 9c 2d da 3d 72 b0 87 3d
       0.08991499 -0.008696234 0.106532305 0.06625451
0000b0 8c 73 e2 3d 2d 0f 6e 3d d8 75 63 3d f3 74 85 3c
       0.11057195 0.05811994 0.055532306 0.016291117
0000c0 d4 c6 96 3d 10 a1 a0 3c 2c 37 8e 3d 82 f8 40 bc
       0.07362142 0.01960805 0.06944117 -0.011777999
0000d0 74 58 93 3d f9 d1 cd 3a 77 a1 9b bb 60 e4 98 3d
       0.071946055 0.0015702836 -0.0047494727 0.07465434
0000e0 23 95 d2 bc ed 65 ee bc 59 08 c6 3d db 4b a9 3d
       -0.02570588 -0.029101336 0.09669561 0.082664214
0000f0 33 3c c1 3d f3 c8 99 3d 16 5e fd 3d f4 1c 92 3d
       0.0943531 0.07509031 0.12371461 0.071344286

sequential_1/bidirectional_1_2/forward_lstm_1_1/lstm_cell_1/add_1/ReadVariableOp/resource:0 f4 [128]
000000 f3 88 89 3b 12 3f 3b 3a 81 26 89 3d 4b 4e 7e 3d
       0.004197234 0.0007142882 0.06696797 0.062086385
000010 7c a1 1d 3d d3 52 5f 3d b1 68 9b bc 23 0b 12 3d
       0.03848408 0.054522347 -0.01897082 0.035655152
000020 0d 01 1f 3d ff e2 ac 3d fe 70 76 3d 42 76 07 3d
       0.03881936 0.084417336 0.06016635 0.033071764
000030 3d 4c 17 3d 5b 9a cb 3c ba a5 bf 3d 36 c4 94 3c
       0.03693794 0.024853876 0.09357782 0.018159967
000040 99 b4 de 3c 2e 83 14 3d 78 8e 13 3d b3 82 d4 3c
       0.027185725 0.036257915 0.03602454 0.025941228
000050 62 86 12 3d 9e 1b 42 3d 00 89 85 bc b3 83 1e 3d
       0.03577269 0.04738962 -0.016300678 0.038699817
000060 d0 ed 63 3d ea 23 4e 3d bb 88 24 3c ec 25 18 3d
       0.055646718 0.05032722 0.010042365 0.03714554
000070 4c 9b c8 3c cc c1 8e 3c 0b b8 0f 3d 63 10 20 3d
       0.024488114 0.017426394 0.035087626 0.039078128
000080 bd e8 80 3f ae 99 80 3f a3 e7 86 3f 4f 0c 86 3f
       1.0071026 1.0046899 1.053944 1.0472506
000090 dd cb 84 3f a2 58 86 3f a5 16 7c 3f 15 6f 86 3f
       1.0374714 1.0495799 0.9847205 1.050265
0000a0 1f d6 84 3f 59 5c 85 3f e3 44 88 3f fe 0d 83 3f
       1.0377845 1.0418807 1.0646023 1.0238645
0000b0 97 d8 85 3f 9b a0 81 3f 58 47 84 3f d8 32 81 3f
       1.0456723 1.0127138 1.0334272 1.0093641
0000c0 07 ea 83 3f 8d 89 86 3f 23 c7 85 3f 2c 9d 82 3f
       1.0305794 1.0510727 1.0451397 1.0204215
0000d0 3f d0 84 3f ed 0c 86 3f 97 07 81 3f 4f ff 81 3f
       1.0376052 1.0472695 1.0080441 1.0156039
0000e0 45 41 84 3f 68 24 87 3f bf 1d 81 3f 9d 5b 86 3f
       1.0332419 1.0557985 1.0087203 1.0496708
0000f0 36 fb 80 3f df d2 7d 3f b9 cd 86 3f f7 02 85 3f
       1.0076663 0.9914989 1.0531532 1.039153
000100 c6 de e4 3b e4 76 4c bc 5e ec 09 3d 78 15 54 bc
       0.0069845645 -0.012479518 0.033672683 -0.012944572
000110 3b 7c 19 bd a5 2a a7 3c cb 43 04 3c ba e0 55 ba
       -0.03747199 0.020406077 0.008072804 -0.0008158792
000120 14 d4 1b 3d e8 f7 06 bd 15 f5 6d bc fd 01 63 bd
       0.03804405 -0.032951266 -0.014523764 -0.055421818
000130 25 90 7f 3d ab 25 e8 bc 28 58 6f bc d2 ed dc 3c
       0.062393326 -0.028338274 -0.01460842 0.02696887
000140 0e 4d 9d 3d 2b e0 45 3d 45 c0 af 3a a0 a1 b0 bc
       0.07680713 0.048309486 0.0013408741 -0.021561444
000150 41 47 9f bc 34 84 f2 b9 a0 b1 49 bd 12 1c d7 bc
       -0.019443156 -0.00046256336 -0.049241662 -0.026258502
000160 9c f1 6c bc 53 86 58 3d 70 95 cc bc c6 7f 6d 3c
       -0.014461901 0.052862477 -0.024973601 0.014495796
000170 46 ba a7 bc 74 ef 28 bc 2b 65 2f 3d ce b3 29 3c
       -0.020474564 -0.010310996 0.04282109 0.01035781
000180 e4 9f 9e 3d cc 40 20 3d dc 76 03 3d 1f 43 c5 3d
       0.077453405 0.039124295 0.032095775 0.09631943
000190 54 13 4e 3d 7f 83 f5 3c d4 ee 12 bb 30 97 52 3c
       0.0503114 0.029969929 -0.0022420185 0.012853429
0001a0 aa b4 94 3d 2a 1a 89 3d d6 1f d7 3d 90 be 68 3d
       0.072610214 0.066944435 0.10504119 0.05682236
0001b0 25 00 a9 3d 52 ef 62 3c 57 6e ba 3d 62 ee 64 3c
       0.08251981 0.013851004 0.09103077 0.0139728505
0001c0 16 12 9b 3d fc f0 97 3d e9 ff a9 3d 5e bb 22 3d
       0.07571809 0.07419011 0.08300764 0.03972947
0001d0 3a de b0 3c 9b 3c ea 3d 2c 2c 25 3d 4d ca 35 3d
       0.02159034 0.11437341 0.04032533 0.044382382
0001e0 8b 02 13 3d 29 ca 95 3d 08 87 a8 3c ac 2b e9 3c
       0.035891097 0.073139496 0.0205722 0.028463207
0001f0 31 9b 29 3d d6 28 72 3d 33 25 b5 3d 7f c2 37 3d
       0.041407768 0.059120975 0.08844986 0.04486322

sequential_1/bidirectional_1_2/forward_lstm_1_1/lstm_cell_1/Cast_1/ReadVariableOp/resource:0 f4 [32, 128]
000000 20 4d 81 3d 18 c8 1a 3e 60 8e 87 be 94 e1 99 bd
       0.063135386 0.15115392 -0.2647581 -0.07513729
000010 37 90 9b 3d b2 05 a1 bd 55 8a cd 3c 64 fa 16 be
       0.07595866 -0.078624144 0.025090376 -0.14743954
000020 1e d8 7b be 1c 87 cc bd f8 87 eb bc 5c e4 d9 bd
       -0.24594161 -0.099867076 -0.028751358 -0.10639259
000030 64 87 6d be c7 b2 c9 3d 44 fe 2f 3c a8 7b 60 3d
       -0.23196179 0.09848552 0.010741774 0.054805428
000040 c2 f1 15 3e a5 7d 55 bd ed ab 38 3d 25 48 47 bd
       0.14643005 -0.052121777 0.045085836 -0.048652787
000050 54 fe 94 bc 83 46 26 bd ca 80 44 be d1 09 37 3e
       -0.01818768 -0.04059459 -0.19189754 0.17874838
000060 0d 80 2c be f1 74 0d 3e 8e c8 a8 3d a8 40 f3 3c
       -0.16845722 0.13814141 0.08241378 0.029693916
000070 22 ba 04 3e 93 32 1e bd 4a 20 c5 3c 3a 05 ab 3d
       0.12961629 -0.03862245 0.024063248 0.08350606
000080 e9 e3 28 be 0d 7f 7e 3e 1c a4 28 be 05 ab 00 3b
       -0.16493191 0.24853154 -0.16468853 0.0019633186
000090 2c 38 8a bd 83 72 05 bd 3d 24 a2 bd 80 ca 3a bd
       -0.06748995 -0.03257991 -0.07917068 -0.045603275
0000a0 7e 71 a7 3d 37 99 ed 3c fe 8c e1 bd 3f 57 03 be
       0.08175944 0.029003723 -0.1101322 -0.1282625
0000b0 46 7f 8b bd 80 2a a9 3d f2 da 19 be ba e0 79 3d
       -0.06811385 0.08260059 -0.15024927 0.06100533
0000c0 46 fd 57 3d 9f 30 f9 bc 7a 4d b0 bd dc 16 2e 3d
       0.052731775 -0.030418692 -0.086085275 0.04250227
0000d0 71 74 a9 ba af 1b 9b bd 63 37 89 be 55 29 09 3e
       -0.0012928379 -0.075736396 -0.2680007 0.13394673
0000e0 ac 63 8f 3c 8d 12 74 bd 24 5a 3d 3d 3f 98 00 be
       0.017503582 -0.059588004 0.046228543 -0.12558077
0000f0 ec d5 d8 3d c7 53 8b bc 6b 4b 17 be bb 0b fd 3c
       0.10587677 -0.017007722 -0.14774863 0.030889383
000100 6c ea bc 3d 5a 22 d8 3d bb 6b 20 be 7f 7c 37 3d
       0.092244 0.10553427 -0.15666096 0.044796463
000110 92 9d 32 be c4 97 9d bc 4c 48 fd bd 04 1f 64 3e
       -0.17442921 -0.019237407 -0.12367305 0.22277457
000120 09 6d 69 bd b9 51 97 3c ff 63 13 be ab 80 52 3d
       -0.05698875 0.018471586 -0.14393614 0.05139224
000130 f8 43 a7 bd 36 d1 14 3e 43 f6 60 bc 42 d9 b7 bd
       -0.08167261 0.14532933 -0.013730588 -0.089769855
000140 1d 88 1d 3d ab 5c 1f 3e dd fe 88 bc 0c 00 90 bd
       0.038459886 0.15562694 -0.01672309 -0.07031259
000150 01 68 5d 3d 37 c4 80 3d 9b e7 ba 3c 41 cf 38 3c
       0.054054264 0.06287425 0.022815516 0.011279882
000160 a5 71 8a 3d b9 3f 17 bd 1c cf 6e 3c 46 7d 81 bb
       0.06759957 -0.036926005 0.014575746 -0.0039517013
000170 90 51 67 be f0 3f af bc 19 5c bc 3d 83 8b f4 3c
       -0.22589707 -0.021392792 0.09197254 0.02985168
000180 48 fb 27 3b f1 dd 53 3e 99 67 6c 3d 5a d8 d0 b8
       0.0025631953 0.20690133 0.057715986 -9.9585115e-05
000190 e2 b2 8c 3b 1f 5d 1f 3d 08 d0 96 3d 94 21 2d bd
       0.0042937854 0.038907167 0.073638976 -0.04226835
0001a0 b1 16 9f 3c 28 d8 5f bd cc c6 45 be 0f 96 a5 bd
       0.01942 -0.054649502 -0.19314116 -0.08085262
0001b0 e3 e6 04 bd 48 2b af 3d 3d 71 92 3a a5 ab a8 3d
       -0.032446753 0.08553177 0.0011172664 0.082358636
0001c0 16 ec a1 3d f4 9a f7 3d 19 06 a4 bd 51 07 da bd
       0.07906358 0.12090102 -0.080089755 -0.10645927
0001d0 16 d1 66 3d 06 81 22 be c0 18 30 be 9c e8 ce 3d
       0.056351744 -0.15869531 -0.17196941 0.101029605
0001e0 c4 55 6e bc 5f e6 1c 3e 74 43 43 3e 78 52 c0 bd
       -0.014546815 0.15322255 0.190687 -0.0939073
0001f0 50 1c 05 bd 3f 17 02 bc d5 95 86 bc 3c 51 f6 3c
       -0.032497704 -0.007940113 -0.016428867 0.030068032
000200 f6 a6 2e 3e cb b5 88 3d eb 19 b3 3b 17 46 d4 3d
       0.17055878 0.06675299 0.005465736 0.10364931
000210 e6 31 02 bd a4 74 11 3e d2 8b bd 3c f2 fe 25 ba
       -0.031785868 0.14204651 0.02313796 -0.00063322403
000220 f3 a0 b7 bd c7 1b ef 3c c0 ce e6 bd f5 1c 34 bd
       -0.089662455 0.02918805 -0.11269903 -0.043972928
000230 e1 c8 7c 3d 25 18 85 bd 39 2b 6a 3e ae 10 98 bd
       0.06171501 -0.06498746 0.2286805 -0.074250564
000240 e4 9c 28 be 8b 18 96 3d 83 d6 b5 3c 81 63 df 3c
       -0.16466099 0.073289 0.022197014 0.027269127
000250 18 92 0e 3e 98 dc 67 3d ae 80 20 3e dd 37 0a be
       0.13922918 0.05660686 0.15674087 -0.13497873
000260 a3 8e 89 3c d7 88 49 3d 7d 5b fc 3d 95 d2 12 3e
       0.016791647 0.049202766 0.123221375 0.14338143
000270 b4 02 18 3d 95 29 b0 bb 01 8f c0 3d 3b 2d a2 3b
       0.037111953 -0.0053760507 0.09402276 0.0049492395
000280 2b 44 24 bc 33 1f 36 3d 94 94 6b bd bc fc ca bd
       -0.010026018 0.044463348 -0.057514742 -0.099114865
000290 ab a0 a1 3d 9e df ae bd be 8f 62 3d fc 9c b4 bd
       0.07891973 -0.08538745 0.055312864 -0.08819005
0002a0 ef 60 5e bd 32 ad aa 3d 08 0f b6 bd 1d 32 a2 bd
       -0.05429166 0.08333816 -0.08889586 -0.079197146
0002b0 81 d2 24 bd d6 77 71 bd d9 5a 09 be 7d dd 36 3b
       -0.040239815 -0.058952175 -0.13413562 0.0027903013
0002c0 c5 91 5f bd 22 b8 55 bd 3c e4 3a bd 8d 27 0a be
       -0.054582376 -0.052177556 -0.045627818 -0.1349165
0002d0 a4 fd b2 bc d9 70 6c 3d d5 68 e0 3d 62 f4 66 bd
       -0.02184946 0.057724807 0.10957495 -0.056385405
0002e0 67 37 81 bd 17 09 cb 3d 68 1f 83 bd 23 5a 56 3d
       -0.06309395 0.09913843 -0.06402475 0.052332055
0002f0 a2 76 04 3d 02 82 7b 3a d5 70 f2 3d 71 a8 c7 3c
       0.0323397 0.0009594263 0.11837927 0.024372311
000300 91 3d 86 be d7 9d 6c 3d a4 b0 d0 bc c8 5d 86 bc
       -0.26218846 0.057767715 -0.025474854 -0.01640214
000310 26 70 b1 bd 36 a8 1f be f9 b3 de bd 3e 37 ae bd
       -0.08663969 -0.15591511 -0.10874171 -0.0850663
000320 c8 cc f3 bd 97 ca 99 3c 31 fa af 3d bf 69 4e bd
       -0.11904293 0.01877336 0.08592642 -0.050393816
000330 de 42 75 3e 36 c0 55 3d b9 70 8e 3d 30 f0 84 3d
       0.23951289 0.05218526 0.06955094 0.06491125
000340 cf 5d 5d be e6 16 b4 3d 1a 35 1e 3d 73 77 f8 b5
       -0.21617816 0.0879343 0.03862486 -1.8512204e-06
000350 7d 60 7d bc b5 1d 95 3d a4 ae 5b bd 12 b5 18 be
       -0.015464899 0.07281057 -0.053633347 -0.14912823
000360 af 88 13 3e b8 83 20 bd 5d 58 5a bd b7 22 3f bd
       0.1440761 -0.039188117 -0.053306926 -0.046663966
000370 e0 bc b0 3d 9a cf 21 be 2e 65 93 3c 5f 46 7e be
       0.08629775 -0.1580185 0.017992582 -0.24831532
000380 e1 07 68 3e 9b ce 2c 3e d1 6c d4 bd 95 51 07 be
       0.22659256 0.16875689 -0.103723176 -0.13214715
000390 5c b3 e8 bd 2f e1 0c bd 1d 4e dc 3d 1d af 0e 3b
       -0.11362335 -0.03439444 0.107570864 0.0021771856
0003a0 34 47 75 3d 94 80 e1 bd c8 ff c2 bd 93 d2 b6 bd
       0.059882358 -0.110108525 -0.09521443 -0.089268826
0003b0 ea 9a 8f bc e6 11 f7 3d e9 7d 28 3d 67 f5 0d 3e
       -0.017529923 0.12063961 0.041135702 0.13863145
0003c0 26 67 38 be 50 d0 15 bd 99 bd 21 bd 6d a3 58 be
       -0.18008098 -0.036575615 -0.039487455 -0.21156092
0003d0 88 36 db 3a ea 28 eb 3d 0a af a9 3d 7b 1c f1 3a
       0.0016724626 0.11482413 0.08285339 0.0018395329
0003e0 85 3a 41 3d f2 af c4 3d 93 e5 e5 3d 30 08 fd bc
       0.04717495 0.096038714 0.112254284 -0.030887693
0003f0 77 bc 75 bd 9f 37 65 3e f0 44 81 3d fb ee 0d 3e
       -0.059994187 0.22384499 0.06311977 0.13860695

sequential_1/bidirectional_1_2/forward_lstm_1_1/lstm_cell_1/Cast/ReadVariableOp/resource:0 f4 [128, 128]
000000 65 17 0b 3c 21 98 96 bc 68 be 8b 3d 8b c8 28 be
       0.008489464 -0.018383088 0.068234265 -0.16482751
000010 36 0b 60 bb 9b a2 a3 bd 01 01 20 3c d5 aa 01 be
       -0.003418637 -0.07989999 0.009765864 -0.12662823
000020 67 fe 0e be c9 04 26 be 94 ef 3e 3d a3 be b4 bd
       -0.13964234 -0.16212763 0.0466152 -0.088254236
000030 2d 78 66 ba 93 60 90 bd 96 6f 0f be ae 21 04 be
       -0.00087917113 -0.0704967 -0.1400741 -0.12903473
000040 d1 9a 89 3c e6 cd 0d bd cf 3f 95 bd fd 7d 5a bd
       0.016797455 -0.03462019 -0.07287561 -0.053342808
000050 f0 28 ef bd 1f d2 77 3c 9e af 0a bd 4e 61 a7 3d
       -0.1167773 0.01512578 -0.033858888 0.08172856
000060 24 61 cf bd a6 8b 5c bd 0b 13 19 be f0 83 48 bd
       -0.1012595 -0.053844117 -0.1494867 -0.04895395
000070 1b ff 03 bd 77 88 45 bc 4a b8 22 3d 63 c1 03 be
       -0.03222571 -0.012056462 0.039726533 -0.1286674
000080 ea 3e fd bd c3 ea dd 3d 38 be f2 bd a6 05 bf bd
       -0.123655155 0.10835793 -0.118526876 -0.09327249
000090 7b 0c 1b be 8e 28 11 be 91 74 e9 3d 94 bf df 3c
       -0.1514148 -0.14175627 0.113991864 0.027313031
0000a0 26 c1 29 be ef 1f d5 bd d5 86 05 3d 34 7b 13 3e
       -0.16577587 -0.104064815 0.03259929 0.14402467
0000b0 cb 92 e6 bd a0 1b 45 3c 78 b6 b0 3d 61 21 37 bd
       -0.11258467 0.012030512 0.08628553 -0.044709567
0000c0 43 0d 10 3e fc a8 0d be 2d 04 23 be 60 0a ae 3d
       0.14067559 -0.13833994 -0.15919562 0.084980726
0000d0 5b 9b d9 3d 33 fe b9 3c 3d 5b cf bc bc b3 c3 bd
       0.10625335 0.02270422 -0.02531206 -0.09555766
0000e0 78 3d c2 bd a3 51 e8 bd 31 3a c2 3d a5 fd 2c be
       -0.094843805 -0.11343696 0.094837554 -0.16893633
0000f0 c7 ad 0f be 55 91 ba bd b2 9f 06 be 6e 50 1f be
       -0.14031135 -0.09109751 -0.13146856 -0.15558025
000100 61 c0 f4 bd 42 48 cb 3d e4 44 a1 3d 1b de b7 3d
       -0.11950756 0.099258915 0.07874468 0.0897791
000110 cb c1 8c 3d 8f 07 ec bd 7e ec b1 bd 17 03 95 bd
       0.068729006 -0.11524879 -0.086876854 -0.0727598
000120 1a 02 71 3d 05 89 97 3c 02 d2 c7 3d e0 0a 0b be
       0.058839895 0.018497953 0.09756853 -0.13578367
000130 f0 bb ae bd f8 7c bb bd ee 48 dd bd da af c1 bc
       -0.0853194 -0.09154695 -0.10804926 -0.023643423
000140 cd a8 0d be 8a 48 c5 bd 45 4c b1 bd e4 a3 43 3d
       -0.13833924 -0.09632976 -0.086571254 0.04776372
000150 58 75 2e 3e 23 46 70 bc 89 21 8a bd 31 0e d6 bd
       0.1703695 -0.014665159 -0.067446776 -0.104519255
000160 74 c5 25 3e 2a df a0 bc 91 ce ca 3d b8 80 10 3e
       0.16188604 -0.019637663 0.09902681 0.14111602
000170 04 eb ea bc ae 96 8b bd f6 23 cb bd e5 48 0f be
       -0.028676517 -0.06815849 -0.099189684 -0.13992651
000180 dd 80 68 be d6 0b 99 bd 18 7a 1e be 5a be e5 3d
       -0.22705407 -0.07472961 -0.15476263 0.11217947
000190 6b e0 71 be 31 7a 39 be cc 13 75 bd 83 5f 8c bc
       -0.23620765 -0.18113019 -0.059833333 -0.017135387
0001a0 30 9a 9c bd cf 03 a4 3c 21 c1 d9 bd 96 67 0b be
       -0.076465964 0.020021347 -0.106325395 -0.13613734
0001b0 df bd 9e 3c c2 a1 1b 3e 16 80 12 be 23 25 44 bd
       0.019377647 0.15198424 -0.14306673 -0.04788698
0001c0 dd c5 0f 3c 7d 87 92 3d fc 10 00 3a 39 33 4f bd
       0.008775202 0.071547486 0.00048853434 -0.05058596
0001d0 aa e7 60 bc 97 5f 5a 3c 53 7f 04 3c 1d 29 03 3e
       -0.013727108 0.013328454 0.008086997 0.12808652
0001e0 7e f3 1b 3d 92 ad d4 bd 36 7d 82 bc 65 30 1f be
       0.03807401 -0.103846684 -0.015928846 -0.15545805
0001f0 56 27 10 be d7 a3 20 be 24 9b ae bd cb 82 08 be
       -0.14077505 -0.156875 -0.085256845 -0.13331144
000200 56 52 73 ba aa 65 0b 3e f9 9b ff bc df 4a eb bd
       -0.00092819834 0.13613 -0.031202303 -0.1148889
000210 01 0c 3f bd ef 4b b8 bd 0c 90 8c bd 8e cc a6 3d
       -0.046642307 -0.08998858 -0.06863412 0.081444845
000220 7f 27 f0 3d 60 ce d5 3c 1f 3d 86 ba 43 62 93 bd
       0.11726283 0.026099384 -0.0010241604 -0.07196476
000230 8d 8a 93 3d ac 0d ed bc 28 b9 32 bd 78 84 89 3d
       0.07204161 -0.028937183 -0.04363361 0.067147195
000240 ee 62 ca 3d 29 0b ca bd 40 37 96 3d c4 f2 bd bd
       0.098821506 -0.0986541 0.07334757 -0.092748195
000250 93 3e 00 3e b5 6a ad 3d 67 c3 bf 3d 4d 65 00 3e
       0.1252387 0.084676184 0.09363442 0.12538643
000260 cd 34 8a 3d bd 34 e9 bc 4a fa 21 bd d5 14 1d 3d
       0.06748352 -0.02846753 -0.039545335 0.038349945
000270 8b f4 03 be df 10 2c 3e da 01 e9 3d 77 8c 94 bb
       -0.12886254 0.16803311 0.11377306 -0.0045333463
000280 d6 57 ab 3b 87 42 10 be 92 ab 03 be 5a f7 39 3d
       0.0052289767 -0.14087878 -0.12858418 0.04540191
000290 8c fe 0b be b8 49 3b 3b 62 e1 02 3e 68 a2 08 be
       -0.1367132 0.0028577875 0.12781289 -0.13343203
0002a0 53 d7 d9 bd 72 de 0a be 4e 9d 9d bd a7 48 e4 bd
       -0.10636773 -0.13561419 -0.07696019 -0.1114667
0002b0 6b f4 92 bd 27 75 c5 3d 82 d8 c6 3d 48 33 02 bd
       -0.07175525 0.09641486 0.09709264 -0.031787187
0002c0 66 6d 38 be d3 bc a7 bd ce 13 69 3c 4d 04 3f bd
       -0.18010482 -0.08190312 0.014225913 -0.04663496
0002d0 99 45 14 3c 2b a3 1c 3e d3 cd c3 3b a3 c1 b5 3b
       0.0090497965 0.15296619 0.005975464 0.005546765
0002e0 2b b7 18 3c 10 06 b0 bd c7 33 2b bb 60 6a 13 3e
       0.009321014 -0.08594906 -0.002612339 0.14396048
0002f0 eb 5b 22 be a6 79 75 bc 8b 94 aa 3d 96 e4 c3 bd
       -0.15855376 -0.0149826165 0.083291136 -0.09565084
000300 40 d5 9d bc dc cf 20 3e bf ad bc bc 6b fe ee 3d
       -0.019266725 0.15704292 -0.023032067 0.1166962
000310 82 7c 7a ba 4f ed 0c be c3 09 e7 3d c8 a8 79 bb
       -0.0009555296 -0.13762401 0.11281159 -0.0038094986
000320 19 c5 25 be d8 a9 47 bd 3a cb 0b 3e 0a 85 4f 3d
       -0.16188468 -0.04874596 0.13651744 0.050663985
000330 f8 90 0b 3e 40 c7 b0 3d bd ef 2e 3e e8 8c 06 3d
       0.1362952 0.08631754 0.1708364 0.032849222
000340 94 e8 0d be 83 dc bf 3d f1 92 34 bb 17 d0 d7 3d
       -0.13858253 0.09368231 -0.0027553404 0.10537737
000350 bb d7 cc 3d e1 4d 9f bd 90 04 b4 bc e9 9f 35 3e
       0.10002085 -0.07778526 -0.021974832 0.17736782
000360 4b e6 3f 3d 76 07 92 bd 7e 98 26 bc ad 68 6d 3d
       0.046850484 -0.07130329 -0.010168193 0.057961155
000370 51 9b 5e bc 29 d4 90 bd 5a 05 84 bd 87 10 40 3d
       -0.013586835 -0.07071716 -0.06446333 0.04689076
000380 63 70 31 3e a9 a5 15 3d 17 8b 20 3e 48 ce 42 bc
       0.17328028 0.03653494 0.15678059 -0.011890002
000390 c6 89 0d 3e 3d cd 92 bd 43 fe 35 3e b5 50 ec 3c
       0.13822088 -0.07168052 0.17772774 0.028847078
0003a0 75 58 75 3d 24 0a 6e bd ad ab a2 bc 06 0a 3e be
       0.059898812 -0.05811514 -0.019857252 -0.18558511
0003b0 dd 1b 17 be ce 06 46 bd 8f 41 3f 3d 23 d6 d8 bd
       -0.14756723 -0.048346333 0.04669338 -0.10587718
0003c0 a7 27 65 3d 88 86 ab bd 10 7e 1d be d3 7f ca 3c
       0.05594602 -0.08375269 -0.1538012 0.024719154
0003d0 ba 58 cf bd a0 7f 50 3c 88 8a 60 3e ea ca b6 bd
       -0.10124345 0.012725741 0.21927845 -0.089254215
0003e0 fe c2 c0 bd ef 93 1b 3c d6 8b 9c bd ea 63 4f 3d
       -0.09412192 0.009495719 -0.07643859 0.050632395
0003f0 c5 f6 9e 3b 4c 55 07 3e bb 0c 38 3d bb 34 93 3d
       0.0048511946 0.13216132 0.044934016 0.07187792

sequential_1/bidirectional_1_2/backward_lstm_1_1/lstm_cell_1/add_1/ReadVariableOp/resource:0 f4 [128]
000000 1e a3 b1 3d 9b ee 06 3d 43 b7 55 3d 72 0a 12 3d
       0.0867369 0.032942396 0.052176725 0.035654493
000010 37 da 06 3c 2f e3 8a 3d 13 5f 2e 3e b7 8e e3 3d
       0.008230737 0.06781613 0.17028455 0.11111205
000020 de 48 d5 3d 68 54 d5 3d 54 76 6c 3d 4a 0e a1 3d
       0.10414289 0.1041649 0.057730034 0.078640535
000030 40 91 b1 3c fb 08 7a 3c eb 15 1d 3d 69 79 4d 3c
       0.021675706 0.01526093 0.03835098 0.0125411535
000040 de e0 01 3d ea 15 6b 3d ea 67 c2 3c 66 a4 52 3d
       0.03170859 0.057393946 0.02373119 0.051426314
000050 07 0a 6d 3d 58 a6 00 3d 4f ce 12 3d 4e 2c 49 3d
       0.05787089 0.031408638 0.035841282 0.049114518
000060 b7 fa 48 3d 4b 16 b3 3d dc 1c cb 3d c8 1d a3 3c
       0.049067225 0.087444864 0.09917614 0.019911662
000070 78 fc 84 3d 05 55 25 3d 02 95 ce 3d 98 76 0a 3e
       0.06493467 0.040364284 0.10087015 0.13521802
000080 4b f7 85 3f ca 16 81 3f 4b 5a 87 3f 74 5f 81 3f
       1.0466093 1.008508 1.057443 1.0107255
000090 58 a2 83 3f 32 0d 86 3f 14 61 8e 3f e6 12 86 3f
       1.0283918 1.0472777 1.1123376 1.0474517
0000a0 7d 16 8a 3f d8 8e 86 3f 4f 36 82 3f 6b 7f 88 3f
       1.0788113 1.0512342 1.0172824 1.0663885
0000b0 34 a9 83 3f 98 5a 83 3f 74 4b 82 3f 4b f8 81 3f
       1.0286012 1.0262022 1.0179276 1.0153898
0000c0 42 d4 82 3f 13 3a 80 3f 5c 8f 7e 3f 02 c5 86 3f
       1.0221026 1.0017723 0.994375 1.0528872
0000d0 62 20 86 3f 9c 13 84 3f c7 cd 7b 3f d8 73 84 3f
       1.0478632 1.0318484 0.98360866 1.0347853
0000e0 9c 22 81 3f 35 55 8a 3f 19 f7 87 3f 4c c4 85 3f
       1.0088687 1.0807253 1.0622283 1.045053
0000f0 18 69 87 3f 7c 40 82 3f a8 23 88 3f 2c f8 88 3f
       1.0578947 1.0175929 1.0635881 1.0700736
000100 36 d2 6c 3c f4 e3 06 bb 0c 51 df 3b c1 52 22 bc
       0.014454415 -0.0020582648 0.0068150815 -0.009907425
000110 60 36 ff 3a d7 b9 a9 3d 50 a2 9b 3d c5 68 e1 bc
       0.0019471161 0.08287399 0.07599318 -0.027515778
000120 28 8d 33 ba dd 77 81 3c 3e 50 87 bd 09 66 09 3d
       -0.0006849342 0.015804226 -0.06607102 0.033544574
000130 60 90 48 3c 6c 56 d7 3d 8c f8 01 3a e1 bd 55 3d
       0.012241453 0.105145305 0.0004957996 0.052183036
000140 aa cf 3e 3c 34 e8 76 3b d5 51 95 bb 63 36 44 3d
       0.011646191 0.0037675025 -0.0045568743 0.04790343
000150 87 bb f0 3c 9d ee ac bb e1 99 1f 3c 6a a8 6b 3c
       0.029386295 -0.0052774684 0.009741277 0.014383415
000160 0a 42 72 3d 33 20 81 bd 39 79 dc 3c 81 ff c0 bb
       0.05914501 -0.0630497 0.026913272 -0.0058898334
000170 90 b2 71 bd c9 fa 78 3d 43 2f 39 bd db de 5c 3c
       -0.05900818 0.060786042 -0.045211088 0.013480867
000180 0a 3d 24 3e a4 03 d2 3c d0 1b a1 3d 77 23 a6 3d
       0.1603891 0.025636502 0.07866633 0.08112233
000190 63 e5 0d 3e e3 a9 b1 3d 55 57 f7 3d da 60 db 3d
       0.13857035 0.086749814 0.12077204 0.10711832
0001a0 7d 10 44 3e 4c cb 31 3e dd f5 ab 3d 71 0a 0d 3e
       0.19146915 0.17362708 0.08396504 0.13773514
0001b0 cc 80 77 3d e7 8e bc 3d 6a a1 ff 3d 69 f3 18 3d
       0.060425565 0.09206944 0.12481959 0.03734151
0001c0 76 f6 84 3d 98 fb b1 3d 83 14 eb 3d 14 83 0e 3e
       0.06492321 0.08690566 0.11478522 0.1391719
0001d0 12 26 45 3d 8b 7f e2 3b de c7 bb 3d 76 93 01 3e
       0.04813201 0.006912177 0.09168981 0.12653908
0001e0 1f 47 95 3d c8 57 b7 3d df b2 45 3e e9 06 72 3d
       0.07288956 0.0895229 0.19306515 0.05908862
0001f0 59 cb be 3c bb 1d f6 3c 5a c2 e3 3d 35 19 19 3e
       0.023290323 0.030043473 0.11121054 0.14951022

sequential_1/bidirectional_1_2/backward_lstm_1_1/lstm_cell_1/Cast_1/ReadVariableOp/resource:0 f4 [32, 128]
000000 fe 3a 60 bd d8 c5 b7 bd cd 05 5c 3e f4 bd 29 3d
       -0.05474376 -0.089732826 0.21486588 0.04144092
000010 1f 33 3c bd 43 7a 61 be c1 fa 8d bd 49 0b b4 3d
       -0.04594719 -0.22019295 -0.06932593 0.08791215
000020 3c 9f 21 3d 50 98 32 be c0 0a b2 3c a6 34 58 3c
       0.0394585 -0.17440915 0.021733642 0.013196146
000030 d9 36 47 3e b3 c7 94 be 99 ce a6 3d a1 2b 1e 3e
       0.19454516 -0.29058608 0.08144874 0.1544633
000040 ee 0c dd 3d aa 11 48 3c c8 e8 0d 3e 6a 49 3e 3e
       0.10793482 0.012211243 0.1385833 0.18582693
000050 46 5a 28 3d 55 ad 05 3d 8e d7 52 3e 9e d2 20 3e
       0.041101716 0.032636005 0.2059004 0.15705344
000060 d9 3f 8f 3d e8 21 f8 3b 50 b2 8b bd f0 ce 56 bc
       0.069946 0.0075724013 -0.0682112 -0.013110861
000070 13 4f ec 3d 7b 85 a9 3c cf f9 f1 bc 2d 53 fb bd
       0.1153852 0.020693531 -0.029538063 -0.12271724
000080 04 3c 65 3d 0a 8d 48 3d e2 76 5a 3e 6d 8b 78 3b
       0.05596544 0.04896263 0.21334413 0.00379249
000090 ec bb c9 3d 65 76 7b 3d e2 3d 07 3e 78 b7 a3 3d
       0.098502964 0.061392207 0.132072 0.07993978
0000a0 e3 ba 35 3d 8b 74 c9 3d 59 8b dc 3d bf b2 4b 3d
       0.044367682 0.09836682 0.10768766 0.049731012
0000b0 66 8f 0d 3e ba 21 bf bd ff 91 a2 3d 48 45 e7 3d
       0.13824233 -0.09332605 0.07938003 0.11292511
0000c0 0d d8 ef 3d c0 c2 2e 3d 26 a6 0d be 43 64 03 bc
       0.1171113 0.042666197 -0.13832912 -0.00801951
0000d0 f2 9f ef bc 1f c8 c7 3d 51 b0 ad 3d eb 86 69 3c
       -0.029251073 0.09754967 0.08480895 0.014253358
0000e0 c9 1e f1 bc 1b 51 3a be 47 99 80 3d 1d 2f 97 3d
       -0.029433625 -0.18195002 0.06279235 0.07382033
0000f0 59 5d a0 3e 9d 86 01 be 21 a3 9f 3d 84 75 3e 3e
       0.3132122 -0.12649007 0.07794786 0.18599516
000100 6c d5 8c bd 5a 2b 9f 3c 63 d6 8c 3d a8 9c 20 3c
       -0.068766445 0.019429851 0.068768285 0.009802975
000110 09 58 48 3e f5 5a 9d 3c d6 89 1e 3e d4 88 51 bd
       0.19564833 0.01920841 0.15482268 -0.05115588
000120 77 67 0f be d1 39 ee bd 76 bd c4 3d c6 f2 a9 bb
       -0.14004312 -0.11632121 0.09606449 -0.0051864116
000130 71 82 29 be b9 bd 2c 3d b6 16 4f bd ca 8e 68 bc
       -0.16553666 0.04217312 -0.05055877 -0.0141942
000140 d3 25 61 3d 42 36 3f bd 3a 09 e2 bd fb 3f 69 3c
       0.054967713 -0.046682604 -0.11036916 0.014236446
000150 ac a5 ac 3d 59 58 51 3d 4e 90 9a bb 62 4e 9c 3b
       0.08430037 0.051109646 -0.0047169095 0.004770086
000160 1e b4 6e be b3 1c b9 3d c1 3a ba 3d f4 87 86 bc
       -0.23310897 0.09038677 0.09093238 -0.01642225
000170 d7 ed 2e bd 0a 47 06 3e 1e 88 6c bd a7 00 89 3c
       -0.04270729 0.13113037 -0.057747 0.016723944
000180 c5 8f d0 3d 78 c9 1e bc b1 d6 92 3e b8 29 d7 3d
       0.10183672 -0.009691589 0.28679422 0.10506004
000190 57 97 96 3d 91 eb a0 bd d6 38 68 3d d7 9e e2 bd
       0.073530845 -0.07857431 0.056694828 -0.110654525
0001a0 92 7b 86 bc c8 ad 22 bd 49 63 0c bd f2 68 e7 bb
       -0.016416345 -0.039716512 -0.034274373 -0.007062071
0001b0 e0 fd 69 3e 3c 26 be bd de e3 23 3e 92 81 89 3d
       0.22850752 -0.092846364 0.16004893 0.06714167
0001c0 72 54 38 bd ea c9 08 3e 9e b2 23 3d 60 9c d5 3d
       -0.04500241 0.13358274 0.039965264 0.10430217
0001d0 fc 1c 00 3e 81 ab 0f 3e a1 18 cc 3e 18 3a 4e 3d
       0.12511057 0.14030267 0.3986254 0.05034837
0001e0 13 de ac bd 52 9b 2b be eb 2b 88 3d 68 19 93 3c
       -0.08440795 -0.16758469 0.06649002 0.01795645
0001f0 b8 93 63 3e 7a 39 02 be 41 71 22 3d f5 a4 4b bb
       0.22224319 -0.12717238 0.03965879 -0.0031073664
000200 19 dc a6 bd fb e6 9c bc ea ff df 3d a9 b9 e6 bc
       -0.08147449 -0.019153109 0.109374836 -0.028164702
000210 18 c0 73 3e 6a 84 c7 3d 0f 81 fc bc ef 1d 1d bc
       0.23803747 0.09742053 -0.030823259 -0.009589656
000220 aa 6e 91 bd 67 60 bd 3d 4d 1c 49 bd b1 8e 4d 3d
       -0.071011856 0.09246903 -0.049099255 0.05018491
000230 60 87 94 bd ec 09 b7 bc 37 cc f2 3d bb 2e 11 3e
       -0.07252383 -0.022343598 0.11855357 0.14177983
000240 f9 63 66 bd c0 53 93 bd 49 12 68 bd b2 94 08 3e
       -0.056247685 -0.071937084 -0.056658063 0.13337973
000250 6e 7c ca bc f5 0d a7 3d 49 34 38 be 6c a4 2c bd
       -0.024717536 0.08156959 -0.17988695 -0.042148992
000260 ee 8f 00 be 3e a2 0d 3e 18 c0 02 be f2 0e 72 bd
       -0.12554905 0.13831422 -0.1276859 -0.059096284
000270 c9 e4 90 bd d1 71 c1 3c 1b 11 b2 3d b3 43 10 bd
       -0.07074887 0.023613842 0.08694669 -0.035220813
000280 f2 a0 09 bd 67 03 51 3d 57 b3 23 be 10 ac f9 bd
       -0.033600755 0.051028635 -0.15986381 -0.121910214
000290 35 f8 06 3e 20 a4 ee bd 43 2c 2b be d1 fa f1 bc
       0.13180621 -0.11652398 -0.16716103 -0.029538544
0002a0 72 09 28 be c0 23 32 be 62 34 9e bd 65 6f a5 3d
       -0.16409853 -0.1739645 -0.07724835 0.080778874
0002b0 f5 9a 20 be 07 03 1d 3d 5f 47 27 bd 3d 4e a5 3d
       -0.15684111 0.038332965 -0.04083955 0.080715634
0002c0 e5 48 18 be 4a a1 16 3c 5f 8a 97 bd ab ce 80 3d
       -0.14871557 0.009193728 -0.07399439 0.06289419
0002d0 13 97 6d 3d 08 70 91 bd be 21 63 3c 68 0c 0e 3d
       0.058005404 -0.071014464 0.013863025 0.0346798
0002e0 70 58 30 3d 38 67 16 3d 8c 09 58 3d ee 55 a8 bd
       0.04305309 0.03671953 0.05274348 -0.08219515
0002f0 b6 f8 27 bd 02 06 c0 3c 6c 76 29 bc ea d2 a6 3d
       -0.041008674 0.023440365 -0.010343175 0.081456974
000300 91 2c 80 bd cf 56 22 3e 76 75 10 bd ba 82 05 3e
       -0.062585 0.15853427 -0.03526827 0.1303815
000310 33 6e 5b 3e 76 0d bf bd 2e 97 87 bd 62 af cc bc
       0.21428756 -0.09328739 -0.06620632 -0.024985973
000320 42 3b 79 bd 25 49 81 3d 04 9f 02 bd 16 70 80 bd
       -0.06084753 0.06312779 -0.03188993 -0.06271379
000330 38 09 50 bd 48 c1 38 3d d0 c9 c9 bb 6a e3 17 be
       -0.05079004 0.045106202 -0.006158091 -0.14832845
000340 14 42 31 3d 64 15 4f be ed c8 c6 bc 0a 8e c4 bd
       0.043275908 -0.20223004 -0.02426573 -0.09597404
000350 63 82 4c bb 37 bf bc bd 2c c3 8a bd 38 9a 21 3e
       -0.0031205646 -0.09216159 -0.06775507 0.15781486
000360 8b 3c ec bc 1d fe 89 3c 78 32 b4 bc f6 ea 16 be
       -0.028837463 0.016844803 -0.021996722 -0.14738068
000370 fe e6 c7 bc 70 e7 80 bd 47 aa f3 3d 29 cf 8b bc
       -0.024402138 -0.06294143 0.11897712 -0.017066555
000380 08 69 48 bc 0f 53 e9 bd 30 39 14 be 6c 9b 23 bd
       -0.012232073 -0.11392795 -0.1447494 -0.039943144
000390 d3 97 71 3d 96 82 07 be 2a db 32 be 03 51 c6 bd
       0.05898268 -0.13233408 -0.17466417 -0.096834205
0003a0 5f 6a 40 3c e1 3a 6e bd c4 20 93 bd 3d 85 6a bd
       0.011744111 -0.05816162 -0.07183984 -0.057255972
0003b0 85 6c 31 be 43 60 49 bc 70 70 3c be 25 52 18 bd
       -0.17326553 -0.012291017 -0.18402267 -0.037187714
0003c0 8f f7 dc bd 2b dc 90 be 7b 61 a0 3c 40 38 52 bb
       -0.107894056 -0.28292975 0.019577732 -0.0032076985
0003d0 d7 31 84 bc 57 28 13 3d 49 0e 14 be 5e a3 88 bd
       -0.016137047 0.035927143 -0.14458574 -0.06671785
0003e0 99 08 91 bd b8 6a c7 3d 06 92 d4 bc 2d da d6 bd
       -0.07081718 0.09737152 -0.025948536 -0.104908325
0003f0 d9 1a 30 bd cf 2d eb bc a4 5b dd bd a7 30 e5 3d
       -0.042994354 -0.028708367 -0.10808495 0.1119092
